trained_models/cnn_100_200_[100]_3_[3]_Collection Mode_zeros_60-20-20_polisis_attr_state.pt (torch_old, 983810 bytes, 7 tensors)

embedding.weight f4 [1650, 100]
000000 00 00 00 00 00 00 00 00 00 00 00 00 00 00 00 00
       0.0 0.0 0.0 0.0
000010 00 00 00 00 00 00 00 00 00 00 00 00 00 00 00 00
       0.0 0.0 0.0 0.0
000020 00 00 00 00 00 00 00 00 00 00 00 00 00 00 00 00
       0.0 0.0 0.0 0.0
000030 00 00 00 00 00 00 00 00 00 00 00 00 00 00 00 00
       0.0 0.0 0.0 0.0
000040 00 00 00 00 00 00 00 00 00 00 00 00 00 00 00 00
       0.0 0.0 0.0 0.0
000050 00 00 00 00 00 00 00 00 00 00 00 00 00 00 00 00
       0.0 0.0 0.0 0.0
000060 00 00 00 00 00 00 00 00 00 00 00 00 00 00 00 00
       0.0 0.0 0.0 0.0
000070 00 00 00 00 00 00 00 00 00 00 00 00 00 00 00 00
       0.0 0.0 0.0 0.0
000080 00 00 00 00 00 00 00 00 00 00 00 00 00 00 00 00
       0.0 0.0 0.0 0.0
000090 00 00 00 00 00 00 00 00 00 00 00 00 00 00 00 00
       0.0 0.0 0.0 0.0
0000a0 00 00 00 00 00 00 00 00 00 00 00 00 00 00 00 00
       0.0 0.0 0.0 0.0
0000b0 00 00 00 00 00 00 00 00 00 00 00 00 00 00 00 00
       0.0 0.0 0.0 0.0
0000c0 00 00 00 00 00 00 00 00 00 00 00 00 00 00 00 00
       0.0 0.0 0.0 0.0
0000d0 00 00 00 00 00 00 00 00 00 00 00 00 00 00 00 00
       0.0 0.0 0.0 0.0
0000e0 00 00 00 00 00 00 00 00 00 00 00 00 00 00 00 00
       0.0 0.0 0.0 0.0
0000f0 00 00 00 00 00 00 00 00 00 00 00 00 00 00 00 00
       0.0 0.0 0.0 0.0
000100 00 00 00 00 00 00 00 00 00 00 00 00 00 00 00 00
       0.0 0.0 0.0 0.0
000110 00 00 00 00 00 00 00 00 00 00 00 00 00 00 00 00
       0.0 0.0 0.0 0.0
000120 00 00 00 00 00 00 00 00 00 00 00 00 00 00 00 00
       0.0 0.0 0.0 0.0
000130 00 00 00 00 00 00 00 00 00 00 00 00 00 00 00 00
       0.0 0.0 0.0 0.0
000140 00 00 00 00 00 00 00 00 00 00 00 00 00 00 00 00
       0.0 0.0 0.0 0.0
000150 00 00 00 00 00 00 00 00 00 00 00 00 00 00 00 00
       0.0 0.0 0.0 0.0
000160 00 00 00 00 00 00 00 00 00 00 00 00 00 00 00 00
       0.0 0.0 0.0 0.0
000170 00 00 00 00 00 00 00 00 00 00 00 00 00 00 00 00
       0.0 0.0 0.0 0.0
000180 00 00 00 00 00 00 00 00 00 00 00 00 00 00 00 00
       0.0 0.0 0.0 0.0
000190 00 00 00 00 00 00 00 00 00 00 00 00 00 00 00 00
       0.0 0.0 0.0 0.0
0001a0 00 00 00 00 00 00 00 00 00 00 00 00 00 00 00 00
       0.0 0.0 0.0 0.0
0001b0 00 00 00 00 00 00 00 00 00 00 00 00 00 00 00 00
       0.0 0.0 0.0 0.0
0001c0 00 00 00 00 00 00 00 00 00 00 00 00 00 00 00 00
       0.0 0.0 0.0 0.0
0001d0 00 00 00 00 00 00 00 00 00 00 00 00 00 00 00 00
       0.0 0.0 0.0 0.0
0001e0 00 00 00 00 00 00 00 00 00 00 00 00 00 00 00 00
       0.0 0.0 0.0 0.0
0001f0 00 00 00 00 00 00 00 00 00 00 00 00 00 00 00 00
       0.0 0.0 0.0 0.0
000200 00 00 00 00 00 00 00 00 00 00 00 00 00 00 00 00
       0.0 0.0 0.0 0.0
000210 00 00 00 00 00 00 00 00 00 00 00 00 00 00 00 00
       0.0 0.0 0.0 0.0
000220 00 00 00 00 00 00 00 00 00 00 00 00 00 00 00 00
       0.0 0.0 0.0 0.0
000230 00 00 00 00 00 00 00 00 00 00 00 00 00 00 00 00
       0.0 0.0 0.0 0.0
000240 00 00 00 00 00 00 00 00 00 00 00 00 00 00 00 00
       0.0 0.0 0.0 0.0
000250 00 00 00 00 00 00 00 00 00 00 00 00 00 00 00 00
       0.0 0.0 0.0 0.0
000260 00 00 00 00 00 00 00 00 00 00 00 00 00 00 00 00
       0.0 0.0 0.0 0.0
000270 00 00 00 00 00 00 00 00 00 00 00 00 00 00 00 00
       0.0 0.0 0.0 0.0
000280 00 00 00 00 00 00 00 00 00 00 00 00 00 00 00 00
       0.0 0.0 0.0 0.0
000290 00 00 00 00 00 00 00 00 00 00 00 00 00 00 00 00
       0.0 0.0 0.0 0.0
0002a0 00 00 00 00 00 00 00 00 00 00 00 00 00 00 00 00
       0.0 0.0 0.0 0.0
0002b0 00 00 00 00 00 00 00 00 00 00 00 00 00 00 00 00
       0.0 0.0 0.0 0.0
0002c0 00 00 00 00 00 00 00 00 00 00 00 00 00 00 00 00
       0.0 0.0 0.0 0.0
0002d0 00 00 00 00 00 00 00 00 00 00 00 00 00 00 00 00
       0.0 0.0 0.0 0.0
0002e0 00 00 00 00 00 00 00 00 00 00 00 00 00 00 00 00
       0.0 0.0 0.0 0.0
0002f0 00 00 00 00 00 00 00 00 00 00 00 00 00 00 00 00
       0.0 0.0 0.0 0.0
000300 00 00 00 00 00 00 00 00 00 00 00 00 00 00 00 00
       0.0 0.0 0.0 0.0
000310 00 00 00 00 00 00 00 00 00 00 00 00 00 00 00 00
       0.0 0.0 0.0 0.0
000320 00 00 00 00 00 00 00 00 00 00 00 00 00 00 00 00
       0.0 0.0 0.0 0.0
000330 00 00 00 00 00 00 00 00 00 00 00 00 00 00 00 00
       0.0 0.0 0.0 0.0
000340 00 00 00 00 00 00 00 00 00 00 00 00 00 00 00 00
       0.0 0.0 0.0 0.0
000350 00 00 00 00 00 00 00 00 00 00 00 00 00 00 00 00
       0.0 0.0 0.0 0.0
000360 00 00 00 00 00 00 00 00 00 00 00 00 00 00 00 00
       0.0 0.0 0.0 0.0
000370 00 00 00 00 00 00 00 00 00 00 00 00 00 00 00 00
       0.0 0.0 0.0 0.0
000380 00 00 00 00 00 00 00 00 00 00 00 00 00 00 00 00
       0.0 0.0 0.0 0.0
000390 00 00 00 00 00 00 00 00 00 00 00 00 00 00 00 00
       0.0 0.0 0.0 0.0
0003a0 00 00 00 00 00 00 00 00 00 00 00 00 00 00 00 00
       0.0 0.0 0.0 0.0
0003b0 00 00 00 00 00 00 00 00 00 00 00 00 00 00 00 00
       0.0 0.0 0.0 0.0
0003c0 00 00 00 00 00 00 00 00 00 00 00 00 00 00 00 00
       0.0 0.0 0.0 0.0
0003d0 00 00 00 00 00 00 00 00 00 00 00 00 00 00 00 00
       0.0 0.0 0.0 0.0
0003e0 00 00 00 00 00 00 00 00 00 00 00 00 00 00 00 00
       0.0 0.0 0.0 0.0
0003f0 00 00 00 00 00 00 00 00 00 00 00 00 00 00 00 00
       0.0 0.0 0.0 0.0

convolutions.0.weight f4 [200, 1, 3, 100]
000000 97 ae d7 bd 73 50 20 3e ee 22 c6 bd 99 98 aa 3b
       -0.10531347 0.15655689 -0.09674631 0.0052061793
000010 6e ee 14 be b1 9e 46 3d ad 87 b0 3e d6 53 94 3d
       -0.14544079 0.048491184 0.34478512 0.07242553
000020 0a a5 39 3e eb d8 19 3d 06 6b 06 3e a8 25 0a bb
       0.18129364 0.037560385 0.13126764 -0.0021079574
000030 4e 10 66 3d b8 ce 0e be 15 bb dc 3c b1 45 2d 3e
       0.056167893 -0.13946044 0.026944676 0.16921116
000040 bd 58 7a bd 5c 9c ab bd 73 28 91 bc e4 be 65 3c
       -0.061119784 -0.083794326 -0.017719483 0.014022563
000050 64 d5 43 3e 4e 50 ac bd a7 74 8a 3d d4 fa 29 3e
       0.19124371 -0.084137544 0.06760531 0.1659959
000060 06 a2 cd 3d c7 b3 51 bd e6 6a 8b 3d fe 00 1e 3e
       0.10040669 -0.05119684 0.06807499 0.15430066
000070 ad b5 57 3e 96 f9 0d 3d e1 39 f0 3c c1 70 83 3d
       0.21065398 0.03466185 0.029324474 0.064179905
000080 68 76 88 bd 12 5d 05 3d 5c e9 9b bd 52 61 f6 bd
       -0.06663209 0.032559462 -0.07612869 -0.12030281
000090 9b 65 be bd 4a 37 27 3d 1e 0a c9 3c 95 9a 36 3e
       -0.092967235 0.040824212 0.024540957 0.17832406
0000a0 87 d4 ee bd c1 08 e3 ba 14 18 34 bd 3b d8 dd 3b
       -0.1166163 -0.0017321334 -0.043968275 0.0067701614
0000b0 17 37 10 3e a0 e3 98 3d 84 39 b2 3c d8 3a 9f 3d
       0.14083515 0.07465291 0.021755941 0.077748954
0000c0 c3 a3 0b bd 81 ed f2 bc bf 26 94 bd 34 2d 7d be
       -0.034091722 -0.029654266 -0.07233953 -0.24724275
0000d0 11 59 4c 3e c5 9f db 3d e5 32 2f bd 6e f0 14 be
       0.19955851 0.10723833 -0.042773146 -0.14544842
0000e0 f0 76 b8 bc 7b 3b 29 bd 27 a3 2a be 2d 5c df bc
       -0.022517651 -0.04131649 -0.166638 -0.027265633
0000f0 0e 69 2e bd c6 c0 8b 3d 7a 0d f8 bc cd 01 5f 3d
       -0.042580657 0.06823878 -0.030279864 0.054445077
000100 dc 0a aa 3c bc ec e8 bd 24 29 bb bb 11 2b 31 3e
       0.020757131 -0.113732785 -0.0057116915 0.17301585
000110 61 67 41 be 26 31 54 be 09 5a ef bd 2b ee 16 bd
       -0.18887092 -0.20721874 -0.11687095 -0.03684823
000120 25 d7 52 bd fa 3c 8d 3d 7e 45 6d be 68 4f fc bc
       -0.05147471 0.06896396 -0.2317104 -0.030799583
000130 57 9d b7 bd 05 e8 94 bc bd 43 0f 3e 1c a5 02 be
       -0.08965557 -0.018177042 0.13990684 -0.12758297
000140 5c c2 6c 3e e5 35 77 bd c3 1d 56 bc c3 98 a6 bd
       0.23121017 -0.060354132 -0.013068619 -0.08134606
000150 22 b3 a3 3d 13 f9 ae 3d 16 f6 46 bc aa 72 d5 bd
       0.07993151 0.08543601 -0.012143632 -0.10422261
000160 31 6d f2 bd 7b fd 20 bd 23 d7 82 3d dc 25 62 bd
       -0.11837233 -0.039304238 0.0638869 -0.055211887
000170 59 e4 62 bd 27 d8 0f 3e 31 34 d5 3d f7 ab cd 3d
       -0.05539355 0.140473 0.10410345 0.10042565
000180 9c 38 00 be 8f b1 2d 3d f7 ec b7 3d cf 08 ae 3c
       -0.12521595 0.04240566 0.08980744 0.021244435
000190 be 87 d7 bb b3 54 28 3d 28 40 86 bd 3f bb 9d 3c
       -0.006577461 0.0410964 -0.065552056 0.019254325
0001a0 45 57 cb 3d 5e 7d f8 bd 62 9b 15 be 35 51 0f bd
       0.09928755 -0.12133287 -0.14610055 -0.034989554
0001b0 a2 0e 26 3e 4f cb ac 3c 8f 99 14 be 6b 46 68 be
       0.1621652 0.021093039 -0.14511703 -0.22683112
0001c0 64 a6 4d bd 20 79 49 bc 03 5e 63 3c 33 78 1a be
       -0.05020751 -0.012296945 0.013877395 -0.15084915
0001d0 2a 79 1d 3b f7 58 e0 3d e9 26 b8 bd bd 29 04 3e
       0.0024028518 0.10954469 -0.089917965 0.12906547
0001e0 25 e3 55 3e eb e5 68 bc 81 5b 61 be 96 a7 fe 3d
       0.2088743 -0.014214973 -0.22007562 0.12434308
0001f0 ae fd 61 bc 1e b7 db bd 1f 6a 53 3d 90 bc dc bd
       -0.013793392 -0.10728286 0.051614877 -0.10778153
000200 b6 6a 2a bc 02 1e 9e ba 4d 20 15 bd 36 37 18 3e
       -0.010401418 -0.0012063386 -0.036407758 0.14864811
000210 fb ec bc bd 15 59 01 3e 4a 27 ca bc de 76 b8 3d
       -0.09224888 0.12631638 -0.024676938 0.09007047
000220 12 fd 08 3e 43 38 aa 3b 63 e9 2b bc 14 de 1d 3e
       0.13377789 0.005194695 -0.010492655 0.15416747
000230 fe 1d fe bd f9 e1 94 3d 82 75 0d 3d f8 8c e5 3c
       -0.12408064 0.07269663 0.034535892 0.02802132
000240 0d 75 22 3d f3 06 85 3d f1 c5 87 3d d7 ea 28 be
       0.03966241 0.06495466 0.06629551 -0.16495834
000250 83 f5 f6 bd ab eb d0 3b 9f 6e d1 bc d1 42 f7 3d
       -0.120585464 0.00637575 -0.025565444 0.12073291
000260 4d dd 52 bd 06 1e 62 3c 4d 45 64 3c 50 6f 32 bb
       -0.05148058 0.013801103 0.013932538 -0.0027226992
000270 67 fe a8 bb 4e 6d db bd e1 1e d4 3b 92 93 1d be
       -0.0051572802 -0.107142076 0.0064734076 -0.15388325
000280 5f 7f 89 bd a8 e8 16 3e 65 cb 55 3d 5a 04 d3 3d
       -0.06713747 0.14737189 0.052195925 0.10303564
000290 05 2b 86 3b 7e 13 e1 bb 2a b6 a6 bd b0 cc a9 3d
       0.004094484 -0.0068687787 -0.08140214 0.08290994
0002a0 3b 37 a2 bd 5d dd d3 bc e0 91 f5 3c 42 3e 43 3b
       -0.079206906 -0.02586239 0.029976785 0.0029791747
0002b0 fe aa b9 bc f1 17 d3 3d b1 3d 25 be b3 da 63 bd
       -0.022664543 0.10307301 -0.16136815 -0.05562849
0002c0 08 3d e0 3d 63 34 db bd 33 81 2a be 78 c9 6b 3e
       0.10949141 -0.10703351 -0.16650848 0.23026073
0002d0 98 ec 8d bd f3 f1 52 be fb ff 1c bd 75 f8 8b 3d
       -0.06929892 -0.20600109 -0.03833006 0.06834499
0002e0 7e 30 88 bd f0 95 19 bd 73 5e c9 3d 1b 2a 1e 3d
       -0.06649874 -0.037496507 0.09832468 0.038614374
0002f0 6a 24 6a bd b2 5f bb 3d 85 c6 e6 3d 7d bd 50 3d
       -0.057163633 0.09149112 0.11268333 0.05096196
000300 83 2e 8a 3e f5 06 7d 3d 19 8f 69 3d d3 04 b4 bc
       0.2698861 0.061774213 0.057021234 -0.021974957
000310 1f 3a 15 3c bc 03 03 3d 40 ca 69 3d 9d d0 70 bd
       0.009108095 0.031985983 0.057077646 -0.0587927
000320 2c 3f 3d 3d e3 c4 38 3e dd 25 1c bc f5 e8 69 3c
       0.046202824 0.18043856 -0.009530512 0.014276733
000330 e0 9f 7a 3e 08 b4 a6 bc 52 e0 05 be 1a c6 e6 bc
       0.2447505 -0.020349517 -0.13073853 -0.028170634
000340 d4 05 9d 3d 18 fc aa 3d ba f3 84 bd b5 4a 06 3e
       0.07667127 0.08348864 -0.064918 0.13114436
000350 19 bc 0a 3d a6 a8 98 3d 56 17 84 3b f4 72 7e bd
       0.03387079 0.07454042 0.004031102 -0.062121347
000360 ba a6 dc 3d dd 45 04 be 8d 84 62 be f2 65 7a bd
       0.10773988 -0.12917276 -0.22120877 -0.06113238
000370 85 b9 96 3d fd f6 8e 3d a5 1f da 3d 52 bd 8b bc
       0.07359604 0.06980703 0.10650567 -0.017058048
000380 fa 8d 86 3e 61 9b 22 3d 83 f9 05 be 00 67 f2 3c
       0.26280195 0.039698962 -0.13083462 0.02959013
000390 90 4f ff 3d c3 a8 57 bd 04 bd ce 3d ae 37 bc 3d
       0.12466347 -0.052651178 0.100946456 0.091903076
0003a0 54 2a 05 bd db f6 ec 3c f9 9f 05 be 4b 8d 29 3e
       -0.03251107 0.028926304 -0.13049306 0.16557805
0003b0 e0 72 4b be b7 c4 01 bd 29 04 de bd a7 81 b5 3e
       -0.1986804 -0.031681743 -0.10840637 0.3545048
0003c0 94 05 79 3c f5 f1 82 3e 06 f1 2e bd 6c 3f c2 3c
       0.015199084 0.25575224 -0.042710327 0.023711883
0003d0 89 32 55 3c 88 fa b2 bd 80 fe 56 bb df 80 8d bd
       0.013012537 -0.08739191 -0.0032805502 -0.06909346
0003e0 3d 39 f0 3d 1e 4c 89 3e 7a ca 22 3e bc 0c 03 3e
       0.11729667 0.26815885 0.15897551 0.12797827
0003f0 b4 22 b5 3c 54 a7 a4 3d 3d 5e a9 3d a1 c8 df 3a
       0.022111274 0.08039728 0.08269928 0.0017073342

convolutions.0.bias f4 [200]
000000 37 8e 70 bd 11 c0 aa bc 23 bf c8 bd 48 fc c4 bd
       -0.058729377 -0.020843538 -0.098020814 -0.09618431
000010 7e 31 b9 b9 d2 39 67 bd 3c 8d c5 bc 31 ad 60 bd
       -0.00035322824 -0.056451626 -0.024115197 -0.05485267
000020 45 16 c0 bb ab a4 dd bc 63 dd b5 bd 6a 9c 7a bd
       -0.0058620297 -0.027056059 -0.08880117 -0.061184324
000030 57 fb 2d bc d4 55 95 3d 78 45 8d bc ea 48 3f bc
       -0.010619006 0.07291761 -0.01724504 -0.011675099
000040 63 9c 17 bc b2 87 c7 bc 88 3a 9b 3c ff 83 19 be
       -0.009253594 -0.024356697 0.018948808 -0.14991759
000050 b1 69 a3 bc 90 79 83 bd 0d 9e 08 be 31 80 8b bd
       -0.019947859 -0.064196706 -0.13341542 -0.0681156
000060 b7 8e 8c bc 77 e7 1a be 3a 65 97 3d de 43 b1 bd
       -0.017157895 -0.1512736 0.07392354 -0.08655523
000070 47 46 ea ba f2 3f da bd 7d 23 ae bd 2c 9b e7 bc
       -0.0017873727 -0.10656728 -0.085028626 -0.028272234
000080 9a 5c 12 bd 56 55 1e bd 8c d0 df bd a0 fe 90 bc
       -0.035732843 -0.0386556 -0.10928449 -0.01769954
000090 2b 92 05 bd 19 d4 4a bc 51 1e 38 3d 93 f0 9d bb
       -0.0326101 -0.01237967 0.044950787 -0.0048199384
0000a0 a3 bf 1c be 8d 39 f7 bc 8d 86 3e bb 21 61 74 bd
       -0.15307479 -0.03017881 -0.0029071898 -0.05966294
0000b0 ec 47 0b bd a1 75 71 3d 64 5a 90 bd ec 84 92 bd
       -0.034004137 0.05895007 -0.07048491 -0.07154259
0000c0 b7 31 b7 bd d9 b2 91 bc e6 7b 2c bd 08 1c eb 3c
       -0.08945029 -0.017785477 -0.042110346 0.02869989
0000d0 07 ab 2c bc 96 23 51 bd d3 e5 c3 bd 40 9e 80 bc
       -0.010538823 -0.051059328 -0.0956532 -0.01570046
0000e0 74 a3 dd bd 40 08 64 bd 08 39 5b bd 28 ad c6 bd
       -0.10822192 -0.05567193 -0.053521186 -0.09700996
0000f0 a7 89 39 bc 45 0e 11 bd 02 ff 14 bd 91 76 e4 bc
       -0.011324323 -0.035414 -0.036376007 -0.027888568
000100 c2 1c 8e ba 2c fa f7 bc 7c e0 f1 bc d1 14 2a bd
       -0.0010842311 -0.030270658 -0.029525988 -0.04152376
000110 b0 be 4a bd 90 91 e7 bc 5b 49 19 be 31 70 98 bd
       -0.04949826 -0.028267652 -0.14969389 -0.07443274
000120 cd 66 c7 bc f2 9e 61 bd 8d 97 92 bd 8f 44 74 bd
       -0.024341011 -0.055083223 -0.07157812 -0.059635695
000130 63 d8 eb bc 4e 95 92 bd 7c b2 31 3d 6e 29 5e 3d
       -0.028789705 -0.07157384 0.043383107 0.05423873
000140 f1 5f 5a bc 0c 81 a1 3c 96 92 77 3d cf fb 36 be
       -0.013328538 0.019714855 0.06044253 -0.17869495
000150 5d fd 5c bd 30 37 16 bd 11 a0 d9 3b 33 ed f6 bc
       -0.053952564 -0.036673725 0.006641396 -0.030142402
000160 a6 be 1d bd a0 96 24 3b df 27 72 bc 0b 97 d4 bc
       -0.038511895 0.0025114194 -0.014780014 -0.02595093
000170 ed 5d 13 bd 4c b0 5f 3c fa 11 cc 3d 10 fd e2 3b
       -0.035978246 0.013652872 0.09964366 0.00692714
000180 2b 81 9a bd 4f 91 99 bd 2c 25 ad bc 9e f0 f1 bd
       -0.07544168 -0.074984185 -0.021135889 -0.11813472
000190 36 85 48 bc 49 e8 7f bc be 01 ef bb 13 04 87 bd
       -0.012238791 -0.015619346 -0.007293909 -0.06592574
0001a0 bf b0 66 bc 69 20 85 3d 2f 00 ab bc 27 72 11 3d
       -0.0140802255 0.06500322 -0.020874111 0.035509255
0001b0 53 41 b0 bd 79 70 0b be 3f 52 82 bd bf 48 05 3b
       -0.086062096 -0.13617124 -0.063633434 0.002033755
0001c0 25 de e1 bd 8c 49 26 bc b4 a7 ac bd 5d 92 e3 bd
       -0.11028699 -0.010149371 -0.08430424 -0.11111901
0001d0 9a 54 94 bc 4d fe f3 bc c1 b1 0a be ab e1 78 bc
       -0.018106747 -0.029784346 -0.1354437 -0.015190522
0001e0 3a d1 04 be 5f 80 6d bd 38 15 89 bd 31 11 15 3d
       -0.12970439 -0.057983752 -0.066935 0.036393348
0001f0 76 8a 3b 3d bd c4 aa bd 72 c9 c5 bd b1 7b 1b bc
       0.045786344 -0.08338306 -0.09657563 -0.00948994
000200 b6 f1 e4 3c 96 cb 8c bd 9b 5c 8d bb 46 e6 da bd
       0.027947288 -0.068747684 -0.004314018 -0.106884524
000210 26 5b d9 bd fb a3 8c bc 2f 68 1c bd 6f ea 59 bc
       -0.10613088 -0.017168036 -0.038185295 -0.013300522
000220 a8 21 d2 bc 07 c4 fd bb 66 8f 00 bc 13 51 54 bd
       -0.025650814 -0.0077443155 -0.007846689 -0.05183513
000230 fe c3 87 bd a4 2d 6b bc 4a c3 36 bc be 3a ef bc
       -0.066291794 -0.014354143 -0.011154959 -0.029202815
000240 3f fa 54 bc 0c e5 00 bc cc 82 48 bd 36 57 30 bd
       -0.012999116 -0.007867109 -0.048952863 -0.04305192
000250 36 9e ba bc 22 bf ba bc 09 03 b7 bd 02 5b 92 3c
       -0.022780519 -0.022796217 -0.08936126 0.017865662
000260 0d f8 a6 3c 09 c1 ba bd 1f 97 2e 3c 19 d5 39 bc
       0.020381952 -0.0911885 0.010656147 -0.01134231
000270 9a 1b 6b bc f1 46 d5 bc 20 fb f9 bd 17 fe 91 3d
       -0.014349842 -0.026034804 -0.122061014 0.07128542
000280 58 8d 78 bc 97 7e 85 bb 07 db a8 bd a9 1b a3 bc
       -0.015170418 -0.0040739286 -0.08244901 -0.01991065
000290 06 13 b0 3d 1e f2 6c bd 81 54 3c bd 28 5a d9 bb
       0.085973784 -0.05784809 -0.045979027 -0.006633062
0002a0 08 ad 85 bd 19 f5 93 bd 7d c6 57 bd 2f 3f 20 bd
       -0.06527144 -0.07224483 -0.052679528 -0.039122757
0002b0 e8 17 47 3d 98 35 55 bc b1 14 b6 bd ea 01 26 be
       0.048606783 -0.013013266 -0.08890665 -0.16211668
0002c0 d5 2e f0 3b 47 d8 9d bd 85 1f d2 bc b1 54 35 bd
       0.0073298016 -0.07707267 -0.025649795 -0.04427022
0002d0 3d 6d d0 bb 46 d7 4d bc 86 22 dc bc d0 2c 32 bd
       -0.0063606785 -0.012563532 -0.02687193 -0.043499768
0002e0 89 a6 1f 3d 2b 38 cd bc c8 f0 7c 3d e6 a6 67 bc
       0.03897718 -0.025051197 0.061753064 -0.014138913
0002f0 24 1a 28 3c 5a 66 80 bb 42 9e bf bc ab 33 0e bd
       0.010260139 -0.0039184513 -0.023390893 -0.034717243
000300 fd 2b 14 be 1e 11 ba bb 15 a0 9b bd 42 9b d1 bd
       -0.14469905 -0.00567831 -0.075988926 -0.10234691
000310 5a a2 07 bd e8 5e 84 bc 94 bc 65 bd 77 8a 66 bb
       -0.033113815 -0.016158536 -0.056088045 -0.0035177746

linear_layers.0.weight f4 [100, 200]
000000 1c f4 31 be bc 18 e0 3d 85 a3 4e 3e 6f 23 69 3e
       -0.17378277 0.10942218 0.20179565 0.22767423
000010 2b c0 80 be c0 9e 51 3e cd f9 76 3e 1d 89 ec 3d
       -0.25146613 0.20470715 0.24118729 0.1154959
000020 a6 0e 9f 3d 1b c0 7e 3d 5f e3 4e 3b 8a 05 d1 bc
       0.07766466 0.062194925 0.003156863 -0.025515337
000030 93 6b ff 3d fe 1f a4 bd 10 23 6e 3e 85 1f da 3d
       0.1247169 -0.080139145 0.23255563 0.10650543
000040 a2 85 11 be 69 81 03 be ad bd 6c 3d 5d c3 87 3d
       -0.14211133 -0.12842335 0.057798076 0.066290595
000050 ed aa e4 bd a2 d2 40 be 49 58 58 3d f6 99 f2 3c
       -0.11165414 -0.1883035 0.05281857 0.02961443
000060 d7 97 dd bd 35 05 60 bd d9 b3 b0 bd 05 e8 a2 3b
       -0.10819977 -0.054692466 -0.08628053 0.0049715065
000070 e2 2f ce bd b7 59 af 3d 4d 69 0b 3e f9 d1 9f 3d
       -0.10067727 0.085620336 0.13614388 0.07803721
000080 85 02 4a bd bb eb a0 3d e9 85 29 bd bb 9a d0 3d
       -0.04931881 0.07857462 -0.041387472 0.101857625
000090 8e d4 79 3d 6b de 9d 3e ab 13 23 be a6 d1 48 be
       0.060993724 0.30833754 -0.15925471 -0.19611225
0000a0 33 fc 20 be 7a fb 75 bd 6f 88 1d bd 39 41 64 3e
       -0.15721206 -0.06005428 -0.03846019 0.22290505
0000b0 c8 6d 45 39 ec a3 08 bd d4 72 02 be dc 10 2b 3e
       0.00018828281 -0.033359453 -0.12739116 0.1670565
0000c0 61 19 e2 bd da b9 e8 bd 0a 4c c3 3d 51 d8 a7 bd
       -0.11039997 -0.11363573 0.09535988 -0.08195556
0000d0 5b 36 48 bd 42 e6 bf bc 2c 43 70 3e 51 29 90 3c
       -0.048879962 -0.023425225 0.23463124 0.017597826
0000e0 0a 89 1f 3e b4 05 45 be 90 6f 96 be 6f bd 8e be
       0.1557962 -0.19240457 -0.2938199 -0.278789
0000f0 a6 55 7a 3e a2 4c 0d 3e 9f 4f 09 3e 6a 60 8b be
       0.24446735 0.13798764 0.1340928 -0.27221996
000100 a2 da 83 be a9 d0 18 3e ea cd 30 3d 86 9b ca 3d
       -0.2575274 0.14923348 0.043165125 0.09892945
000110 a7 0e d4 bd 2c 5c 38 3e b7 3e c9 3d ed 87 3a be
       -0.10354357 0.18003911 0.09826415 -0.18215914
000120 64 e1 a4 3e 53 2b 5a bd 3b d6 04 be a2 ec 38 bd
       0.3220321 -0.053263973 -0.12972347 -0.045147546
000130 5e 87 ec 3d 1c fc 17 3e 93 aa a5 3c b4 5c a0 3d
       0.11549257 0.14842266 0.020222938 0.07830182
000140 0a fd b7 bd 22 c6 a4 3d 26 c1 fb 3a ad 66 ab 3c
       -0.0898381 0.08045603 0.0019207343 0.020922983
000150 bc d4 80 3d 92 9e 1e bd 06 81 3f 3e c6 7a 86 bd
       0.06290576 -0.038725443 0.18701562 -0.06566386
000160 d5 10 08 3d 9c 6e a1 3d 74 47 5d bd 65 57 ed 3d
       0.033219177 0.07882425 -0.05402322 0.11588935
000170 02 dd 43 be bd b5 ae bd 02 17 aa bd 33 1f 12 3e
       -0.19127277 -0.085307576 -0.0830517 0.14269714
000180 fa 51 ab bd 2f 2d 37 be 5c e6 33 3e 14 c4 3a bc
       -0.08365245 -0.1788833 0.17568344 -0.011399288
000190 ae 94 5a 3e d1 75 e8 bb 0f 3f b3 3d 56 48 77 be
       0.2134578 -0.007094123 0.08752262 -0.24148688
0001a0 4b 82 4f be a0 fd 56 bc 90 47 76 be f8 44 ca bc
       -0.20264547 -0.013121992 -0.24050736 -0.02469109
0001b0 53 c1 d8 be 9d f7 0d 3e fc be 0a be dc 9a db 3d
       -0.42334995 0.13863988 -0.13549417 0.107228965
0001c0 2a dd da bd ec 53 6e bd 0a 7c fc 3d 3e 26 09 3e
       -0.10686715 -0.058185503 0.12328346 0.13393494
0001d0 c2 e1 0d 3e 92 08 c8 bd 0a 4a 21 3e 10 31 55 3e
       0.13855651 -0.0976726 0.157509 0.20819497
0001e0 8c ad d3 3c 62 99 03 3e a2 64 35 3e 9b 48 c2 bd
       0.02583959 0.1285148 0.1771417 -0.09486505
0001f0 c3 79 a9 bd b1 e9 4a be 25 8f 9b 3d 1d b8 4a 3d
       -0.08275177 -0.19815709 0.07595662 0.04949199
000200 86 69 36 be 47 26 23 be db 1a 8e bd ac 4d 86 bd
       -0.17813691 -0.1593257 -0.06938716 -0.065577835
000210 a5 b5 59 3b 55 f6 84 3e 11 fa 8e be 11 21 30 be
       0.003321984 0.25969186 -0.2792516 -0.17200114
000220 92 89 19 be 10 c4 31 3e db b5 b9 be 71 cd 2c be
       -0.14993885 0.17359948 -0.36271557 -0.16875245
000230 9d ac 6a be 4b 33 f4 bd 5c 2e 8b 3d 2a c7 2a 3e
       -0.22917409 -0.11923846 0.06795952 0.16677538
000240 4c 32 90 3e c8 06 ad 3d 97 47 18 3e d1 15 a0 3e
       0.28163373 0.08448559 0.1487106 0.31266645
000250 b1 f8 24 3e 82 fb 04 3e 99 7d 15 3e 6f 67 4b bd
       0.16110493 0.12986568 0.14598693 -0.04965919
000260 82 a3 2c 3e ee 79 00 3e 0b 25 a7 bb a1 5b ae bd
       0.16859248 0.12546512 -0.0051008514 -0.085135706
000270 7d 16 80 3e d9 02 5b bd 2a 9c c1 3c f3 3d ca 3e
       0.25017157 -0.053469513 0.023634035 0.39500389
000280 0b 9f 7e 3e bd f5 79 be 73 41 8b 3d 2c d6 48 bc
       0.24865358 -0.24410148 0.06799593 -0.012258094
000290 88 9a b3 3c e6 c9 e5 3d 4b c8 01 3d ff f1 48 be
       0.021924272 0.1122015 0.031685155 -0.19623564
0002a0 aa f7 f4 bd 76 39 e8 bd bf 2a 2e be ee 08 11 be
       -0.11961301 -0.11339085 -0.17008494 -0.14163563
0002b0 b5 17 e2 3d ff cc 8f bd d0 e4 7d 3e 77 78 76 be
       0.11039678 -0.07021522 0.24794316 -0.24069391
0002c0 9f 05 32 3e 05 50 37 3e 27 3c 88 be 41 ab be 3d
       0.17384957 0.17901619 -0.26608393 0.09310008
0002d0 a0 a9 15 be 81 2c 01 be 70 b6 5a be 8b 46 e2 3b
       -0.14615488 -0.12614633 -0.21358657 0.006905382
0002e0 2c bc 3d 3e fa fb ea 3d d7 d1 b3 3d d2 74 42 3d
       0.18528813 0.11473842 0.08780258 0.04747469
0002f0 69 c4 08 3e b6 95 5f 3e 98 94 09 be 9c ac f4 3d
       0.13356175 0.21834454 -0.1343559 0.11946985
000300 8e 3b d0 3d de 43 13 be d1 ca 0e 3e 35 08 27 3d
       0.10167609 -0.14381358 0.13944556 0.04077931
000310 0b 49 38 3e 27 9c fd 3d f2 82 d7 bb 7a ac 19 3d
       0.17996614 0.12383299 -0.006576889 0.037518002
000320 4e 8f 09 3e fa 9a 71 3d 49 07 2d 3d d8 bb d7 bd
       0.13433573 0.058985688 0.042243276 -0.10533875
000330 c3 8c 54 3d 34 54 92 3b 68 52 fa 3c 25 d3 f5 3c
       0.051892053 0.004465604 0.030556872 0.030007908
000340 eb 30 83 be ae e1 0e bc 83 96 49 be 1f 6d 71 be
       -0.2562326 -0.008720798 -0.19686322 -0.23576783
000350 be 20 32 be 80 ba 75 3d 63 5f ad bd 49 76 a9 3d
       -0.17395303 0.059992313 -0.08465459 0.08274514
000360 73 07 12 be c7 d6 07 3d ed f3 b9 3d 86 81 e6 3d
       -0.14260654 0.033163812 0.09079728 0.112551734
000370 d2 01 a0 3c 9e d5 d0 3d 19 0b 45 be cb 22 e6 bd
       0.019532118 0.10196994 -0.19242515 -0.11237105
000380 40 05 75 3c 55 81 89 3d f0 2f 20 be 23 b0 bc bd
       0.014954865 0.06714121 -0.15643287 -0.09213283
000390 cd b3 12 3e 58 ff cd 3b 64 46 c5 bd 45 91 c0 be
       0.14326401 0.006286543 -0.096325666 -0.37610832
0003a0 ae 27 ec 3d d6 47 11 be 69 ec 89 be 68 43 a9 bd
       0.11531006 -0.1418756 -0.2693818 -0.0826481
0003b0 76 94 20 be 99 90 53 bd 8c de 8e bc d9 90 1b 3e
       -0.15681633 -0.05165157 -0.017440103 0.15191974
0003c0 68 f4 6a 3d 70 bb 11 3e fc df 6d be e6 f4 a0 bd
       0.05736199 0.14231658 -0.23229975 -0.07859211
0003d0 e6 f2 b9 be df 17 41 be ee c2 b7 3d db 19 70 3d
       -0.3631813 -0.18856762 0.08972727 0.058618408
0003e0 e6 44 90 3b 3e b0 6b 3d f9 d5 69 be 5e ee 32 3d
       0.0044027446 0.057541125 -0.2283553 0.043684356
0003f0 f1 94 24 be 8d 45 64 3e 7c ff f3 3c e7 87 0a 3d
       -0.16072442 0.22292157 0.02978491 0.033821013

linear_layers.0.bias f4 [100]
000000 de 4d 28 bd eb 47 a6 bc 36 37 06 3a dc 53 a4 bd
       -0.041089885 -0.020297965 0.00051199214 -0.080238074
000010 ef d6 b6 3b 8a 56 03 bc b9 05 ec bc 9f a6 82 3d
       0.0055798213 -0.008016238 -0.028811323 0.06379437
000020 64 93 89 3d 6a 97 ae bd f7 51 5c bd f1 29 0e 3e
       0.06717566 -0.08524974 -0.053789105 0.13883187
000030 87 a2 5e bc b2 fc 48 bd b4 05 78 bd 4e e2 9c bd
       -0.013588554 -0.049069114 -0.060552314 -0.07660352
000040 d0 71 b1 3d 81 da 8f bd 8c 41 8c bd f8 96 d2 3d
       0.08664286 -0.07024098 -0.068484396 0.10282701
000050 b0 16 38 3d b4 d2 54 3d d4 60 89 bb ad e2 d8 3d
       0.04494351 0.051958755 -0.004192451 0.1059011
000060 22 07 b4 bc 88 07 67 3d d7 9b 0a bd ca 5a 13 3e
       -0.021976057 0.056403667 -0.033840027 0.14390102
000070 c4 7f 21 3e d2 bb 83 3d 1c 77 03 bd f9 25 93 bc
       0.15771395 0.06432308 -0.032096013 -0.017962443
000080 8f 0b c3 3a 87 26 00 bd bd 06 45 3d 60 78 86 bd
       0.0014880764 -0.031286743 0.04810213 -0.065659285
000090 a6 c2 25 3d 17 f3 9d bd 27 37 99 bc 2b f4 45 3b
       0.040468834 -0.07712381 -0.018703056 0.003020535
0000a0 29 5f 56 bd 0b d5 36 3c 3e 07 0e bd 03 b5 30 bc
       -0.052336846 0.011159192 -0.034674875 -0.010785344
0000b0 9b fc 0c bd 49 a7 ae 3d 91 5e 4e 3e 07 17 14 bc
       -0.03442059 0.08528001 0.20153262 -0.009038693
0000c0 09 a3 cb 3d b9 d2 01 3d ab b4 dc bc cf 77 80 3d
       0.09943206 0.0316951 -0.026941618 0.06272852
0000d0 c9 2d 05 3c b6 91 d3 3c e6 97 76 bd 9a da 17 bd
       0.008128592 0.025826316 -0.060203455 -0.03707371
0000e0 a9 df 9a 3d c5 2c 4e 3b 1d ad 52 3e 80 e4 2d 3d
       0.07562191 0.003145979 0.2057385 0.042454243
0000f0 07 d9 1b bd 2a 9e ab bd 08 0b 38 bd 98 5a 9e 3d
       -0.03804877 -0.08379777 -0.044932395 0.07732123
000100 fb a6 fe ba b0 d9 ec 3c 93 ce fd 3d 2d e6 5a 3d
       -0.0019428426 0.028912395 0.123929165 0.05344217
000110 77 3d 99 bd cc 1c 99 3c 37 d1 0a bd 37 97 88 bc
       -0.074824266 0.01869049 -0.03389093 -0.016673667
000120 f2 60 d2 bc 7b d4 64 3d 34 14 4f 3d 91 d3 fd 3d
       -0.025680993 0.0558667 0.050556377 0.12393869
000130 60 a0 03 3e c6 b9 c6 b9 a9 c7 03 bc 2d 77 34 bc
       0.12854147 -0.00037903915 -0.008043208 -0.011014742
000140 ef f5 ab 3d 2b 38 ab bc b0 19 e8 3e 3b 4e 1e 3e
       0.083965175 -0.020900806 0.45332098 0.1545953
000150 2c 47 9b bb 69 10 8e bd 2e e3 52 3d 0f 73 82 bc
       -0.004738709 -0.06936724 0.051486187 -0.015924005
000160 2b d9 9b bd 28 22 1e 3c 1c 62 06 3e b1 20 32 3c
       -0.07609781 0.009651698 0.13123363 0.010872052
000170 9e 38 28 bc 54 cb a3 3d 1d d2 10 3c 0a 18 17 3c
       -0.010267405 0.07997766 0.008839157 0.00922204
000180 b4 55 5f 3c cb ca ef bc 43 04 9b bd f4 b7 f0 3d
       0.013631273 -0.029271504 -0.07569172 0.11753836

linear_last.weight f4 [3, 100]
000000 75 10 76 3f 06 35 b6 bd d3 f9 57 bd 26 63 4b 3b
       0.9611886 -0.08896832 -0.052728485 0.003103444
000010 42 f1 3c bc c9 15 7b 3b 9b 44 4b 3f 57 8e 57 3f
       -0.01153213 0.0038312546 0.7940156 0.8420157
000020 31 5f 54 bd 08 86 a4 bd 85 e8 4f be ff 18 01 bf
       -0.051848594 -0.08033377 -0.20303543 -0.50428766
000030 bf 0e 87 3d 50 fe 3b bd a1 84 48 bd a8 01 f7 bc
       0.065946095 -0.04589683 -0.04895461 -0.030152157
000040 cb 93 a7 3e b3 c5 57 3d 37 15 fb 3c 29 4c 96 3e
       0.32729945 0.052678775 0.030649764 0.2935498
000050 f8 a7 03 be 34 09 b7 bb 75 86 84 bc a3 ea f2 3e
       -0.12857044 -0.005585814 -0.016177395 0.4744464
000060 6a 07 e3 3c f9 5a f9 3e b5 ed 27 3f ad 05 34 bd
       0.027713496 0.4870222 0.6559709 -0.043950725
000070 76 9c dc be 90 1e 8c bd fd e7 63 3c 2c 42 94 bd
       -0.4308812 -0.06841767 0.013910291 -0.07239184
000080 f2 5e 68 3f 6f d0 8e 3d ab 68 46 be 44 5e 3f bd
       0.90769875 0.06973349 -0.19375865 -0.046720758
000090 c9 e9 c6 bd b3 ca 86 3c 79 4d cd bc de c8 83 3d
       -0.0971256 0.016454076 -0.025061356 0.06434797
0000a0 d5 2a ff 3c 94 7f ad 3d 5f cf 01 bd 88 bb 31 3f
       0.031148354 0.08471599 -0.031691905 0.69426775
0000b0 e7 73 8c bc 6d f4 d9 be 10 ec 3b be 6f 6b c3 bc
       -0.01714511 -0.42569295 -0.1835177 -0.02385494
0000c0 d7 a1 45 3f 47 ba 7f be 3e ba aa bc c3 a9 3d 3f
       0.77200073 -0.24973403 -0.02084076 0.7408716
0000d0 fd 24 28 3d f9 cf 0e 3f 5f 49 a1 bb e3 4e 11 bd
       0.0410509 0.5578609 -0.0049220766 -0.035475623
0000e0 01 47 1d bd a9 02 45 bf 90 4a c0 bd cd 56 e6 3e
       -0.038397793 -0.76957184 -0.09389222 0.449881
0000f0 1c 4b ca bd 89 a4 90 3b 34 c5 83 3c b9 3d 02 bd
       -0.09877607 0.0044141454 0.016085245 -0.031797145
000100 ff c0 6d 3d ef 82 72 bc 52 41 c2 3c ab 28 62 bd
       0.058045384 -0.014801725 0.023712788 -0.055214565
000110 11 b4 dd bd 15 95 f7 bc 64 df 55 3f 4d 53 97 bd
       -0.108253606 -0.030222455 0.8354399 -0.07388935
000120 62 ee ed be 91 aa 53 bf bc cc 56 3f 7d 0b 9e bc
       -0.46470934 -0.8268214 0.8390615 -0.019292587
000130 86 26 07 be 09 92 0a bc 70 38 67 3d 26 4b bd be
       -0.1319829 -0.008457669 0.056450307 -0.36971396
000140 09 a0 9c 3c e7 be 38 3c 9b 6d 40 bd d9 b6 68 3c
       0.01911928 0.011275983 -0.046979528 0.0142037505
000150 f3 bc a8 bd fa cf b3 3d d5 c5 81 3f ef 00 7d 3e
       -0.08239164 0.08779903 1.0138499 0.24707387
000160 7f 42 37 bd 0d 67 09 3d 8f 32 75 3c f3 58 dd 3e
       -0.04474115 0.033545543 0.014965667 0.43231925
000170 8e 63 92 bd 08 4d d6 3e 1d 3f 17 3d 9b ba 03 bd
       -0.07147895 0.41855645 0.036925424 -0.032160383
000180 d4 ba 51 3f ea 07 c7 bd bc 57 30 be d4 51 78 bb
       0.819257 -0.09718306 -0.17220968 -0.003789057
000190 cb 45 58 bd 5d 9d 33 3f bf d6 8d 3d 80 d3 90 bc
       -0.052800935 0.7016199 0.06925725 -0.017678976
0001a0 27 c6 24 3d c1 87 f4 3b 8f 3a fe 3a 40 6f af bc
       0.040228035 0.007462472 0.0019396114 -0.021415353
0001b0 f7 eb 12 bd 84 e2 3b 3f a7 be d7 3c 02 b8 ba 3e
       -0.035869565 0.7339251 0.026336027 0.36468512
0001c0 e0 08 90 be 0b d6 4b bd dc a5 66 bd d3 7d 5b 3f
       -0.2813177 -0.049764674 -0.05631052 0.8573887
0001d0 71 7f c0 be 06 76 ae 3d f2 70 ae bc db 75 6c be
       -0.3759723 0.08518605 -0.02129409 -0.23091833
0001e0 a1 18 37 bf bc 5f c2 3e 66 49 36 3f 17 85 af bd
       -0.71521956 0.37963665 0.7120575 -0.08570307
0001f0 36 1f a3 3d 53 fa b0 bd 91 63 3d 3b 4a 44 d6 3c
       0.079649374 -0.086414956 0.0028898458 0.02615561
000200 87 0e 24 be b2 96 2d 3f b2 9f 59 bd 4e ff 31 3c
       -0.16021167 0.6780807 -0.053130813 0.010864092
000210 97 dd 81 bb 2e 4a cf 3d ea 54 25 be 69 06 28 3c
       -0.003963183 0.101215705 -0.16145673 0.010255435
000220 3e 32 19 be 79 ff 19 bd 10 05 4c 3f ee b8 b5 3d
       -0.14960572 -0.037597153 0.79695225 0.08873163
000230 bc c5 27 bd 33 47 29 3c 77 8a 22 3d ea f8 10 be
       -0.04096006 0.010331917 0.03968283 -0.14157453
000240 92 87 b3 3d 98 61 90 bc a5 e5 33 3b c3 e1 a8 3d
       0.08766092 -0.017624661 0.0027450111 0.08246186
000250 fe 49 cc bc 8f 47 cd bd 92 11 5f 3f 57 84 a3 bb
       -0.024937626 -0.10023414 0.87136185 -0.0049901414
000260 09 d6 bf 3c 1d f0 91 be 42 d5 9f bc db 8b a5 bd
       0.02341749 -0.28503504 -0.019510869 -0.08083316
000270 f1 42 ec 3e 2e c2 17 be cb 3c e0 3c cd de c7 be
       0.46144822 -0.14820167 0.027372738 -0.3903717
000280 d5 b2 1f bd ad f4 4f bd b3 15 4e 3c 41 60 f8 bc
       -0.038988907 -0.05077045 0.012578416 -0.030319335
000290 24 c2 18 bd 28 eb 57 3f 7e d1 98 3b 71 07 93 bd
       -0.037294522 0.84343195 0.0046636453 -0.07179154
0002a0 14 fd 83 bd 18 50 48 3f 19 ae 1d bd 80 fb 3d bf
       -0.06444755 0.78247213 -0.03849611 -0.74211884
0002b0 41 ff 74 3e d5 0e c4 bc 52 f4 07 bd f4 8e a3 3c
       0.23925497 -0.023932854 -0.033191986 0.019965626
0002c0 24 45 d5 3d 11 2f 1f 3f 47 44 e2 3c 3c e6 98 3e
       0.10413578 0.6218119 0.027620448 0.29863155
0002d0 1b 9f 88 3d 57 f4 02 bd 35 d3 18 be 8a 5b 16 3e
       0.06670972 -0.031971302 -0.14924319 0.14683357
0002e0 83 2a 7f bd 2a 6e 9b 3d 3c fb 6a bb 5c bd 0d bf
       -0.0622964 0.075893715 -0.0035855314 -0.55367064
0002f0 d8 21 47 3f 17 3c d0 3d 10 5a 06 bd 01 ec db be
       0.77786016 0.10167711 -0.032800734 -0.42953494
000300 69 85 4f bd 27 a3 97 bd 8f d2 1e bc 61 cd 18 bd
       -0.05066434 -0.07404166 -0.009693756 -0.03730524
000310 ac ac bb 3c a2 cf 3a 3f 5f 81 4e bf 08 ef b6 bb
       0.022909485 0.7297307 -0.80666155 -0.005582694
000320 31 47 0f bd 5f d1 15 3d 8c 31 0d 3c 48 00 62 bc
       -0.034980003 0.036576625 0.00861777 -0.013794012
000330 05 f2 2d 3d a5 91 ca 3b c7 b5 1a 3c c7 20 c9 3c
       0.042467136 0.006181913 0.009442753 0.024551762
000340 64 97 5f 3f 02 d4 fb 3d 91 31 8d 3e de c7 ee bd
       0.8734038 0.12296297 0.2757688 -0.116592154
000350 12 a0 7b 3e 5b 37 a5 3d 2d 4f 56 3b 47 90 8a bc
       0.2457278 0.08067199 0.0032701 -0.0169145
000360 40 2d e6 bd e6 66 20 3c fd 49 1d 3d 99 e1 7e be
       -0.112390995 0.009790158 0.03840064 -0.24890746
000370 aa e8 9e 3d 63 78 63 be 40 df d5 bc a7 cd 7e be
       0.07759221 -0.22213893 -0.02610743 -0.24883138
000380 d1 c5 3f 3d 79 b0 99 be 76 a4 71 be 9e c8 4b bf
       0.04681951 -0.3001745 -0.23597893 -0.7960299
000390 b2 ef 0c bf d7 57 d7 bc 0b 2a 30 bd b5 90 98 bc
       -0.55053246 -0.026287002 -0.043008845 -0.01862369
0003a0 a5 fc d6 3c 54 f5 76 3d 3a f5 38 3f 47 7d 44 3d
       0.026243517 0.060292557 0.72249186 0.047971036
0003b0 f1 d3 45 3f e1 a7 3d 3d 0f 0f 08 bd 0f 2e 8f 3c
       0.7727652 0.04630268 -0.033217486 0.017478017
0003c0 3a fb 67 3d 8e 07 a1 3d b6 d6 ad 3d c0 91 bb bc
       0.056636073 0.07862769 0.084882185 -0.022896647
0003d0 8b de 9c 3d 6a 57 8c be 23 a2 c4 bc 1e 2a 18 bd
       0.07659634 -0.27410442 -0.024003094 -0.03714954
0003e0 74 70 49 bd 0e 1d d6 3e 66 7c 2b 3c a8 ff 22 3c
       -0.04917951 0.41819042 0.010466671 0.0099486485
0003f0 3e bf 93 3c eb 9f 62 bd 60 a5 96 3d 44 a7 0c 3c
       0.018035527 -0.05532829 0.073557615 0.008584801

linear_last.bias f4 [3]
000000 d5 f1 cc be cc bf bd bc 54 68 6c bc
       -0.40028253 -0.023162745 -0.014429171
