trained_models/cnn_100_200_[100]_5_[3]_Do Not Track Policy_zeros_60-20-20_polisis_attr_state.pt (torch_old, 445416 bytes, 7 tensors)

embedding.weight f4 [302, 100]
000000 00 00 00 00 00 00 00 00 00 00 00 00 00 00 00 00
       0.0 0.0 0.0 0.0
000010 00 00 00 00 00 00 00 00 00 00 00 00 00 00 00 00
       0.0 0.0 0.0 0.0
000020 00 00 00 00 00 00 00 00 00 00 00 00 00 00 00 00
       0.0 0.0 0.0 0.0
000030 00 00 00 00 00 00 00 00 00 00 00 00 00 00 00 00
       0.0 0.0 0.0 0.0
000040 00 00 00 00 00 00 00 00 00 00 00 00 00 00 00 00
       0.0 0.0 0.0 0.0
000050 00 00 00 00 00 00 00 00 00 00 00 00 00 00 00 00
       0.0 0.0 0.0 0.0
000060 00 00 00 00 00 00 00 00 00 00 00 00 00 00 00 00
       0.0 0.0 0.0 0.0
000070 00 00 00 00 00 00 00 00 00 00 00 00 00 00 00 00
       0.0 0.0 0.0 0.0
000080 00 00 00 00 00 00 00 00 00 00 00 00 00 00 00 00
       0.0 0.0 0.0 0.0
000090 00 00 00 00 00 00 00 00 00 00 00 00 00 00 00 00
       0.0 0.0 0.0 0.0
0000a0 00 00 00 00 00 00 00 00 00 00 00 00 00 00 00 00
       0.0 0.0 0.0 0.0
0000b0 00 00 00 00 00 00 00 00 00 00 00 00 00 00 00 00
       0.0 0.0 0.0 0.0
0000c0 00 00 00 00 00 00 00 00 00 00 00 00 00 00 00 00
       0.0 0.0 0.0 0.0
0000d0 00 00 00 00 00 00 00 00 00 00 00 00 00 00 00 00
       0.0 0.0 0.0 0.0
0000e0 00 00 00 00 00 00 00 00 00 00 00 00 00 00 00 00
       0.0 0.0 0.0 0.0
0000f0 00 00 00 00 00 00 00 00 00 00 00 00 00 00 00 00
       0.0 0.0 0.0 0.0
000100 00 00 00 00 00 00 00 00 00 00 00 00 00 00 00 00
       0.0 0.0 0.0 0.0
000110 00 00 00 00 00 00 00 00 00 00 00 00 00 00 00 00
       0.0 0.0 0.0 0.0
000120 00 00 00 00 00 00 00 00 00 00 00 00 00 00 00 00
       0.0 0.0 0.0 0.0
000130 00 00 00 00 00 00 00 00 00 00 00 00 00 00 00 00
       0.0 0.0 0.0 0.0
000140 00 00 00 00 00 00 00 00 00 00 00 00 00 00 00 00
       0.0 0.0 0.0 0.0
000150 00 00 00 00 00 00 00 00 00 00 00 00 00 00 00 00
       0.0 0.0 0.0 0.0
000160 00 00 00 00 00 00 00 00 00 00 00 00 00 00 00 00
       0.0 0.0 0.0 0.0
000170 00 00 00 00 00 00 00 00 00 00 00 00 00 00 00 00
       0.0 0.0 0.0 0.0
000180 00 00 00 00 00 00 00 00 00 00 00 00 00 00 00 00
       0.0 0.0 0.0 0.0
000190 00 00 00 00 00 00 00 00 00 00 00 00 00 00 00 00
       0.0 0.0 0.0 0.0
0001a0 00 00 00 00 00 00 00 00 00 00 00 00 00 00 00 00
       0.0 0.0 0.0 0.0
0001b0 00 00 00 00 00 00 00 00 00 00 00 00 00 00 00 00
       0.0 0.0 0.0 0.0
0001c0 00 00 00 00 00 00 00 00 00 00 00 00 00 00 00 00
       0.0 0.0 0.0 0.0
0001d0 00 00 00 00 00 00 00 00 00 00 00 00 00 00 00 00
       0.0 0.0 0.0 0.0
0001e0 00 00 00 00 00 00 00 00 00 00 00 00 00 00 00 00
       0.0 0.0 0.0 0.0
0001f0 00 00 00 00 00 00 00 00 00 00 00 00 00 00 00 00
       0.0 0.0 0.0 0.0
000200 00 00 00 00 00 00 00 00 00 00 00 00 00 00 00 00
       0.0 0.0 0.0 0.0
000210 00 00 00 00 00 00 00 00 00 00 00 00 00 00 00 00
       0.0 0.0 0.0 0.0
000220 00 00 00 00 00 00 00 00 00 00 00 00 00 00 00 00
       0.0 0.0 0.0 0.0
000230 00 00 00 00 00 00 00 00 00 00 00 00 00 00 00 00
       0.0 0.0 0.0 0.0
000240 00 00 00 00 00 00 00 00 00 00 00 00 00 00 00 00
       0.0 0.0 0.0 0.0
000250 00 00 00 00 00 00 00 00 00 00 00 00 00 00 00 00
       0.0 0.0 0.0 0.0
000260 00 00 00 00 00 00 00 00 00 00 00 00 00 00 00 00
       0.0 0.0 0.0 0.0
000270 00 00 00 00 00 00 00 00 00 00 00 00 00 00 00 00
       0.0 0.0 0.0 0.0
000280 00 00 00 00 00 00 00 00 00 00 00 00 00 00 00 00
       0.0 0.0 0.0 0.0
000290 00 00 00 00 00 00 00 00 00 00 00 00 00 00 00 00
       0.0 0.0 0.0 0.0
0002a0 00 00 00 00 00 00 00 00 00 00 00 00 00 00 00 00
       0.0 0.0 0.0 0.0
0002b0 00 00 00 00 00 00 00 00 00 00 00 00 00 00 00 00
       0.0 0.0 0.0 0.0
0002c0 00 00 00 00 00 00 00 00 00 00 00 00 00 00 00 00
       0.0 0.0 0.0 0.0
0002d0 00 00 00 00 00 00 00 00 00 00 00 00 00 00 00 00
       0.0 0.0 0.0 0.0
0002e0 00 00 00 00 00 00 00 00 00 00 00 00 00 00 00 00
       0.0 0.0 0.0 0.0
0002f0 00 00 00 00 00 00 00 00 00 00 00 00 00 00 00 00
       0.0 0.0 0.0 0.0
000300 00 00 00 00 00 00 00 00 00 00 00 00 00 00 00 00
       0.0 0.0 0.0 0.0
000310 00 00 00 00 00 00 00 00 00 00 00 00 00 00 00 00
       0.0 0.0 0.0 0.0
000320 00 00 00 00 00 00 00 00 00 00 00 00 00 00 00 00
       0.0 0.0 0.0 0.0
000330 00 00 00 00 00 00 00 00 00 00 00 00 00 00 00 00
       0.0 0.0 0.0 0.0
000340 00 00 00 00 00 00 00 00 00 00 00 00 00 00 00 00
       0.0 0.0 0.0 0.0
000350 00 00 00 00 00 00 00 00 00 00 00 00 00 00 00 00
       0.0 0.0 0.0 0.0
000360 00 00 00 00 00 00 00 00 00 00 00 00 00 00 00 00
       0.0 0.0 0.0 0.0
000370 00 00 00 00 00 00 00 00 00 00 00 00 00 00 00 00
       0.0 0.0 0.0 0.0
000380 00 00 00 00 00 00 00 00 00 00 00 00 00 00 00 00
       0.0 0.0 0.0 0.0
000390 00 00 00 00 00 00 00 00 00 00 00 00 00 00 00 00
       0.0 0.0 0.0 0.0
0003a0 00 00 00 00 00 00 00 00 00 00 00 00 00 00 00 00
       0.0 0.0 0.0 0.0
0003b0 00 00 00 00 00 00 00 00 00 00 00 00 00 00 00 00
       0.0 0.0 0.0 0.0
0003c0 00 00 00 00 00 00 00 00 00 00 00 00 00 00 00 00
       0.0 0.0 0.0 0.0
0003d0 00 00 00 00 00 00 00 00 00 00 00 00 00 00 00 00
       0.0 0.0 0.0 0.0
0003e0 00 00 00 00 00 00 00 00 00 00 00 00 00 00 00 00
       0.0 0.0 0.0 0.0
0003f0 00 00 00 00 00 00 00 00 00 00 00 00 00 00 00 00
       0.0 0.0 0.0 0.0

convolutions.0.weight f4 [200, 1, 3, 100]
000000 11 f8 9f bd f6 c3 94 bc 63 28 93 bd 09 05 c1 bb
       -0.07810987 -0.018159848 -0.071854375 -0.005890493
000010 24 28 05 bb 60 8c 3e bd 66 9e 5b bd cd ef a0 3c
       -0.0020318115 -0.04652059 -0.053617857 0.019645596
000020 de a2 be 3c 32 8b 49 39 95 f4 0a 3c e7 ba 3d 3d
       0.02327102 0.00019220708 0.008481164 0.046320822
000030 d9 ce 9a 3d 01 e7 b4 3b 15 84 1c 3d d5 52 84 3d
       0.07558984 0.005520702 0.0382119 0.064611115
000040 6f e2 61 3c 2b 55 48 bd 55 0e 8b bc 7b b9 db 3b
       0.013786896 -0.048909348 -0.016974607 0.0067054606
000050 39 48 6d 3d 2b b8 06 3c 47 0f 02 bd 71 be 88 3c
       0.057930205 0.00822262 -0.03175285 0.016692372
000060 5b 30 b6 3d ca 67 f0 3c e4 65 15 3c 06 6b 77 bc
       0.08895942 0.029346365 0.009118531 -0.0151012
000070 16 bd a0 3c 48 14 5f bb c5 4a 9b bc 02 14 38 3b
       0.019621413 -0.0034039188 -0.018956551 0.0028088097
000080 0d ac bf 3d eb 31 30 bd 7a 8e da 3b d8 3f 6f 3c
       0.09358988 -0.043016355 0.0066698166 0.014602624
000090 7f bb 87 bc c6 d9 23 3d e2 84 14 bd 02 1a e8 bb
       -0.016568897 0.040002607 -0.03625954 -0.0070831785
0000a0 1a 96 89 3c ce 80 c0 3c f2 ff 4f 3c 80 94 2d bd
       0.016795207 0.023498919 0.012695299 -0.04237795
0000b0 72 17 5d 3b da 50 47 bc 38 d7 50 bd da 74 d1 bb
       0.0033735898 -0.012165273 -0.0509865 -0.0063921036
0000c0 51 ef 54 3c d7 34 98 3d 67 ea aa 3d f6 5a 28 3d
       0.012996511 0.074319534 0.0834549 0.041102372
0000d0 62 ad 5f 3b c6 63 09 bd f8 d6 36 bc 21 38 8e bd
       0.0034130444 -0.033542417 -0.011159651 -0.069442995
0000e0 12 b2 d4 bc b4 af ba 3b 88 e5 17 bd f7 03 83 bd
       -0.025963817 0.005697215 -0.037084132 -0.063972406
0000f0 75 38 64 bd 2e 43 23 bd 25 9d 6b bc f9 b5 75 bd
       -0.055717904 -0.03985899 -0.014380728 -0.059987996
000100 bc 32 80 bd bf c8 ed 3b 98 66 98 bd a5 35 1e 3d
       -0.06259677 0.007256597 -0.07441443 0.03862538
000110 fd 08 3c 3d aa 1a 91 bd 7b 8f c4 3a 2a ec 45 3d
       0.04590701 -0.07085164 0.0014996374 0.048320927
000120 e6 d8 a4 bd 81 99 ab bd 6e e6 a7 bc 52 b2 78 3d
       -0.080491826 -0.08378888 -0.02049562 0.060716935
000130 ef ca fe 3c 5c 87 99 bc ec be fc bb f5 b8 d5 bc
       0.031102626 -0.018741302 -0.0077131893 -0.026089171
000140 74 61 7e 3c a3 fd 45 3c fe f5 67 3d 30 06 53 bd
       0.015526164 0.0120843975 0.05663108 -0.051519573
000150 93 64 2e bc 53 d5 40 3d 33 02 98 ba 5a a5 db 3c
       -0.010644096 0.04707844 -0.0011597335 0.026812244
000160 f8 fa 15 bd ee 88 bf bb 67 71 9c 3d 49 1b 7b 3c
       -0.036616296 -0.0058451807 0.07638817 0.0153263295
000170 d1 3f 31 3d 82 25 55 bd ce cf 07 bd b4 43 cb 3c
       0.04327375 -0.052037723 -0.033157162 0.024812557
000180 4e 0f 9e bd 69 f5 be 3b a0 e3 76 bd 67 d1 b8 bc
       -0.07717763 0.005827595 -0.060275674 -0.022560788
000190 49 88 81 bd 0c 05 18 bd 54 6e 15 bb b0 5d 38 bd
       -0.063248225 -0.037114188 -0.0022801356 -0.045011222
0001a0 53 57 d7 3b 12 29 3a 3d 4a 3a 4b bc 8b c8 17 bc
       0.006571689 0.045449324 -0.012404034 -0.009264122
0001b0 ad 80 da bc c8 d1 88 3d 2e 80 bf 3b d2 9e 76 3d
       -0.026672686 0.066806376 0.0058441376 0.060210057
0001c0 40 af 39 3d 22 7b 03 bd 39 c4 75 3d 6a 97 19 3c
       0.045333147 -0.03209985 0.060001586 0.009374479
0001d0 7a b3 6e 3d 84 84 ed 3c 5a 3f 9d 3c 9e ee 21 bc
       0.05827663 0.028993852 0.019195247 -0.009883551
0001e0 be 1c de bc b7 cd a9 bc 3b 8b 75 bc 33 c6 5f 3d
       -0.027113315 -0.020727975 -0.014986808 0.054632377
0001f0 54 66 05 bd 75 f7 89 3b bb 31 7b 3d 7c 73 dd 3c
       -0.03256829 0.0042104074 0.061326724 0.027032606
000200 d7 80 a7 ba 49 b7 45 bd c2 56 80 bc 42 33 8c 3d
       -0.0012779486 -0.048270497 -0.01566637 0.06845714
000210 4c 72 7c 3d 4d 4e 86 bd 78 86 3f 3d 8a 56 9c bd
       0.06163244 -0.065579034 0.0467591 -0.076336935
000220 c7 1b a2 bd 40 f6 0e bd a7 d7 29 3d 5b 25 41 bd
       -0.07915454 -0.03490281 0.041465428 -0.047154766
000230 c7 38 86 bc 1c e3 7c 3d cc d7 75 bb 5a a4 87 3d
       -0.016384495 0.061740026 -0.0037512658 0.066231444
000240 cd db 85 3d 46 91 d1 3b 42 ef 9e bd 50 30 e6 bc
       0.06536064 0.006395492 -0.077604786 -0.02809921
000250 1b 90 e2 bc 73 89 53 3d 39 a3 5a 3d 48 c0 36 3c
       -0.027656605 0.051644754 0.053378318 0.011154242
000260 7b b3 5f 3a 2d 5b fd 3b b8 86 94 3d f0 68 d8 3c
       0.00085335196 0.0077318163 0.07252258 0.026417226
000270 27 98 22 3d f2 2f ab 3c 5a ad 2c bb 01 d6 63 3c
       0.039695885 0.020896886 -0.0026348443 0.013906003
000280 e7 a5 2f 3c d8 82 89 bd 15 82 7b bd 2b 6e 98 bd
       0.010720707 -0.067144096 -0.061403353 -0.07442888
000290 57 cd b4 3c 74 7e 5f bc 88 53 03 3d 1d 47 dd 3c
       0.02207057 -0.013640989 0.032062083 0.027011449
0002a0 ec 59 2f bd 52 0d 19 bd da 70 07 bd de 06 40 3d
       -0.042810366 -0.03736622 -0.033066608 0.04688155
0002b0 0b a6 1a bc 4e aa f7 bc bf 9c a3 3d bd 11 61 bd
       -0.009439002 -0.030232575 0.07988881 -0.054948557
0002c0 29 c1 47 3c 4e 89 a7 3d f4 30 dc bb 3e 59 4a bd
       0.012192049 0.08180486 -0.006719703 -0.049401514
0002d0 b6 a9 83 3d 98 a3 99 3b c4 49 8c 3d 18 c2 05 3d
       0.06428854 0.0046886913 0.06850007 0.032655805
0002e0 73 91 84 bd b6 df 7c 3b b1 ea 93 3d 09 1c 11 bc
       -0.06473055 0.003858549 0.07222498 -0.008856782
0002f0 4c 5a 12 3c 15 b3 b3 3d 85 15 89 3d 59 b8 ac 3b
       0.008932661 0.087743916 0.06693558 0.0052709994
000300 13 88 79 3d ea a8 d8 bc dc f5 bb 3c 58 82 2d 3d
       0.060920786 -0.026447732 0.022944383 0.042360634
000310 ca d9 24 bc 8c 0f ac 3c 15 18 d9 bc 10 ee 5a 3c
       -0.010061691 0.021003507 -0.026500741 0.013362423
000320 bd 09 0a 3d de 04 8e 3b d0 7c 65 3c 1b a8 3a 3d
       0.033700693 0.0043340763 0.014006808 0.045570474
000330 c0 02 1e bd b1 58 04 3c bf 93 13 3d 08 c9 e5 3c
       -0.03857684 0.008077786 0.036029574 0.02804996
000340 86 b2 c7 3c 8a ae 95 3d 5a b7 89 bd 9d 0e d1 3d
       0.024377119 0.07308681 -0.06724425 0.102078654
000350 70 82 2a bd aa 8d 5e bd 3c 40 7f 3d 69 0e 9b bc
       -0.0416283 -0.05433432 0.062317118 -0.01892777
000360 e5 30 2e bd 39 18 5c bd 69 af d5 3c 5c 99 97 bd
       -0.0425271 -0.053734038 0.026084619 -0.07402298
000370 36 e4 a8 3d 1d 58 25 bd 0c bf c6 bd e4 ce 83 3d
       0.08246653 -0.040367234 -0.09704408 0.06435946
000380 23 4c 67 bd b2 2f 65 3c 5c 79 27 bd 0f da af bd
       -0.056469094 0.013988422 -0.04088722 -0.08586513
000390 ea 67 b2 bc 06 bb 9a 3c 2e d4 af bc d7 c7 b9 bc
       -0.021778066 0.018888008 -0.02146348 -0.022678299
0003a0 5a 23 0e 3d 9b ce 69 bc b3 30 33 3d 2c f0 b4 bd
       0.034701683 -0.01427045 0.043747615 -0.08834872
0003b0 8e 84 94 bd 62 ed f6 bd bb 2d b1 bd 0d e3 87 bd
       -0.07251845 -0.12056996 -0.086513005 -0.066351034
0003c0 b9 a2 4b 3d c8 11 8a 3d 0a dd 65 3d 51 12 bd 3d
       0.04971573 0.06741673 0.056119002 0.09232009
0003d0 e1 93 7e bd 1a 90 47 3d a8 3f 7a 3d cd 2b bf 3c
       -0.062152747 0.04872141 0.061095864 0.023336316
0003e0 cc 6a ab bd 1b b0 5f bd d0 f4 75 3d 1d 55 47 3d
       -0.08369979 -0.054611307 0.060047925 0.048665155
0003f0 b0 36 7f bd 8e 9e 57 3d 79 ec 99 bc 36 9f 4a 3c
       -0.062308013 0.052641444 -0.018789517 0.01236706

convolutions.0.bias f4 [200]
000000 77 21 45 bc 50 3f a5 bc 0c a8 38 3d 8a c6 a0 ba
       -0.012031904 -0.020171791 0.045082137 -0.00122662
000010 ba 51 55 3d 42 72 0b 3d af e2 54 3b e8 2a 4f bd
       0.052079894 0.03404451 0.0032483747 -0.050578028
000020 32 8e 1b 3d b5 79 41 bc 96 d7 e8 3c ea 17 4e 3d
       0.037977405 -0.011808802 0.028423112 0.050315775
000030 48 57 1a ba f7 20 b9 3a b7 05 03 bd 3c 8e 82 bb
       -0.00058876397 0.0014124204 -0.031987872 -0.003984241
000040 35 61 31 bd f4 ee 84 bb 68 26 ce 3c 04 1b 45 bd
       -0.043305594 -0.0040568057 0.025164798 -0.048121467
000050 0a c1 7e bc 53 11 95 3c d8 56 4b 39 ab 12 72 bd
       -0.015548954 0.018196737 0.0001939194 -0.059099834
000060 f7 6f 73 3d 88 43 c0 3c 40 db d9 bc 33 6e a1 ba
       0.05943295 0.023469701 -0.026593804 -0.0012316167
000070 22 03 0e bb 49 98 0c bd 46 23 d1 b8 a9 cb 11 3d
       -0.0021669348 -0.034324918 -9.972467e-05 0.035594616
000080 7e 46 bb 3d 0b 9c 39 bd a1 88 43 bd 3c 7f f9 bc
       0.09144305 -0.04531483 -0.04773772 -0.030456178
000090 a1 73 1d b9 00 38 23 bc 5e 3a 39 3c 63 a9 b8 bc
       -0.00015015762 -0.009962082 0.01130542 -0.022541707
0000a0 96 f2 05 3d 54 5c 48 3b 01 4b 85 bd ed 43 13 3d
       0.03270205 0.003057261 -0.065084465 0.03595345
0000b0 16 45 54 3d 75 63 8f ba bf 5a 9c bb 96 27 06 3c
       0.051823698 -0.0010939675 -0.00477156 0.008188149
0000c0 79 25 95 3d 4a 75 41 3c 81 7c 21 bc 7b 89 8a bd
       0.07282538 0.011807749 -0.009856344 -0.067645036
0000d0 04 a4 28 bc 48 1a 2e bd a4 03 a0 3a aa 05 88 3d
       -0.010293011 -0.042505533 0.0012208116 0.06641705
0000e0 9f 42 89 3c c2 d7 92 bc 37 89 b2 bc 8b d6 49 bd
       0.0167554 -0.017925147 -0.021793945 -0.04927687
0000f0 e8 26 d8 b9 ba ed 18 bd c2 05 b6 bc 36 af 81 ba
       -0.00041227718 -0.03733609 -0.022219542 -0.0009894136
000100 99 c6 97 3c 7c db 32 ba d4 e4 5d bd 36 ca 07 3d
       0.018527316 -0.0006822867 -0.054173306 0.033151828
000110 36 94 09 3d 65 d4 d4 bc 20 b5 c8 39 e4 cc 21 bc
       0.03358861 -0.025980184 0.0003828192 -0.00987551
000120 35 59 27 3d 02 cd 2f b9 e4 41 f2 3c 81 05 16 bd
       0.04085656 -0.00016765672 0.029572435 -0.036626343
000130 32 91 34 bd e5 79 15 3d de 34 47 b9 42 32 de bb
       -0.04408378 0.0364932 -0.00018997813 -0.0067808935
000140 18 c7 14 bb 2c 15 d6 bc 48 8c 4a bc 9c 6f b0 3c
       -0.0022701677 -0.026133142 -0.012362547 0.021537594
000150 09 2e ad 3a 78 07 1d bb 4d c5 c3 3c cb 87 19 bb
       0.0013212572 -0.002396075 0.023897791 -0.0023426886
000160 9e 1c 01 3a 62 35 af bc fa d9 05 bd 67 88 2a 3d
       0.0004925224 -0.02138776 -0.03267858 0.04163399
000170 1b f1 0e 3d 4c 97 65 bc bb 3f 8e bc c7 de 4c bd
       0.034897905 -0.014013123 -0.017364373 -0.050017145
000180 a1 a7 65 3d 1d d1 9b bc 23 ff 0e bd a3 c3 86 3d
       0.056068067 -0.019020611 -0.034911286 0.065802835
000190 bf 0b 31 bc 82 aa da bc 75 d4 37 3c 26 13 9e bb
       -0.010806023 -0.026692633 0.011220087 -0.00482406
0001a0 77 33 05 3d 72 c5 44 3d 03 10 cb 3c 09 f5 97 bc
       0.032519784 0.04803986 0.024787908 -0.018549459
0001b0 f9 f4 53 bb d8 90 92 bd 2b fd 04 bb 7f 83 26 3d
       -0.003234206 -0.07156533 -0.0020292501 0.04065275
0001c0 04 ed 9a 3c 48 d2 36 3d dc 4b 9b ba 68 bc 9b 3d
       0.018911846 0.044634134 -0.0011848169 0.07604295
0001d0 49 5b 01 bc 83 43 53 bb 9b 96 50 bc e0 7f ae 3b
       -0.007895299 -0.0032236285 -0.01273122 0.0053253025
0001e0 91 17 15 bc f8 d0 39 bd 35 d4 71 3d 7c 27 72 bd
       -0.009099857 -0.045365304 0.059040267 -0.059119686
0001f0 fe 13 6c bd f2 cc 56 3d d7 02 12 bb 80 69 33 bd
       -0.057636254 0.052441545 -0.0022279525 -0.043801785
000200 b7 d3 49 3d 73 26 08 bc ef 0d 95 3b bc bc 06 3b
       0.049274173 -0.008309948 0.00454878 0.0020559272
000210 9a 12 2d 3c f0 2e 4d bd c4 ad 41 3b 81 4f 38 39
       0.010563517 -0.05009359 0.0029553035 0.00017577225
000220 56 c5 ee ba b2 75 28 bd 2e f4 3d 3c 89 c6 02 3d
       -0.001821677 -0.041127868 0.0115938615 0.03192762
000230 10 dc d2 39 c9 ba 1d bc 3c 38 88 bc 46 61 85 bd
       0.0004021828 -0.009627053 -0.016628377 -0.06512694
000240 a6 07 2b b8 f0 df 97 3a 76 e1 04 3d 24 03 90 bc
       -4.07767e-05 0.0011587124 0.03244158 -0.017579623
000250 cc d9 b5 3d b9 59 a6 bb a2 64 69 bd 6a 15 b9 ba
       0.08879432 -0.0050766137 -0.056980737 -0.0014120762
000260 6f b9 88 bc 00 a8 45 b6 60 a4 5c bd e6 28 13 ba
       -0.016689984 -2.9453076e-06 -0.053867698 -0.00056136993
000270 53 b8 73 bd e7 4b 75 3c 4c bf a0 bc c1 9c e6 3c
       -0.059501957 0.01497171 -0.019622467 0.028150918
000280 2a 68 6a 3d b2 57 72 3b 37 a6 0b bc a5 fd 29 3d
       0.057228245 0.003697854 -0.008523515 0.04150166
000290 3a 0b c8 bc 07 08 05 bd 42 aa b3 3b 5b f5 6a bd
       -0.024419416 -0.03247836 0.005482943 -0.057362895
0002a0 ce 1c 83 3a 21 5d 73 bb fe 9d 74 bd 2a b3 2c bb
       0.0010003091 -0.0037134367 -0.059720986 -0.0026351907
0002b0 89 2b 09 bd 42 1d b9 b8 6f fb 15 3c 6a 77 d0 3b
       -0.033488784 -8.826937e-05 0.009154185 0.0063618915
0002c0 58 26 cd bb 3d 48 3e 3d ab bb b0 bb e3 6d 23 3c
       -0.0062606744 0.04645561 -0.0053934655 0.0099749295
0002d0 3b ea cf bc d0 43 49 bd 73 49 9f bb c3 d1 52 3d
       -0.025380244 -0.049136937 -0.0048610508 0.051469576
0002e0 01 f5 15 3d 16 8f bc bc 64 82 2b bd cd 0a 07 3c
       0.036610607 -0.023017447 -0.041872397 0.008242321
0002f0 37 4c 07 bb a3 97 22 bd 4a 6e b8 bc a2 69 92 bb
       -0.0020644793 -0.039695393 -0.022513527 -0.004468159
000300 c6 82 b5 ba 14 9a cb bc 0c c0 5b 3d 2c b3 db 3c
       -0.0013848178 -0.024853744 0.053649947 0.026818834
000310 74 76 87 3d 85 46 27 3d 9c a6 0a bd 6a cd db 3c
       0.0661439 0.040838737 -0.033850297 0.026831347

linear_layers.0.weight f4 [100, 200]
000000 55 ba 65 bd 02 8c ea 3c 88 78 71 3d a4 eb 2b 3e
       -0.056085903 0.028631214 0.05895284 0.16789109
000010 a8 4c 60 3c bb 2d 96 bc a2 9e e9 bc 3b 35 d3 bc
       0.013690151 -0.018332353 -0.028518025 -0.025782218
000020 68 d5 82 3d 11 5e e0 3c c0 1b 4e bd 85 33 eb 3c
       0.0638836 0.027388604 -0.050319433 0.02871109
000030 7a dc 20 3d d8 ef 64 3d 1c 9b 0b be 43 65 0d 3d
       0.039272763 0.055892795 -0.13633388 0.0345204
000040 33 a4 8a 3d 9e 06 88 3d c4 7e a4 3d 3e 98 1b 3d
       0.067696 0.06641887 0.08031991 0.037986986
000050 10 9a 8a 3d 7f 7f 2e 3d c2 13 8e 3d c8 f6 ff 3d
       0.06767666 0.04260206 0.06937362 0.12498242
000060 dc a8 b2 bc 28 2a 36 3a 37 b3 57 3d 68 bf 02 3d
       -0.021809034 0.0006949031 0.052661147 0.03192082
000070 b0 12 52 3d 83 35 fe bc 87 5c 49 3d 75 7b 8b 3c
       0.051287353 -0.031031376 0.049160507 0.017026642
000080 90 25 a6 bd 29 14 1d bd 39 5f 6d bd 5e 05 30 3d
       -0.08112633 -0.038349304 -0.05795214 0.04297387
000090 eb ac cb 3d c2 c3 f3 3b 31 40 86 bb c6 a2 92 3d
       0.09945091 0.0074391076 -0.0040970077 0.07159953
0000a0 65 e7 3b 3d c6 df 4c 3e ad 55 9c 3d 45 73 42 3c
       0.045874972 0.20007238 0.07633529 0.011868303
0000b0 16 25 a0 3d 5a ae cc 3d 8a 06 5c be f8 6b d0 3c
       0.078195736 0.099941924 -0.2148687 0.025442109
0000c0 d1 14 7a bc f2 08 84 bd ec 32 68 3c 0f de 3a bc
       -0.015263752 -0.06447019 0.014172297 -0.011405482
0000d0 25 8a c2 3d 42 47 48 3d 6a 63 17 bd 02 2a 89 3d
       0.09499005 0.04889608 -0.036960043 0.066974655
0000e0 86 c9 27 bc 5f 84 45 3d af fd a8 bb 23 dc 12 3c
       -0.010240918 0.048221942 -0.0051571946 0.0089636175
0000f0 60 a5 f1 3d cb e0 83 3d 64 9b 7c 3b 97 e6 be bc
       0.11799121 0.0643936 0.0038544768 -0.023303313
000100 13 a5 0b 3e 54 14 a1 3d 76 6d 51 3d b7 7f 30 3d
       0.1363719 0.078652054 0.05112978 0.04309055
000110 ee ef 29 bd d7 08 5c 3d cd c6 a2 3b 65 62 21 bd
       -0.04148858 0.053719368 0.0049675466 -0.039400477
000120 31 35 86 3d ad cb 46 3d 27 95 8b 3d 50 2b c3 3d
       0.06553114 0.048534084 0.06815558 0.095297456
000130 55 3e b7 bc 76 57 15 bd d9 6e bd 3c 54 07 b0 bc
       -0.02236859 -0.036460362 0.023124145 -0.02148787
000140 9a 54 28 bd 3f 39 a7 bc 0c 2d 18 bd 3e 22 1a bd
       -0.041096307 -0.02041304 -0.037152335 -0.037630312
000150 74 55 52 3d c6 8b fc bc fe 59 9f 3d eb 8f 15 3e
       0.051351026 -0.030828368 0.077808365 0.14605682
000160 5d 0d 04 3e 56 ba ac 3d aa 07 bb bb 23 26 32 3d
       0.12895723 0.08433978 -0.0057077007 0.0434934
000170 e2 20 aa 3b 08 54 84 3c fc 61 e2 bc b6 98 92 3d
       0.005191908 0.01615335 -0.027634613 0.071580335
000180 cb ef ec bc 66 94 e4 3c 5b ca 5f 3d 31 11 6b 3d
       -0.028922936 0.027902793 0.05463634 0.057389442
000190 95 33 42 3d e3 8d 95 3d c0 05 d4 bd f8 a2 8b 3d
       0.047412474 0.07302453 -0.10352659 0.06818193
0001a0 0b 6d f5 bc d4 a4 17 3d 57 69 d0 3d bd 6e 0e 3d
       -0.029959222 0.037022427 0.10176342 0.034773577
0001b0 fa f9 b3 3d db 40 da 3d 3c a5 27 3e b2 a6 00 be
       0.087879136 0.106569014 0.16371626 -0.12563589
0001c0 72 a7 ff 3c c2 87 cf bc 9f 1c 30 3d b9 d9 b7 bd
       0.031207774 -0.025333289 0.042996045 -0.08977074
0001d0 72 dd c4 bc 0c ca a8 3d 60 35 04 bb a5 1f 11 3e
       -0.024031375 0.082416624 -0.0020173416 0.14172228
0001e0 e9 ff ee bd df 83 aa 3c 93 54 2c 3d 64 4a 3b bb
       -0.11669905 0.020814834 0.042072844 -0.0028578276
0001f0 89 d3 bc bb e0 7a 5c bb 3b 74 41 bb 87 a6 5c 3d
       -0.0057625216 -0.0033642575 -0.0029518742 0.05386975
000200 14 e6 72 bb 2f d4 c2 3d 69 4c 00 b9 7f 53 76 bb
       -0.0037063407 0.09513127 -0.00012235496 -0.0037586389
000210 6c ee 0b bd 85 18 a5 bd 58 f9 9b 3d 57 63 10 3d
       -0.034162924 -0.08061317 0.07615918 0.035250988
000220 c2 89 a0 3d 39 69 59 3d a2 ab 9a 3c 8e b9 c5 3d
       0.07838775 0.053078864 0.018880669 0.096545324
000230 c5 05 19 bc f8 a8 6d b8 97 54 3a bd c9 89 cd bc
       -0.0093397545 -5.6662568e-05 -0.045490827 -0.025090115
000240 d0 e2 0d 3e 3b 67 23 3d c8 bc a9 3d d3 de e5 3c
       0.13856053 0.03989337 0.0828796 0.028060352
000250 48 40 93 bd c1 ec 6d bc 4b c7 10 3c 46 f6 d6 3c
       -0.07189995 -0.014521779 0.008836578 0.02624048
000260 01 98 5c 3d 32 68 e0 3c 13 77 51 bb 24 e0 18 3d
       0.0538559 0.027393434 -0.0031961843 0.037323132
000270 73 da f5 3c b9 48 be bc 91 6c 98 3c 11 89 9b 3d
       0.030011391 -0.023228036 0.018606456 0.07594503
000280 13 1f b2 3b 7b 4e f3 3b 7b e0 c0 3a 62 a4 85 3d
       0.0054358332 0.007425127 0.0014715338 0.06525494
000290 48 d6 ec 3d e6 bd 97 3c a2 d4 5b bd e3 61 02 3d
       0.115643084 0.018523168 -0.05366958 0.031831633
0002a0 d6 0b 4e 3d 7b b3 3a 3d f5 42 98 3b 35 c5 14 3d
       0.050304256 0.045581322 0.004646654 0.036320884
0002b0 bf d8 9d bc 6e 1b 8f bd 6e eb 47 3b ac 3d e9 3c
       -0.019268392 -0.06987654 0.0030505317 0.02847179
0002c0 5d 98 aa 3b 70 e5 94 3d d3 5b b3 3c e2 1a eb ba
       0.0052061514 0.07270324 0.021894371 -0.0017937089
0002d0 9c b9 81 3d 06 98 4b 3d 1a 0e 81 bd b0 0d 88 3d
       0.0633423 0.049705528 -0.06301518 0.06643236
0002e0 76 cc 26 bd 12 f7 1c 3d 15 66 8b 3d ca 0c b5 3d
       -0.040722333 0.038321562 0.0680658 0.0884033
0002f0 ab 27 b9 3d 97 a5 90 3d f3 b7 3e 3c d1 0f c7 bd
       0.09040769 0.07062834 0.011640537 -0.097198136
000300 38 06 75 bd 7a 57 16 3c dc 0e 57 bc 27 09 47 bc
       -0.059820384 0.0091761295 -0.013126101 -0.012148178
000310 a3 32 6a 3d 1b 55 98 3d 00 de 03 bc a2 2a c5 3b
       0.057177197 0.074381076 -0.008048534 0.006017045
000320 70 db 74 bd ff d3 df 3c ce 09 91 3c 94 c9 67 bd
       -0.059779584 0.027322767 0.01770487 -0.056588724
000330 5d ec 6f bd f6 ea e8 bc e7 7e cc 3c c4 73 25 bd
       -0.058575023 -0.02843235 0.024962856 -0.040393606
000340 c1 87 8f bd 80 2c 9b 3b bb 19 d4 3c 32 ce 4b bd
       -0.07008315 0.0047355294 0.025891175 -0.04975719
000350 28 08 04 bd 25 cd 82 bc 08 b8 8e bd a2 c2 30 3d
       -0.03223434 -0.015966961 -0.06968695 0.043154366
000360 75 91 cb bc 42 83 6a bd ce 3c 5e 3d 54 dc 87 bd
       -0.024849633 -0.057254083 0.054257207 -0.06633821
000370 9e 41 8f 3c 98 3c 44 3d ce 6d 86 bd 6e fc 2f bd
       0.017487343 0.04790935 -0.06563912 -0.042965345
000380 7f cb 97 bd 67 0e a5 bd fd 3a c1 bc 88 b1 8f bd
       -0.07411861 -0.08059388 -0.023587698 -0.07016283
000390 0d 72 30 bd 55 9b 7e bc f2 f5 40 3d d0 78 8d bc
       -0.043077517 -0.015539964 0.04710955 -0.017269522
0003a0 c8 ea 18 bc 02 7f 68 3d 0b a7 50 bd 60 1c 8e bd
       -0.00933332 0.05676175 -0.050940555 -0.06939006
0003b0 bd 3a 83 bd a5 9a 1e 3d 11 5a 9e bd 1e 73 75 3d
       -0.06407688 0.0387217 -0.077320226 0.059924237
0003c0 a6 15 19 3b c2 5e 59 3d 45 d2 b4 bc fc 51 2e bc
       0.002335885 0.053068884 -0.02207292 -0.010639664
0003d0 af 2d b7 3c ea 11 24 bd a0 57 48 3c a8 6d 1a 3d
       0.02236065 -0.040056147 0.012227923 0.037702233
0003e0 1b 29 54 3c c9 e2 be 3c 74 4a 73 bd a3 cd 47 3c
       0.012949253 0.023301499 -0.059397176 0.012195024
0003f0 60 1c bf bb 78 02 07 3d b3 a4 0a 3d fe 22 9a 3c
       -0.00583224 0.03296134 0.033848476 0.018815514

linear_layers.0.bias f4 [100]
000000 8e 61 0d 3d 9b 5e 97 bc 34 3d 07 bd b7 90 77 3d
       0.034516864 -0.018477729 -0.033017352 0.060440745
000010 8d 66 c1 3c 29 81 df bc 4f c9 8f 3d 59 0a 63 3c
       0.02360847 -0.027283268 0.070208184 0.013857448
000020 cd ae a3 bc ed 4b 58 3d 1a 41 59 bc a7 e2 d7 3c
       -0.019980812 0.052806783 -0.01326015 0.026353193
000030 9a e6 08 bd 1b 5d 2b 3d 97 32 10 3d 13 d1 93 bd
       -0.033423044 0.04183684 0.035204496 -0.07217612
000040 e1 63 27 bc 79 6d c5 3c 1e 60 ee 3c a2 f3 c5 3d
       -0.010216684 0.024100052 0.029098567 0.0966561
000050 ca e6 3d 3d d1 ee 4b 3d d6 b8 f1 bc 7a 05 3a 3d
       0.046362676 0.0497883 -0.029507082 0.04541538
000060 b2 22 0b bd 4c 60 07 3d bc 01 37 bb 78 fb 5c bc
       -0.033968635 0.03305082 -0.0027924618 -0.013487689
000070 90 2f 98 3a bc dc 36 bd ef a3 97 3c 57 c7 b4 3a
       0.0011610854 -0.044644102 0.018510787 0.0013792318
000080 2e 2b 77 3d 8d 20 b5 bc 43 01 56 3d 96 93 99 bc
       0.060343914 -0.022110248 0.052247297 -0.018747132
000090 28 4e 82 bd 24 7c 0b 3d 78 9a 33 bd 2b 0b b9 3d
       -0.06362563 0.034053937 -0.043848485 0.09035333
0000a0 ae 21 8d 3c 2e 23 11 3d 86 03 93 bb 66 3d 46 3d
       0.017227974 0.03543394 -0.004486504 0.048398398
0000b0 a3 fe a3 ba 87 fa 0b bd c1 1f 7a bd 14 e8 b5 bb
       -0.0012511801 -0.03417447 -0.06106544 -0.0055513475
0000c0 1d ef 8f bd 4b eb ad 3a 3e 2e ed bc 91 f8 fb 3c
       -0.07028029 0.0013268975 -0.028952714 0.030758174
0000d0 54 f2 a9 bc d7 95 16 bd 8b 8b 6f 3d f3 e5 6f 3d
       -0.020745434 -0.036763992 0.058482688 0.058568906
0000e0 f1 d8 4d bd 56 9b 6d bd 6e fb 34 3c 8f 51 5f bd
       -0.05025572 -0.058009468 0.011046274 -0.05452114
0000f0 39 27 92 bc 0f ed 83 3d cd c5 e9 3b 00 26 1c 3d
       -0.017840968 0.064417 0.0071341754 0.038122177
000100 f4 be 3d bc fa 84 92 bc 8d 08 43 3d 0b 87 cb 3c
       -0.011581171 -0.017885674 0.047615577 0.024844667
000110 a1 d3 8e bd 88 e3 fe bc 57 38 88 bd ec 7f 5a bd
       -0.06973959 -0.031114355 -0.06651371 -0.053344652
000120 27 71 28 3d a8 43 0a bb d3 c4 36 3d 49 74 16 bd
       0.041123535 -0.0021097455 0.0446213 -0.036731992
000130 62 5a 45 3d 00 24 7b 3d ed b9 67 bd fc 5e 99 3c
       0.0481819 0.06131363 -0.056573797 0.01872205
000140 7d 7e 92 bd 2f 19 89 bb 48 e9 4b 3c d5 74 58 3d
       -0.07153032 -0.0041839103 0.012445755 0.052845795
000150 8b ef 46 3d 4b 4a 6a bb f0 49 0d bd 78 74 2b 3d
       0.04856829 -0.0035749848 -0.03449434 0.04185912
000160 fd 8e 01 bd f2 7a 41 3d 9e 94 0f bd ad ee 03 bd
       -0.031630505 0.04723639 -0.03505384 -0.03221004
000170 ed bd 80 3d 66 d3 0f bd 06 df b3 3c 54 6f a5 bc
       0.062862255 -0.035113715 0.021956932 -0.020194687
000180 87 5a f5 3b 60 b6 4e 3c 03 d5 af 3c 4d e9 45 bd
       0.0074875983 0.012616724 0.021463877 -0.048318196

linear_last.weight f4 [5, 100]
000000 0a bc 76 bd 72 8c a9 bd 60 4b 8c 3b 21 7b 0d be
       -0.06023792 -0.08278741 0.0042814463 -0.13816501
000010 d7 9d 72 bc 15 05 c3 bb 80 24 b0 3b e6 ab ed bd
       -0.01480814 -0.0059515336 0.005375445 -0.11605053
000020 71 24 00 bd d6 78 04 3e 2b b2 6d bd 6b 10 53 be
       -0.031284753 0.1293672 -0.058031242 -0.20611732
000030 db 71 83 3d 05 32 12 3c 37 43 b4 bc 5d 21 a6 3c
       0.064182006 0.008923058 -0.022004707 0.02027958
000040 86 98 71 3d e4 44 7d be aa c3 7b 3d 0b 92 c7 bd
       0.05898335 -0.24733311 0.061465897 -0.09744652
000050 b6 c1 2a be e3 d4 05 be cf 73 a9 bd a4 53 9e be
       -0.16675457 -0.13069491 -0.08274042 -0.30923188
000060 ba aa 4b 3d f1 93 05 bc 82 84 12 be 59 8b 7f 3d
       0.049723364 -0.008152948 -0.1430836 0.06238875
000070 0d 65 b4 bd 92 83 8c bd ba 5e 9a bd 72 8e cd bd
       -0.088083364 -0.068610325 -0.07537599 -0.10036935
000080 4a 85 b0 3d 71 94 1c be cb 58 00 3d 4f 65 a4 bd
       0.08619173 -0.15291001 0.03133468 -0.080271356
000090 a0 5e 13 bd aa 94 9d 3d 31 62 0d 3e ff 59 36 be
       -0.035978913 0.07694371 0.13806988 -0.17807768
0000a0 d8 6a 65 3d 2e c6 16 bc cf 83 08 bd 00 c5 75 bc
       0.056010097 -0.009202523 -0.033328827 -0.015000582
0000b0 a9 9d b0 bd d4 93 a8 bd cc 78 1b 3d bb 78 b8 3d
       -0.08623821 -0.08231321 0.037956998 0.090074025
0000c0 d4 9f bd 3d dc 9d 16 be fb ab 94 3d 07 44 9c bd
       0.092590004 -0.14708656 0.07259365 -0.07630163
0000d0 31 f5 22 bd 2a 6e 02 be c9 d9 94 be c7 ae 23 be
       -0.039784614 -0.12737337 -0.29072407 -0.15984641
0000e0 e3 b8 48 bd f5 88 3f 3d 27 81 65 bd 4a 7f c0 b9
       -0.049004447 0.04676147 -0.056031372 -0.00036715931
0000f0 ce 72 5c bc 70 f3 41 bd c7 eb 93 3d 8c 4d 86 bc
       -0.013455106 -0.0473513 0.07222705 -0.0163944
000100 d4 ac 89 bc 9c 06 36 3c 1f a2 31 3d e3 88 a8 3d
       -0.016806044 0.011109974 0.0433675 0.08229234
000110 2f c7 ac 3d 00 02 6f bb ca 3f 87 be d7 ea b2 bc
       0.08436429 -0.0036469698 -0.26415855 -0.021840496
000120 d6 5b 13 be 6f 33 00 bd 2e b4 49 ba 94 23 de bc
       -0.14390501 -0.03129905 -0.00076943904 -0.027116574
000130 b7 4d 00 be b9 7f 03 be 03 b3 0a be 96 92 ab 3c
       -0.12529646 -0.12841691 -0.1354485 0.020943921
000140 18 f4 9a 3c 05 1f 79 bd f4 5a 7b 3d e9 85 b8 3c
       0.018915221 -0.0608206 0.061366037 0.02252479
000150 39 10 0d 3c 94 fb c5 3d 8a ce 40 3c 37 f0 bd 3b
       0.008609825 0.09667125 0.011767993 0.005796458
000160 7b 14 ac 3d e5 a2 b9 3d 91 7f 0d be 70 44 1a be
       0.08402344 0.09064273 -0.13818194 -0.1506517
000170 09 4a 6e 3d ab 1f 54 be 1d bf 02 be 91 31 94 bd
       0.058176074 -0.20715205 -0.12768216 -0.072360165
000180 54 4f 93 bd 0a c5 12 bd b1 a1 63 3d ae fe 03 be
       -0.07192865 -0.035832442 0.055574123 -0.12890121
000190 f9 63 79 bd 5c e3 4d 3d 6c 4e a9 bc 63 24 90 3d
       -0.060886357 0.050265655 -0.020667277 0.0703819
0001a0 0b 3f 7e be 88 6e 36 bd 9a ae 6c bd de a1 de 3d
       -0.24828736 -0.044539005 -0.0577837 0.108707175
0001b0 17 70 b3 3d d0 b1 e6 3d c7 40 ac 3d e1 1a 30 3e
       0.08761614 0.11264384 0.08410793 0.17197753
0001c0 05 5c 92 3d 42 89 3c bd 31 ad 94 3d db be 0b 3c
       0.071464576 -0.046029337 0.07259596 0.00852939
0001d0 c8 9f df bd 35 08 00 be 2b 66 65 3d 1b 4a 89 be
       -0.10919148 -0.1250313 0.056005638 -0.2681435
0001e0 09 12 94 bd 3e 4b 04 be 5c c0 bd bd 29 9d 86 bd
       -0.072300024 -0.12919328 -0.09265205 -0.06572945
0001f0 cf e9 49 bd 99 58 37 bd 08 1d 96 3d 4c 5d f6 3c
       -0.049295243 -0.044762228 0.07329756 0.030073784
000200 d5 a3 55 3d da 38 a7 bd 99 9f 06 bd 76 3d 68 bd
       0.052158196 -0.081651405 -0.032867048 -0.05669924
000210 b1 48 a9 3d 7d bf 65 3d df 07 a9 3c fd 1b 29 bd
       0.08265818 0.05609082 0.020633636 -0.041286457
000220 3a fc 38 3d 7d bd 9c 3d be b6 fe ba d0 7d 3a bd
       0.045162417 0.076533295 -0.0019433124 -0.04553014
000230 1b 08 5d be 1d bd 7a 3d 59 b3 84 3d 9a 18 2a bd
       -0.21585123 0.06121551 0.0647952 -0.041527368
000240 6b 5f 39 3d 7d 38 9a 3c 25 15 18 bc 1b f3 b4 3d
       0.045257013 0.018825764 -0.009282385 0.08835431
000250 3d f9 7f 3d 93 f2 04 be 2e ec 9f 3d b3 80 f0 bc
       0.06249355 -0.1298316 0.078087196 -0.029358244
000260 8e 25 10 be 7e 31 f1 bd dd 7d 75 bd cb b3 8d 3b
       -0.14076826 -0.11777018 -0.059934486 0.0043244115
000270 e2 e0 82 bd 0c bc dd bb 17 45 06 bd e2 55 0a bc
       -0.06390549 -0.0067668017 -0.032780733 -0.008443328
000280 1d 2d 90 bd 71 1c 9f 3d 03 b6 ab 3c fc 8c f0 3c
       -0.07039855 0.07769097 0.020960813 0.029364102
000290 4d 43 59 bd 6e f5 25 be 4a 46 d4 bd 9b 33 89 3d
       -0.0530427 -0.16206905 -0.10364969 0.06699296
0002a0 63 25 a9 3d 52 ea 29 3d a5 47 fe bd ff 1c 92 3d
       0.08259084 0.04148323 -0.12416009 0.07134437
0002b0 3f c4 42 3d 54 2c 9f bd ed 20 16 be 60 e5 00 bd
       0.047550436 -0.07772127 -0.14660998 -0.03146875
0002c0 54 f8 61 bd f9 d7 bb bd 6e 6d c5 bd e2 e0 f6 bd
       -0.055168465 -0.09172053 -0.09640013 -0.12054612
0002d0 1b a7 ba 3d 0a 2f b0 bd ce b7 12 bc 49 05 fd bc
       0.09113904 -0.08602722 -0.008954955 -0.03088631
0002e0 24 62 09 be bb d5 01 be a9 99 25 be fc b6 02 bd
       -0.13416344 -0.12679188 -0.16171898 -0.03191279
0002f0 68 cc c1 bc 33 4c c7 3c 3b 09 80 be 22 0e b9 3d
       -0.023657039 0.024328327 -0.25007042 0.09035899
000300 03 ad 24 bc 0e 75 24 3e e0 0b 15 bd f2 cd 12 be
       -0.010051015 0.16060278 -0.036388278 -0.14336374
000310 e4 eb 7f bd 33 19 84 3d f7 15 05 be 00 5b 62 bd
       -0.062480822 0.06450119 -0.1299666 -0.055262566
000320 98 32 66 3b 3f 29 0d 3d 18 cf 3f 3c 1b 18 22 3d
       0.003512537 0.034463163 0.01170709 0.03957377
000330 51 b8 8c 3e dc 46 60 3d ba d6 9d bd 88 d0 56 be
       0.27484372 0.054755077 -0.077069715 -0.20977986
000340 b0 76 f2 3c 10 ae 4d be fa 4b 19 3d 44 73 70 be
       0.02959761 -0.20085931 0.037425973 -0.2348147
000350 e9 c7 b9 3d 12 07 00 bd 7e b5 d0 3d fd 63 3c 3d
       0.09071333 -0.031256743 0.10190867 0.045993794
000360 2d 13 9f 3d 80 7a 12 3e 5d 22 fc 3c 44 83 6a be
       0.07767329 0.14304543 0.030778104 -0.22901636
000370 a4 79 05 3e d9 c4 63 3b 98 a6 bb bd f3 69 81 be
       0.13034683 0.0034754782 -0.091626346 -0.25276145
000380 66 3b 6c 3d d6 ae 33 3e 86 77 48 be e6 35 91 3d
       0.057673834 0.17547163 -0.19576845 0.070903584
000390 81 a7 af bc 13 49 67 bd 3e ca 01 bd a9 28 63 3d
       -0.021442177 -0.056466173 -0.031687014 0.0554587
0003a0 29 19 f5 3b 96 20 03 3e dc dd 9e bd 55 14 5f 3c
       0.007479806 0.128054 -0.0775716 0.013615687
0003b0 c2 09 18 3d af 8f c7 3d 67 77 11 3e 48 75 b8 bd
       0.03711868 0.09744202 0.14205705 -0.090067446
0003c0 89 90 2d 3e 47 82 cc 3d 50 cf cb 3c 20 83 2f bd
       0.16949667 0.09985786 0.024879128 -0.04284966
0003d0 f2 0f 81 bd a5 b5 b1 3d 2c b2 9a bd 16 a6 ec bc
       -0.063018695 0.08677224 -0.07553515 -0.02888779
0003e0 8b e5 9b 3d 22 dc 7f bd 20 08 a6 3b 9e d4 a5 3d
       0.07612141 -0.062465794 0.0050668865 0.08097194
0003f0 b0 68 10 bd 74 3d a4 3d 9d ed 13 be bf 9d 0d 3e
       -0.035256088 0.08019534 -0.14446111 0.13829707

linear_last.bias f4 [5]
000000 b4 f8 b1 bd 2d 2b 82 bd 4a b9 1d 3d cf 87 a6 bd
       -0.086900145 -0.063558914 0.038506784 -0.08131372
000010 0a 28 1a 3d
       0.03763584
