trained_models/cnn_100_200_[100]_4_[3]_Retention Period_zeros_60-20-20_polisis_attr_state.pt (torch_old, 583812 bytes, 7 tensors)

embedding.weight f4 [649, 100]
000000 00 00 00 00 00 00 00 00 00 00 00 00 00 00 00 00
       0.0 0.0 0.0 0.0
000010 00 00 00 00 00 00 00 00 00 00 00 00 00 00 00 00
       0.0 0.0 0.0 0.0
000020 00 00 00 00 00 00 00 00 00 00 00 00 00 00 00 00
       0.0 0.0 0.0 0.0
000030 00 00 00 00 00 00 00 00 00 00 00 00 00 00 00 00
       0.0 0.0 0.0 0.0
000040 00 00 00 00 00 00 00 00 00 00 00 00 00 00 00 00
       0.0 0.0 0.0 0.0
000050 00 00 00 00 00 00 00 00 00 00 00 00 00 00 00 00
       0.0 0.0 0.0 0.0
000060 00 00 00 00 00 00 00 00 00 00 00 00 00 00 00 00
       0.0 0.0 0.0 0.0
000070 00 00 00 00 00 00 00 00 00 00 00 00 00 00 00 00
       0.0 0.0 0.0 0.0
000080 00 00 00 00 00 00 00 00 00 00 00 00 00 00 00 00
       0.0 0.0 0.0 0.0
000090 00 00 00 00 00 00 00 00 00 00 00 00 00 00 00 00
       0.0 0.0 0.0 0.0
0000a0 00 00 00 00 00 00 00 00 00 00 00 00 00 00 00 00
       0.0 0.0 0.0 0.0
0000b0 00 00 00 00 00 00 00 00 00 00 00 00 00 00 00 00
       0.0 0.0 0.0 0.0
0000c0 00 00 00 00 00 00 00 00 00 00 00 00 00 00 00 00
       0.0 0.0 0.0 0.0
0000d0 00 00 00 00 00 00 00 00 00 00 00 00 00 00 00 00
       0.0 0.0 0.0 0.0
0000e0 00 00 00 00 00 00 00 00 00 00 00 00 00 00 00 00
       0.0 0.0 0.0 0.0
0000f0 00 00 00 00 00 00 00 00 00 00 00 00 00 00 00 00
       0.0 0.0 0.0 0.0
000100 00 00 00 00 00 00 00 00 00 00 00 00 00 00 00 00
       0.0 0.0 0.0 0.0
000110 00 00 00 00 00 00 00 00 00 00 00 00 00 00 00 00
       0.0 0.0 0.0 0.0
000120 00 00 00 00 00 00 00 00 00 00 00 00 00 00 00 00
       0.0 0.0 0.0 0.0
000130 00 00 00 00 00 00 00 00 00 00 00 00 00 00 00 00
       0.0 0.0 0.0 0.0
000140 00 00 00 00 00 00 00 00 00 00 00 00 00 00 00 00
       0.0 0.0 0.0 0.0
000150 00 00 00 00 00 00 00 00 00 00 00 00 00 00 00 00
       0.0 0.0 0.0 0.0
000160 00 00 00 00 00 00 00 00 00 00 00 00 00 00 00 00
       0.0 0.0 0.0 0.0
000170 00 00 00 00 00 00 00 00 00 00 00 00 00 00 00 00
       0.0 0.0 0.0 0.0
000180 00 00 00 00 00 00 00 00 00 00 00 00 00 00 00 00
       0.0 0.0 0.0 0.0
000190 00 00 00 00 00 00 00 00 00 00 00 00 00 00 00 00
       0.0 0.0 0.0 0.0
0001a0 00 00 00 00 00 00 00 00 00 00 00 00 00 00 00 00
       0.0 0.0 0.0 0.0
0001b0 00 00 00 00 00 00 00 00 00 00 00 00 00 00 00 00
       0.0 0.0 0.0 0.0
0001c0 00 00 00 00 00 00 00 00 00 00 00 00 00 00 00 00
       0.0 0.0 0.0 0.0
0001d0 00 00 00 00 00 00 00 00 00 00 00 00 00 00 00 00
       0.0 0.0 0.0 0.0
0001e0 00 00 00 00 00 00 00 00 00 00 00 00 00 00 00 00
       0.0 0.0 0.0 0.0
0001f0 00 00 00 00 00 00 00 00 00 00 00 00 00 00 00 00
       0.0 0.0 0.0 0.0
000200 00 00 00 00 00 00 00 00 00 00 00 00 00 00 00 00
       0.0 0.0 0.0 0.0
000210 00 00 00 00 00 00 00 00 00 00 00 00 00 00 00 00
       0.0 0.0 0.0 0.0
000220 00 00 00 00 00 00 00 00 00 00 00 00 00 00 00 00
       0.0 0.0 0.0 0.0
000230 00 00 00 00 00 00 00 00 00 00 00 00 00 00 00 00
       0.0 0.0 0.0 0.0
000240 00 00 00 00 00 00 00 00 00 00 00 00 00 00 00 00
       0.0 0.0 0.0 0.0
000250 00 00 00 00 00 00 00 00 00 00 00 00 00 00 00 00
       0.0 0.0 0.0 0.0
000260 00 00 00 00 00 00 00 00 00 00 00 00 00 00 00 00
       0.0 0.0 0.0 0.0
000270 00 00 00 00 00 00 00 00 00 00 00 00 00 00 00 00
       0.0 0.0 0.0 0.0
000280 00 00 00 00 00 00 00 00 00 00 00 00 00 00 00 00
       0.0 0.0 0.0 0.0
000290 00 00 00 00 00 00 00 00 00 00 00 00 00 00 00 00
       0.0 0.0 0.0 0.0
0002a0 00 00 00 00 00 00 00 00 00 00 00 00 00 00 00 00
       0.0 0.0 0.0 0.0
0002b0 00 00 00 00 00 00 00 00 00 00 00 00 00 00 00 00
       0.0 0.0 0.0 0.0
0002c0 00 00 00 00 00 00 00 00 00 00 00 00 00 00 00 00
       0.0 0.0 0.0 0.0
0002d0 00 00 00 00 00 00 00 00 00 00 00 00 00 00 00 00
       0.0 0.0 0.0 0.0
0002e0 00 00 00 00 00 00 00 00 00 00 00 00 00 00 00 00
       0.0 0.0 0.0 0.0
0002f0 00 00 00 00 00 00 00 00 00 00 00 00 00 00 00 00
       0.0 0.0 0.0 0.0
000300 00 00 00 00 00 00 00 00 00 00 00 00 00 00 00 00
       0.0 0.0 0.0 0.0
000310 00 00 00 00 00 00 00 00 00 00 00 00 00 00 00 00
       0.0 0.0 0.0 0.0
000320 00 00 00 00 00 00 00 00 00 00 00 00 00 00 00 00
       0.0 0.0 0.0 0.0
000330 00 00 00 00 00 00 00 00 00 00 00 00 00 00 00 00
       0.0 0.0 0.0 0.0
000340 00 00 00 00 00 00 00 00 00 00 00 00 00 00 00 00
       0.0 0.0 0.0 0.0
000350 00 00 00 00 00 00 00 00 00 00 00 00 00 00 00 00
       0.0 0.0 0.0 0.0
000360 00 00 00 00 00 00 00 00 00 00 00 00 00 00 00 00
       0.0 0.0 0.0 0.0
000370 00 00 00 00 00 00 00 00 00 00 00 00 00 00 00 00
       0.0 0.0 0.0 0.0
000380 00 00 00 00 00 00 00 00 00 00 00 00 00 00 00 00
       0.0 0.0 0.0 0.0
000390 00 00 00 00 00 00 00 00 00 00 00 00 00 00 00 00
       0.0 0.0 0.0 0.0
0003a0 00 00 00 00 00 00 00 00 00 00 00 00 00 00 00 00
       0.0 0.0 0.0 0.0
0003b0 00 00 00 00 00 00 00 00 00 00 00 00 00 00 00 00
       0.0 0.0 0.0 0.0
0003c0 00 00 00 00 00 00 00 00 00 00 00 00 00 00 00 00
       0.0 0.0 0.0 0.0
0003d0 00 00 00 00 00 00 00 00 00 00 00 00 00 00 00 00
       0.0 0.0 0.0 0.0
0003e0 00 00 00 00 00 00 00 00 00 00 00 00 00 00 00 00
       0.0 0.0 0.0 0.0
0003f0 00 00 00 00 00 00 00 00 00 00 00 00 00 00 00 00
       0.0 0.0 0.0 0.0

convolutions.0.weight f4 [200, 1, 3, 100]
000000 05 35 c6 bd bc 72 38 bd 36 fc d1 3c c4 46 fe bd
       -0.096780814 -0.045031294 0.025632959 -0.12415841
000010 81 76 e1 3d 00 fa 17 3e 6c 01 2b be 2c 33 0c be
       0.11008931 0.14841461 -0.16699761 -0.13691396
000020 39 09 0a be 08 de 23 3d 5e 37 80 3d 22 89 a4 3c
       -0.1348008 0.040006667 0.062605605 0.020084921
000030 ed da 9c 3d 88 af f0 bc 2a 82 dc 3d e8 26 ee 3d
       0.07658944 -0.029380575 0.10767014 0.116285145
000040 9c 02 62 bd cc 0e 28 3b e8 b9 b0 3c 56 f4 3d bc
       -0.05517827 0.0025643585 0.021573022 -0.011593899
000050 96 46 3c 3e 74 85 64 bd 12 89 0e 3e 44 ef ac bc
       0.18386301 -0.055791333 0.13919476 -0.021110184
000060 85 86 4c bd e1 a1 46 bd 9f ee a0 bc 38 06 be bc
       -0.049932975 -0.048494224 -0.019645033 -0.023196325
000070 25 c2 1c be 63 ec 84 bc f7 86 8b 3d 7c 69 d0 bd
       -0.15308435 -0.016226 0.06812852 -0.101763695
000080 12 5c 1c 3d 04 06 ec 3d cd 3b 79 bd 1c 45 b0 bc
       0.038173743 0.11524585 -0.060848046 -0.021517329
000090 1f f2 84 bc e1 9b 28 bd f9 27 a8 3b 23 e6 b0 bc
       -0.016228734 -0.041164283 0.0051317182 -0.021594113
0000a0 3c 6e 0b be c1 e3 3f 3e a3 a5 d8 bd cf 12 ac bd
       -0.1361627 0.18739225 -0.10578468 -0.08402025
0000b0 05 03 60 3b 40 32 37 bd e2 ef e2 bd 13 71 87 bc
       0.0034181487 -0.044725657 -0.1108091 -0.01653341
0000c0 f6 9c 9c bd ce 08 1f be 0b 69 20 3d 6f 19 4f 3c
       -0.076471254 -0.15530702 0.039162677 0.012640341
0000d0 38 a1 ac ba d1 f7 26 3e a0 24 ae bd 44 09 cb bd
       -0.0013170606 0.16305472 -0.085030794 -0.09913877
0000e0 23 e9 45 be 6f 44 f3 3d e0 4d 0f be 02 b0 7c 3d
       -0.19327216 0.11878287 -0.1399455 0.06169129
0000f0 d3 6e 8c 3d c9 e7 59 bd 8a 4a 15 3d e5 bd 28 3e
       0.068570755 -0.053199563 0.03644804 0.16478689
000100 af 90 14 3e 67 a3 8d bd 16 20 0a be 8f f4 f5 3d
       0.14508317 -0.06915932 -0.13488802 0.120095365
000110 89 26 ba bd 92 31 c7 bb 23 b4 e4 bd ab 4e 2a bd
       -0.09089381 -0.0060789073 -0.11167171 -0.04157893
000120 87 84 2c 3d 5e 95 da 3d d8 71 fd ba 23 b6 2c bd
       0.042118575 0.10673021 -0.0019336296 -0.042165887
000130 ef 21 ba 3d ce f2 4d bd 78 ea 31 be c9 70 b6 bd
       0.090885036 -0.050280385 -0.17374599 -0.08908231
000140 0c bf 0e be 5c 60 82 3d e9 df 48 3c 3f 5d 51 3c
       -0.13940066 0.06366035 0.012260416 0.012778579
000150 70 7b aa bd 6e a1 90 3d 12 02 a4 bd 98 f8 d0 bc
       -0.08324325 0.0706204 -0.080082074 -0.025509164
000160 e3 d6 e0 bc 16 cc 00 3e 59 1b 86 bd a9 84 a2 bd
       -0.027446216 0.12577853 -0.06548185 -0.07935459
000170 17 85 e4 ba b2 7f d4 bd de 53 91 3d d5 52 93 3d
       -0.0017434683 -0.103759184 0.070960745 0.07193533
000180 2e 9c b4 3d 65 e8 1a be ee 0f 08 3e 5d 74 b3 bc
       0.088188514 -0.15127714 0.13287327 -0.021906072
000190 c7 21 6c 3d 6d e7 3b 3d 0e a5 04 bd 50 86 05 be
       0.0576494 0.045875 -0.03238397 -0.13039517
0001a0 cf 3f 0d 3e 4c ff 97 bc bb 20 a0 bd bb bd 0e 3e
       0.13793872 -0.018554352 -0.07818743 0.13939564
0001b0 8a 77 f0 3c 2a a1 e9 3d 5e 9f 0d 3d fd 9d 5b 3e
       0.029353876 0.11407693 0.034575813 0.21446986
0001c0 a4 d5 d8 3c cc 5f 2a 3a e4 e3 d3 bd b4 31 3c bb
       0.02646906 0.000649926 -0.10346201 -0.0028716149
0001d0 76 04 1e 3d 0f ef f8 bc 56 2d 70 3d 65 e5 98 3c
       0.038578473 -0.03038743 0.058636986 0.018664071
0001e0 c8 6b 3e 3d 6e 5c 47 3d 31 af ac bc ca 55 17 3e
       0.046489507 0.048672132 -0.021079632 0.1477882
0001f0 1d ee 05 be 5d 1e 1e be 5b bb f0 3d 65 b2 ed bd
       -0.13079114 -0.1544127 0.11754485 -0.11606292
000200 31 2a 06 be c9 8f ad 3c d9 8f dc bb d7 aa b8 bd
       -0.13102032 0.021186726 -0.006731015 -0.0901696
000210 22 f3 bd 3c 7a 25 42 be bb 96 ce bd f5 b2 db 3c
       0.023187224 -0.18959609 -0.10087343 0.026818732
000220 6b 98 8d 3d 6b 5f 9f 3d 6a de 33 3d d3 bd 62 3d
       0.06913837 0.077818714 0.043913282 0.05535681
000230 55 aa 05 be 14 3d a8 bc e8 25 17 bd f2 9b 0f 3d
       -0.13053258 -0.020536937 -0.036901385 0.03506083
000240 d5 da 10 be 95 90 1c 3d 44 e7 13 be 6f 4a d8 bc
       -0.14145978 0.03822382 -0.1444369 -0.02640268
000250 25 21 a1 bd a8 75 40 be ea b7 95 3d ea 53 19 3e
       -0.0786765 -0.18794882 0.073104694 0.14973417
000260 70 f6 80 3d 68 02 b4 3b a5 6f a1 bc bd 6d 7e 3d
       0.06297004 0.005493451 -0.019706557 0.062116373
000270 4e 53 a9 3d e8 63 b3 3d 60 67 2e 3a b6 ba 13 3c
       0.08267842 0.0875929 0.00066529773 0.009016683
000280 c3 74 17 be 9b 24 29 3d 9b 96 84 3d 8d ff 12 3e
       -0.14790635 0.041294675 0.06474038 0.14355297
000290 aa 96 81 3d 8e b7 1a 3d 84 ed 14 bc 13 1a 15 bb
       0.06327565 0.037772708 -0.009089831 -0.0022751137
0002a0 5b 22 da bd c6 e1 34 bd d7 95 4c 3e 82 5d 63 be
       -0.10651084 -0.044160627 0.19979034 -0.22203639
0002b0 fa 0a 3c 3c 2c c7 80 be 7d 41 14 be 58 46 ef bd
       0.011477226 -0.25151956 -0.14478107 -0.11683339
0002c0 72 70 c6 3d 8b 1f 86 be e2 99 93 bd 3c e7 82 3c
       0.09689416 -0.2619594 -0.07207085 0.015979402
0002d0 d2 aa 86 be 1a 1d 1f 3e d0 a1 b4 3d 7b 7a 1e bc
       -0.263022 0.15538445 0.08819926 -0.009672756
0002e0 8d 3a 21 bd 4d b0 b7 3d 41 09 15 bd 68 09 02 3e
       -0.03936248 0.089691736 -0.03638578 0.126989
0002f0 cd 69 e3 3c 3a 6b 42 3e 70 be 01 3e bb 6d 4e be
       0.02776041 0.18986216 0.12670302 -0.20159046
000300 a4 ea 68 3b 08 75 33 3e 51 3e 3e 3e c2 c5 70 3d
       0.0035540247 0.17525113 0.1857846 0.058782347
000310 e4 ce 1b be 11 96 cb bd 83 8f d8 3d ef 57 68 bc
       -0.15215641 -0.09940732 0.10574248 -0.014181121
000320 3b 92 6a 3c f3 21 d6 bd d7 bb d3 3d c2 31 10 3e
       0.014317091 -0.10455694 0.10338562 0.14081481
000330 96 6d 11 3d 61 6c 66 be df 09 2f be e4 17 31 3e
       0.0355049 -0.22502281 -0.1709361 0.1729427
000340 81 f5 ba 3d 87 19 1c be 62 86 cc 3c 4b 07 8b bd
       0.091288574 -0.15244113 0.024966422 -0.067885004
000350 69 83 87 bd e3 4a f6 3c 91 0c 99 3d fc f8 ad bd
       -0.066168614 0.030065006 0.074731 -0.084947556
000360 4f 8e 94 bc a4 55 5e 3d 2a 26 8b bd af fe be 3c
       -0.018134264 0.054280892 -0.067943886 0.023314802
000370 e7 30 f8 bb a0 10 18 be 70 81 ff 3d 51 6f 01 3d
       -0.007574189 -0.14850092 0.1247586 0.0316003
000380 54 20 63 bb 2b 81 6b bb 83 c8 8c bd 56 8c f9 bd
       -0.003465672 -0.0035935144 -0.06874182 -0.1218497
000390 ff 10 f6 bd 17 29 1e 3c 0b aa ab bd 8a fb 81 3b
       -0.120149605 0.009653351 -0.083820425 0.0039667534
0003a0 c9 7b 47 3e fa 40 09 bc 81 5f 96 bd 02 aa 6e bd
       0.19480814 -0.008377308 -0.07342435 -0.0582676
0003b0 85 4c 6f 3c f2 55 95 bd 0a 62 ff 3c 9c 6a e2 3d
       0.014605646 -0.072917834 0.031174678 0.110554904
0003c0 c4 aa 8d bc bb 85 ef bd 7e d6 45 bd 1c 00 85 bc
       -0.017293341 -0.11695429 -0.04830026 -0.016235404
0003d0 df f1 a4 3d 77 38 28 3e 4e 2c a9 bd 63 13 ff bb
       0.08053946 0.1642779 -0.082604036 -0.0077842935
0003e0 1c d9 cf 3d 42 6b 09 3d 66 f4 0c be e4 fe 1e be
       0.10148832 0.033549555 -0.13765106 -0.1552692
0003f0 4f 2d 40 3e 45 e6 a5 ba 65 8d 0e 3e 11 1c a4 3c
       0.18767284 -0.0012657127 0.13921125 0.020032914

convolutions.0.bias f4 [200]
000000 1a e7 85 bc 97 43 6e bd 39 77 ee bc d1 40 00 bc
       -0.01634555 -0.058169927 -0.029109584 -0.007827953
000010 fb 9f 0c 3b 1c 5d 16 bb d2 90 ea bc 55 84 6f 3d
       0.002145766 -0.002294368 -0.028633509 0.05847581
000020 ea 3d 1e 3a 06 ca 17 3d 32 5c 01 3c b0 9f 8a bc
       0.00060364476 0.0370579 0.007895516 -0.016921848
000030 ff 16 2a bc 33 be 17 3e d8 70 82 3e 53 af fc ba
       -0.010381459 0.14818649 0.25476718 -0.0019278325
000040 72 7d 80 3d 17 a6 68 bd d7 40 3f bd 8a cf e3 3d
       0.06273927 -0.05679902 -0.046692695 0.11123569
000050 23 d4 0b 3e f8 56 8f 3c 1f 54 2d bd 6c 8b 1a 3d
       0.13655142 0.017497525 -0.042316552 0.03773062
000060 37 d5 dc 3c 01 8c 90 3d b8 70 4d 3e 99 95 2e 3e
       0.026957138 0.070579536 0.2006253 0.17049254
000070 db 84 d2 bc 96 07 a1 3d e0 16 6c b7 75 39 2a bd
       -0.025698116 0.07862775 -1.4072022e-05 -0.0415587
000080 26 99 11 bd 19 83 45 bd f4 dc 34 3e 9c ba 35 bb
       -0.035546444 -0.048220728 0.17662412 -0.0027729636
000090 43 0f ce 3d 48 78 62 bd f6 b7 10 3d 3b 18 1a bb
       0.10061505 -0.05529049 0.03533169 -0.0023512978
0000a0 b4 e2 a6 ba 6d e7 21 3e 77 e5 44 bb 1c f7 a4 bc
       -0.0012732358 0.15810938 -0.0030043998 -0.020137362
0000b0 40 f2 e7 bc 3a 61 86 ba 85 a7 90 bb 04 cd 08 bc
       -0.028313756 -0.0010252364 -0.004414501 -0.008349661
0000c0 a7 f3 1c bc c4 fc 06 3d fb e1 07 3e 23 c7 83 bd
       -0.009579576 0.0329559 0.13269798 -0.06434467
0000d0 6d c6 9e bb 23 de 9d ba 02 07 33 3e 57 b2 f7 bc
       -0.0048454315 -0.0012044351 0.17483142 -0.030236406
0000e0 ce c3 3c bd 45 b2 d6 ba 5b 85 01 bd 33 e9 2e bb
       -0.04608517 -0.0016380033 -0.03162132 -0.002668929
0000f0 30 4f ea 3d a8 02 24 39 96 a7 47 3d 6a 7a 5e 3e
       0.11440885 0.00015641248 0.048743807 0.21726385
000100 73 62 aa b6 02 56 70 bb e7 4d fc bb 6e 58 f2 3d
       -5.077856e-06 -0.0036672358 -0.0076997164 0.11833273
000110 96 a2 eb 39 2b a7 9a 3d 6d 0a cf 3d 67 2a 4b 3d
       0.0004494383 0.07551416 0.101094104 0.049600985
000120 1c d2 8e 3c 2b c8 9d bc 17 c1 08 3c a1 a1 cc bc
       0.017434172 -0.019260487 0.008346817 -0.024979414
000130 a2 32 2c 3e 92 83 ea 3d 38 70 ab bb f8 70 04 bd
       0.1681619 0.11450876 -0.0052318834 -0.032334298
000140 ad 97 11 bc 3b 24 b2 bb 10 52 d1 bb cd 91 0b bb
       -0.00888626 -0.005436448 -0.0063879564 -0.002129662
000150 ca 87 f6 3b 55 88 2e 3d 76 01 79 3e 77 30 ef ba
       0.0075235115 0.042610485 0.24316964 -0.0018248697
000160 37 20 ae 3d 30 b1 0e 3e 32 ea 3a bc 38 2e 83 bb
       0.08502238 0.13934779 -0.011408376 -0.0040033124
000170 4b 15 17 3e 82 10 b2 bb d6 09 4d bb 76 f5 41 3d
       0.14754216 -0.005434097 -0.003128638 0.04735323
000180 02 a9 1f 3c f6 1b f5 3d ed 30 67 bd d0 59 0f ba
       0.009744884 0.11968224 -0.056443144 -0.00054684
000190 99 5e 8a bd 74 b3 4f bb ca 13 b1 3a 7d c1 22 bc
       -0.06756324 -0.0031692656 0.0013509926 -0.0099338265
0001a0 d2 be 84 bc 10 ff 03 3b c5 2a 82 3e 02 63 da 3d
       -0.016204271 0.0020141043 0.25423256 0.106634155
0001b0 69 e9 c8 ba 4d 72 ab bd 37 9c 3b 3d d0 37 3f b9
       -0.0015328351 -0.083714105 0.045803275 -0.00018235971
0001c0 10 cb 0b bd 38 bd 4e 3c e0 ae 0d 3e a1 26 54 bb
       -0.034129202 0.012618355 0.13836241 -0.0032371657
0001d0 2c e2 71 3d 3c a2 bd 3d ca b1 53 bd 69 a7 0d bb
       0.059053585 0.092594594 -0.051683225 -0.0021614677
0001e0 a7 2b 09 3d f9 b4 da bc 95 01 9a 3d 33 9b 3f 3e
       0.033488896 -0.026697623 0.07519833 0.18711548
0001f0 f2 6a 52 3a 78 d2 14 bb 2e 9b a0 bc d7 5a 45 3d
       0.00080268004 -0.0022708457 -0.019605245 0.048182335
000200 6f 76 a1 bb 28 65 27 b9 08 54 46 bd c7 de 62 bb
       -0.0049274485 -0.00015964045 -0.048419982 -0.003461765
000210 42 42 7e 3d 36 81 34 3e 9a ff 9c bb 2a 8e f8 3d
       0.062074907 0.17627415 -0.0047912123 0.12136491
000220 31 cb 1a 3e e7 4c c3 ba cf c4 f5 3a 25 be 61 3c
       0.15116574 -0.0014900238 0.001875067 0.013778244
000230 4e 8a 0b bd 02 74 b8 39 2b 56 55 bd a7 f6 05 bb
       -0.034067445 0.00035181647 -0.05208413 -0.0020441206
000240 f5 9a 2c 3e 8c fc 80 b9 08 51 3d 3e 41 16 77 3d
       0.16855986 -0.00024602225 0.18487942 0.060323957
000250 f2 c9 1f 3e 88 76 b8 3c 00 76 eb 3d da 53 2b 3e
       0.1560438 0.022517458 0.11497116 0.16731206
000260 11 06 0e 3d c0 42 b4 ba 7f c2 59 3c 50 d7 19 3d
       0.034673754 -0.0013752803 0.013291 0.037558854
000270 c5 e1 5d 3e 58 ef 9a bb c9 e9 c5 3a e0 e0 1f 3e
       0.21668155 -0.004728239 0.0015099581 0.15613127
000280 76 1a e8 3d 07 b1 75 bd 7d b8 4b 3e 9a cd 28 3e
       0.11333172 -0.05998328 0.19894595 0.16484681
000290 52 a2 5b bb a6 ce 71 3d 5a d3 64 3d 1a c5 06 3c
       -0.0033513498 0.059034966 0.055865623 0.008225704
0002a0 0f 8c e4 3a 6d a0 12 bd d1 08 9f bd 62 a5 95 bb
       0.001743676 -0.035797525 -0.077653535 -0.0045668343
0002b0 c5 42 bc bb 41 98 16 bc 85 d5 4f 3e 5a ab ee bc
       -0.0057452642 -0.009191574 0.20296295 -0.029134441
0002c0 73 f3 22 3e 85 b0 63 3e ea ce 6f bb 73 8a 71 bb
       0.15913181 0.22235306 -0.0036591836 -0.0036856204
0002d0 f7 d5 99 bb e4 b9 a0 3a 2c b2 34 bb 34 2f 03 bb
       -0.004694696 0.0012262431 -0.002757202 -0.002001715
0002e0 00 e6 4c 3d 2e b5 fd 3d 03 6c 4b bb 20 58 d2 b7
       0.050024033 0.12388073 -0.0031039722 -2.5074987e-05
0002f0 0d 51 1c 3e 23 87 42 bd 32 e5 00 bc 52 6e 38 bc
       0.15265293 -0.047492158 -0.007867144 -0.011256771
000300 69 17 5b 3e b4 a4 9d ba 88 6a 02 bd a0 5d 15 bd
       0.21395649 -0.0012027235 -0.031839877 -0.03646624
000310 d1 d8 87 3d c4 b4 ea 3a 3c 58 43 3e d2 bc 63 3e
       0.06633151 0.0017906656 0.19076627 0.22239998

linear_layers.0.weight f4 [100, 200]
000000 01 9c 6d be 0a a6 28 3e ef 89 db 3d e6 52 c7 bc
       -0.23204042 0.16469589 0.10719668 -0.024331521
000010 79 f2 41 be b9 b5 a0 bd d7 72 80 3d 28 c7 9d 3d
       -0.18940152 -0.07847161 0.06271904 0.07704002
000020 15 95 77 bd b9 ac c5 bc e3 b3 01 be db 6e b6 3d
       -0.06044491 -0.024130212 -0.12666278 0.08907863
000030 70 54 8f 3d 55 21 6d 3d 84 56 43 3d df bd 27 bd
       0.06998527 0.057893116 0.04768993 -0.04095256
000040 6f 0e d2 3d 0a a0 0c 3e c7 6c 11 bb d6 05 31 3e
       0.10256659 0.13732925 -0.002219008 0.17287382
000050 b7 f2 30 3e ec 3e d9 bd 4c c9 49 bd 85 29 21 3d
       0.17280088 -0.106077045 -0.049264237 0.039346237
000060 fe 48 15 bd d8 aa f0 3c 0a 17 00 3e 77 6f 95 3d
       -0.036446564 0.02937834 0.12508789 0.07296651
000070 99 55 c6 3d f2 e1 0c 3d 07 d6 aa bd c8 da 98 bd
       0.09684295 0.034395166 -0.08341604 -0.07463604
000080 bc dc e3 3d 18 7a dd 3c c2 d4 91 3e d3 6b cb bb
       0.11126086 0.027035758 0.28482634 -0.006207922
000090 c2 6f 0b 3e 29 7e 4d 3d 61 e0 ff bd da b9 c0 3c
       0.13616851 0.050169144 -0.12493969 0.02352612
0000a0 cb 96 2c bd cf 2e c7 bc 68 60 2a 3d fb 23 7e bd
       -0.042135995 -0.024314312 0.041595846 -0.062046032
0000b0 df 72 05 3d 90 f2 88 3d f7 b0 de bc 1d 05 61 bd
       0.032580253 0.0668689 -0.027183993 -0.054936517
0000c0 72 28 47 3e a0 c2 e7 3c 5d 00 84 bb 14 d6 06 3d
       0.19449022 0.028291047 -0.0040283636 0.032919005
0000d0 a0 1e 1d 3d 66 db 0a be e1 9a 25 3e 79 8d cf 3d
       0.038359284 -0.13560256 0.16172363 0.10134406
0000e0 a5 4b 1d be 6a ec b3 bc c5 b2 0e 3e 94 a5 04 3e
       -0.15360887 -0.021963317 0.13935383 0.12953788
0000f0 74 6d a0 3b 41 77 2b bd 8d a8 34 3d c8 d4 5b 3c
       0.0048958603 -0.041861776 0.044106055 0.01341743
000100 56 17 d3 bd 52 17 59 bd 95 87 e8 bb f9 6a 0c 3d
       -0.10307185 -0.053000756 -0.0070962408 0.034281705
000110 b4 ba 30 bd a9 a8 b0 3c f9 b4 3d 3e 2a d7 b7 3d
       -0.043146804 0.021564798 0.18526067 0.08976586
000120 a9 da f8 3d 7a a2 e1 3b 53 22 d8 3d d8 f6 d9 3d
       0.12151081 0.006885824 0.10553422 0.10642785
000130 31 06 ac 3d 1d 1a 1f 3d 54 79 29 bd 55 80 2a ba
       0.083996184 0.038843263 -0.041375473 -0.00065041083
000140 be 93 8d bd 70 4d e8 bb 66 b1 8d 3d e4 26 22 3d
       -0.06912945 -0.0070893094 0.06918602 0.03958787
000150 84 4d 30 be d6 73 34 bd f7 f1 3f 3e ca e0 42 be
       -0.1721707 -0.044055782 0.18744646 -0.19031063
000160 c1 63 06 3d 0a c8 05 3e 69 4d a2 3d c5 f5 ce 3c
       0.032809976 0.1306459 0.07924921 0.025263676
000170 bb 65 86 3d 31 5a ce 3d 6a e4 51 bd e0 1e 8a 3d
       0.06562372 0.100757964 -0.051243223 0.0674417
000180 ff a5 0d be da 9d 36 3e dd 66 a4 bd b4 e7 37 bc
       -0.13832854 0.17833653 -0.08027432 -0.011224676
000190 81 de a1 3d 87 4c cc bd 01 fa e1 3d 8e 2f f5 3d
       0.079037674 -0.09975534 0.110340126 0.11971961
0001a0 1d d7 2a 3d 99 7b d7 bd 94 63 1e 3e 10 4e a6 3d
       0.041709054 -0.10521621 0.15467674 0.08120358
0001b0 cf 9a 0a 3d 83 d1 c4 3d 96 fd 2f 3d 5e fd e6 bd
       0.033839043 0.09610274 0.042966448 -0.11278795
0001c0 ff f5 02 be a3 d9 79 bc eb ed 31 3d 7c 55 85 3d
       -0.12789153 -0.015249643 0.043439787 0.065104455
0001d0 8e 32 93 bc c1 4c 42 bc 34 60 02 3e 37 99 11 3d
       -0.017968442 -0.01185912 0.12732011 0.035546508
0001e0 dd e5 39 3d 87 e4 d7 bd 92 20 10 3d 52 af 0f 3e
       0.04538523 -0.10541635 0.03518731 0.14031723
0001f0 49 4b 39 bd d9 d3 a4 3c e1 fc 31 3d 74 20 c9 3d
       -0.045237813 0.020120548 0.043454055 0.09820643
000200 56 57 9d bd 0f 5b 3d bd 3e 44 8d 3d d7 77 58 3d
       -0.07682674 -0.04622942 0.06897782 0.052848663
000210 df 00 89 3d 61 d8 be 3d 7e ad 02 bd 90 b9 f6 3d
       0.06689619 0.09318615 -0.031903736 0.12047112
000220 36 39 ac 3d 7a 55 fd bb f2 26 dd bd 88 51 77 bd
       0.084093496 -0.007731137 -0.10798444 -0.06038049
000230 b8 1c 9b 3d 50 b9 21 be 58 aa 48 3e f8 36 18 bd
       0.07573837 -0.15793347 0.19596231 -0.037161797
000240 c1 6a d7 3d be 65 91 bd 21 5c a4 3d 3c 17 79 3c
       0.105184086 -0.07099484 0.08025385 0.015203293
000250 51 54 ae 3d c1 42 18 bd 8e fa 90 3d c5 99 83 3d
       0.08512176 -0.037173036 0.070790395 0.064258136
000260 01 01 83 3d a5 87 d5 bd 8f 73 ce 3d 68 0a c1 3c
       0.06396676 -0.10426263 0.10080635 0.023564532
000270 31 6c a8 3d 44 fb ac bd 30 c4 2f be 13 fe 12 3e
       0.08223761 -0.084463626 -0.17164683 0.14354734
000280 5a 8a 3f 3d ab b6 2c be fa b4 e6 3d c5 b3 f6 3d
       0.0467628 -0.16866557 0.11264987 0.12046007
000290 47 2c da 3c 94 e2 60 3d fd d2 4e bd 90 83 ee 3b
       0.026632441 0.05490358 -0.050494183 0.007278867
0002a0 90 d7 a8 bd b7 88 a4 3d 32 7c 93 3c 5f 96 47 bd
       -0.0824424 0.08033889 0.018003557 -0.04872739
0002b0 1e b5 ab 3c e7 eb 2b 3d 69 ef 89 3e 66 0c 2b 3e
       0.020960387 0.04197302 0.26940468 0.16703948
0002c0 78 3e 20 3d 19 38 b1 3b 12 d3 e1 3b 76 1f 4e 3d
       0.039122075 0.0054082987 0.0068916166 0.050322972
0002d0 0e d8 27 3d 63 27 f7 bc 81 87 29 bc 52 88 93 3d
       0.04097753 -0.030170148 -0.010347248 0.072037354
0002e0 59 fb 45 3e 22 9f 09 3e be 04 8d 3d eb e0 1c 3d
       0.19334163 0.1343961 0.0688567 0.038300436
0002f0 65 30 25 bd 78 50 94 3d 2f a2 cc 3d cc c2 df 3d
       -0.040329356 0.07241911 0.099918716 0.109258264
000300 6e bd 53 3d 3e 9d 34 be e1 82 0c bd f6 db 2e 3d
       0.051694326 -0.17638108 -0.034304503 0.04269024
000310 60 e1 e8 3d be 07 e3 bd 5c d8 51 bc 23 36 86 3c
       0.11371112 -0.11085461 -0.012807932 0.016383236
000320 d8 c2 42 3d 4d 04 af bc 67 70 1f 3d 8e fd d2 bc
       0.0475491 -0.021364355 0.038925555 -0.02575567
000330 72 a8 5f 3d 14 9b 8b bd 2a bc a7 bc 22 60 84 bb
       0.054604 -0.06816688 -0.020475466 -0.0040397802
000340 99 b1 16 3d 39 34 33 3b f9 31 d6 bb a2 21 dd 3c
       0.036790464 0.002734436 -0.006536719 0.026993576
000350 e2 aa 29 3d 04 60 45 bd 89 e8 b5 bc e2 f1 6a bd
       0.041422732 -0.04818727 -0.022205608 -0.057359584
000360 7c 55 af 3c 69 7b eb 3c d2 b9 25 bd 7b 16 59 3c
       0.021403067 0.02874537 -0.040460415 0.013249989
000370 d4 86 dd bc fd c6 f1 3c 68 cb 8e bd 2d 6c b2 bb
       -0.02704183 0.02951383 -0.069723904 -0.0054450245
000380 62 c4 0e bd a4 bc 21 3d 5d 27 e2 bc f1 a8 0c bb
       -0.034855254 0.039486542 -0.02760666 -0.0021463002
000390 f4 67 a3 3a 32 a0 50 bc 1c c4 4d bd 02 ab 04 bd
       0.0012466894 -0.012733506 -0.050235853 -0.03238965
0003a0 74 8c 79 bd 43 6b b7 bc 46 c2 21 bd df 0b 8c bd
       -0.060924962 -0.022390014 -0.039491914 -0.06838202
0003b0 43 9f 13 bd 53 ae c4 3c 1e a1 2a bd 24 f3 de 3c
       -0.036040556 0.024008906 -0.04165756 0.027215548
0003c0 a1 ff b9 ba 25 fc 60 3c fe e0 85 bd 69 ca 82 bd
       -0.0014190563 0.013731991 -0.065370545 -0.06386263
0003d0 29 b3 89 3c 43 e8 74 bd 2c 73 0e bd fc 07 60 bc
       0.016809063 -0.059791815 -0.034777805 -0.013673779
0003e0 87 34 39 3d c2 68 4a 3c 91 af 2f bc be 59 30 bd
       0.04521611 0.012354078 -0.010723011 -0.043054335
0003f0 60 97 5e 3d 8c be 94 3c de f3 1d bc 9c 2f e2 3c
       0.05434358 0.018157266 -0.009640662 0.027610593

linear_layers.0.bias f4 [100]
000000 3e 90 b5 3d aa 6e c3 bc 5f 3d e0 3d 25 c7 9d 3d
       0.08865403 -0.02385648 0.109492056 0.077039994
000010 9a 79 05 3d f5 bc c7 bc 6e 4f ad 3d bc 4a 88 3c
       0.03258667 -0.024382094 0.08462416 0.016637199
000020 9d e6 cc 3c ba 66 b2 3c c7 b9 9d 3d 7c ca 89 bd
       0.025012309 0.0217775 0.0770145 -0.06728074
000030 93 54 82 3b 03 7f 2f bd bc 82 ee 3d 0b e2 4b 3e
       0.003977367 -0.042845737 0.11646029 0.19910447
000040 f7 01 f7 bc bf a5 9e bd a8 d7 4a bd 94 0e 6b 3d
       -0.030152304 -0.07746457 -0.049522072 0.05738695
000050 18 8c 4d bc 7a c0 e5 3d 8c 5d b4 3d 3b 4b cd 3d
       -0.012545608 0.112183526 0.08806905 0.10024115
000060 e9 d8 ae bc 57 9e 59 3d 91 e5 44 3e 8e cb 78 bd
       -0.021343665 0.05312952 0.19228198 -0.060741
000070 8e 1d 75 bd fc 21 1f 3e 72 83 85 3d 18 a7 5a 3d
       -0.05984264 0.15540308 0.06519212 0.05338201
000080 13 72 0c 3e c8 0e 54 3d 35 b9 32 3d a1 e0 03 bd
       0.13715391 0.05177191 0.04363366 -0.032196645
000090 6c 68 40 3d e0 d7 67 bd 11 07 77 bd 55 27 40 3d
       0.046974584 -0.05660236 -0.060309473 0.04691251
0000a0 08 85 5b bd 1a fc 4a bd 5a 46 46 3d af 00 61 3d
       -0.053593665 -0.04955683 0.048406936 0.054932293
0000b0 24 d4 26 3c 44 48 d3 3b 27 ba e8 bc 7a bb 9c 3c
       0.010182414 0.0064478237 -0.028409077 0.019132365
0000c0 99 ab ec 3c d0 6f 67 3d 51 21 ec 3d d2 3e 8f 3d
       0.028890418 0.056503117 0.11529792 0.06994404
0000d0 15 35 9a 3d 65 4d 04 bc 20 35 09 3a c0 38 35 bd
       0.07529656 -0.008075093 0.00052340515 -0.044243574
0000e0 7b 04 41 3d 47 aa 4d bc 00 62 e8 3c 6a b4 80 3c
       0.047123414 -0.012552804 0.028367043 0.015711028
0000f0 58 5d 84 bd e7 e4 9a bc 86 f1 b8 3d 0b ad e3 3c
       -0.064631164 -0.018907977 0.09030442 0.027792474
000100 f0 d9 dc 3c 58 f6 97 3c f0 b2 91 3e bb b7 49 3c
       0.02695939 0.018550083 0.2845683 0.012311871
000110 6f 83 86 bc 26 ec bc 3d 3d 92 05 3d 83 e9 61 3d
       -0.016420094 0.09224729 0.032610167 0.055154335
000120 ab 47 79 3d 8e b0 a1 3d 68 67 a3 3c 0c f3 86 3e
       0.060859364 0.07895003 0.019946769 0.26357305
000130 5b 30 9c 3d f9 e0 28 3d 5c e8 08 3d ba 44 7e 3e
       0.076264106 0.041230176 0.03342472 0.24830905
000140 ea 9e 7d 3e 02 f6 85 3c 9f d7 b3 3d ff 43 ee 3d
       0.24767652 0.016352657 0.08781361 0.11634063
000150 af f3 f0 3d b1 82 77 3d db 5a 7f bd ac ab 2d bd
       0.11765229 0.06042737 -0.062342506 -0.042400047
000160 bc 8d 19 3d 39 48 ac ba 09 81 82 bd 1c bd 89 3d
       0.037488684 -0.0013144083 -0.06372268 0.06725523
000170 a7 de d6 3d 40 59 1b 3d ef 36 1e bb e4 e3 9f 3d
       0.10491686 0.037926912 -0.002414163 0.078071386
000180 31 ff d1 bb 50 a4 cd 3c c8 87 05 bd 15 49 cd bb
       -0.006408595 0.025102764 -0.032600194 -0.0062648156

linear_last.weight f4 [4, 100]
000000 4b b4 db bc 74 a1 29 bd 64 24 61 be dd 7f 78 be
       -0.026819369 -0.04141374 -0.21986538 -0.24267526
000010 e4 bc 9a 3e 62 fd a0 bc 72 e6 e1 3c 0f 0e bb 3c
       0.30222237 -0.019652072 0.027575705 0.022833852
000020 f0 68 3b 3d 48 fb 16 3e f9 e4 ff bd 2f 09 f1 3a
       0.045754373 0.14744294 -0.12494845 0.0018389578
000030 6b 36 39 be 54 39 8f 3c 76 13 1d bd cc a0 97 bd
       -0.18087165 0.01748339 -0.038348638 -0.074037164
000040 09 a9 74 3d 8b 81 a2 3d bb 1e 4d bd 37 59 1d bd
       0.059731517 0.079348646 -0.050078135 -0.03841516
000050 79 bd e9 bc b5 58 c7 3c 41 cf a8 be 4a 26 87 be
       -0.02853273 0.024334291 -0.32970622 -0.263964
000060 6a 81 e5 3d ad 66 9c 3d 18 94 dc be f4 6e cd bd
       0.112063244 0.07636771 -0.43081737 -0.10030928
000070 83 6c cd 3c 26 64 88 be d5 80 81 be fa 1a 98 be
       0.025076156 -0.26638907 -0.25293604 -0.2970808
000080 85 18 3a be d8 13 4d be ef 04 b1 3d 49 c9 c5 3d
       -0.18173416 -0.20027101 0.08643519 0.09657533
000090 fd 10 20 3d 9c 1e 44 bd 1e a0 9f bd e7 49 c2 3d
       0.0390787 -0.047880754 -0.07794212 0.09486752
0000a0 cb 6c ba 3c 65 2b c4 bd dc a6 98 3e 4a 5e 90 bd
       0.022756955 -0.09578589 0.29814804 -0.07049234
0000b0 b0 8b aa bd 21 cc a0 3d a9 2a 8f bd 12 97 11 3e
       -0.083274245 0.078514345 -0.06990559 0.14217785
0000c0 95 92 66 bd 4d 36 37 3d e7 e6 b8 3d 46 a3 cf 3d
       -0.056292135 0.04472952 0.09028416 0.10138564
0000d0 6e 90 d3 bd 0c 26 c0 bd 92 e4 68 3d 0b 25 3b be
       -0.10330282 -0.09382257 0.056858607 -0.1827585
0000e0 db 3a e1 3d b0 2a 96 3e 39 b0 28 3e e9 80 97 3d
       0.10997554 0.29329443 0.16473474 0.073976345
0000f0 7d e8 e5 3c 68 87 2b bd a0 bb f5 bd 25 2f 3e 3d
       0.02806496 -0.04187718 -0.11998677 0.04643168
000100 d1 cb d2 3c 64 58 e4 bd d5 60 2d be e5 de e5 bd
       0.025731953 -0.11149672 -0.1693147 -0.112241544
000110 36 bc 87 3e f4 e7 a0 be e1 fa be 3d 38 da 53 3e
       0.2651078 -0.31426966 0.09325195 0.20688713
000120 73 33 8c bc 68 80 54 be 02 31 01 3c 31 72 83 bb
       -0.017114377 -0.20752108 0.0078852195 -0.0040114154
000130 44 a1 5d bd c6 a7 59 be da 09 6a 3d 30 6b f9 bd
       -0.054108873 -0.21255407 0.0571383 -0.121786475
000140 72 f6 9c be bf 68 00 bb d2 bf 0a 3e 66 65 39 bc
       -0.30656773 -0.0019593684 0.13549736 -0.011315679
000150 be 45 0e be 06 da 81 be ff e9 21 be 00 8d 21 3b
       -0.13893792 -0.2536165 -0.15811919 0.0024650693
000160 6b ae 56 3c b0 b7 64 3d a7 ee 5d be cc fe 99 bd
       0.013103108 0.05583924 -0.2167307 -0.07519302
000170 d0 6d 1a 3e 01 cd a5 3e 0d 80 8a 3e 69 42 2f 3e
       0.15080953 0.32382968 0.2705082 0.17115177
000180 42 40 2a be 3f da c3 3d 40 84 8c bc 02 3b 91 bc
       -0.16626075 0.095631115 -0.017152905 -0.017728332
000190 c0 ba ec 3d 10 0b a6 3d 90 f3 11 be 91 70 68 3d
       0.11559057 0.08107579 -0.14253068 0.056747977
0001a0 bc 98 61 bd 64 8d 70 bc 69 61 62 3d b9 80 32 3d
       -0.0550773 -0.014682148 0.05526868 0.04357979
0001b0 02 86 1b 3d f7 cf 07 be 79 43 6d 3e 4a 61 70 3d
       0.037969597 -0.13262926 0.2317027 0.058686532
0001c0 34 f0 43 be f6 8d a7 bd 69 20 94 3e f8 49 79 3e
       -0.19134599 -0.08181374 0.28930977 0.24344623
0001d0 2d 60 b3 bd ec 27 f6 bc 27 7c 4c bd 49 c2 e2 3d
       -0.087585784 -0.030048333 -0.04992309 0.11072213
0001e0 6f ff 16 be fe e5 98 3d 32 31 e4 bd 39 6b 14 be
       -0.14745878 0.074657425 -0.11142196 -0.14494027
0001f0 ec b4 17 be 98 4c 76 be ae 2c 23 3e aa cd 1a 3c
       -0.1481511 -0.24052656 0.15935013 0.009448448
000200 03 b9 a3 bd 45 c9 e9 3d 4b 89 62 3e 76 e0 63 be
       -0.079942726 0.11415342 0.22122686 -0.22253594
000210 d0 04 9e 3e f0 04 38 3e f5 0b 2f 3d 30 da e3 bb
       0.30863047 0.17970634 0.042736012 -0.0069535
000220 a6 51 a5 ba f1 a7 81 3d 23 cc 2f 3d 98 34 9f be
       -0.0012612834 0.063308604 0.04291929 -0.31094813
000230 39 c5 67 3a ab 70 08 3d bb ff b3 bd bc a9 b2 3e
       0.0008841339 0.033310574 -0.08789011 0.34895122
000240 3d 0a 28 be 6a 09 ec 3c 92 24 9e 3d d9 41 71 be
       -0.16410156 0.028813083 0.07721819 -0.23560275
000250 a4 d8 9d 3d fe 21 98 be 9e 8e 41 3d 65 6a 04 3e
       0.077073365 -0.29713434 0.04725515 0.12931211
000260 b9 5f 49 be cc 0c df bd 68 a6 51 3d 02 0a 9f be
       -0.19665422 -0.10891113 0.051184088 -0.31062323
000270 10 b6 7e 3e af 97 14 3e 0c c3 37 be c1 be 10 bb
       0.24874139 0.14510988 -0.17945498 -0.0022086354
000280 16 6d 98 bc 28 b2 b5 3c b3 7c 2a 3d 87 f0 93 bd
       -0.018606704 0.022179678 0.04162283 -0.07223611
000290 94 67 9d be 75 25 37 3d ef 14 ac 3e ed 9e 86 3e
       -0.30743086 0.044713456 0.3360972 0.26293126
0002a0 8a f8 da bd cc 50 98 3d 97 5a 6f bd 91 d1 e4 bd
       -0.10691936 0.07437286 -0.058436003 -0.11172784
0002b0 d3 9c fa 3d bb c3 d7 bc 57 fc 1b 3e 7c d9 fc 3d
       0.12236943 -0.026338449 0.15232979 0.12346169
0002c0 27 a2 b5 bd dc ca 27 be c7 40 c5 bd 85 94 32 3e
       -0.08868819 -0.16385978 -0.09631496 0.17439468
0002d0 fb 79 3f 3d cc c4 5e 3c 31 36 a8 bd f7 86 5d 3d
       0.04674719 0.013596725 -0.08213461 0.05408379
0002e0 ec fd 20 be 1f 63 2e be 4e 0c 00 be 51 a7 b7 3d
       -0.15721864 -0.17029999 -0.12504694 0.0896746
0002f0 f2 ec b1 3d 54 15 b5 3d b5 a3 c2 bd 58 4c 01 bd
       0.08687772 0.08841959 -0.09503881 -0.031566948
000300 73 3b 55 bd e6 19 9e 3d 10 41 13 be 64 98 36 3e
       -0.05205865 0.077197835 -0.14380288 0.1783157
000310 6d 28 47 bd 7e b7 b5 3d 8b df 2a bc fe 98 1e bd
       -0.048622537 0.08872889 -0.010429273 -0.038720123
000320 e6 5d bc be 86 c3 4f 3d ec c9 11 3e 0d 30 36 3d
       -0.3679039 0.050723575 0.14237183 0.04447942
000330 9e a5 a1 bd 69 34 8f 3c ae 99 87 be f6 8c 87 3d
       -0.07892917 0.017481046 -0.26484436 0.06618683
000340 ea be 9a 3d e1 fc 77 be 51 44 b5 bc 94 62 58 3d
       0.07555945 -0.2421756 -0.022127302 0.052828386
000350 ae 77 9c bd 00 41 2a 3a 60 ad 39 be 4d 41 ba be
       -0.076400146 0.0006494671 -0.18132544 -0.36377946
000360 77 84 bd 3d 13 bc a3 bd 5d ce 9a bd c8 a7 5e be
       0.09253781 -0.07994857 -0.07558892 -0.21743691
000370 7f 6a 64 be cb dd 84 be 40 2c a6 3d 12 24 83 3e
       -0.2230625 -0.25950465 0.08113909 0.25613457
000380 1e 74 4a 3d 95 c9 9a 3d 63 b5 5e 3e da 4a b2 3d
       0.049427144 0.0755798 0.21748881 0.08705683
000390 72 6d 89 bb 1f 89 98 bd c5 38 b5 3d 1c 63 55 3e
       -0.004193955 -0.07448029 0.088487186 0.20838588
0003a0 fb b4 75 bc 93 79 96 be a3 27 bc bc a8 dc 94 bc
       -0.014996762 -0.2938963 -0.022968119 -0.018171623
0003b0 89 b8 9a be 81 41 dc 3c d7 56 5b bd 71 39 a8 3c
       -0.30218914 0.026886703 -0.053549614 0.020535203
0003c0 98 42 f7 bc cf d6 5e 3d 7c d5 17 3d 8d af 0f be
       -0.030183122 0.054404076 0.03706883 -0.14031811
0003d0 0c 0c 80 be bd fc 18 bd ac 7e ca 3d c3 25 4e be
       -0.2500919 -0.037350405 0.09887442 -0.20131592
0003e0 84 4c c1 bc 95 41 fb 3c 72 84 c6 3d b2 04 85 be
       -0.023596056 0.03067092 0.09693231 -0.25980145
0003f0 07 05 a2 bc d8 2b 36 3e c1 45 7f 3d 32 65 4b 3e
       -0.019777788 0.17790163 0.062322382 0.19862822

linear_last.bias f4 [4]
000000 db f7 b8 bc c9 9b 35 3b c1 07 27 3d 53 6d 32 bc
       -0.022579124 0.0027711263 0.04077888 -0.010890323
