trained_models/cnn_100_200_[100]_5_[3]_User Choice_zeros_60-20-20_polisis_attr_state.pt (torch_old, 522216 bytes, 7 tensors)

embedding.weight f4 [494, 100]
0	0x00000000	0.0
1	0x00000000	0.0
2	0x00000000	0.0
3	0x00000000	0.0
4	0x00000000	0.0
5	0x00000000	0.0
6	0x00000000	0.0
7	0x00000000	0.0
8	0x00000000	0.0
9	0x00000000	0.0
10	0x00000000	0.0
11	0x00000000	0.0
12	0x00000000	0.0
13	0x00000000	0.0
14	0x00000000	0.0
15	0x00000000	0.0
16	0x00000000	0.0
17	0x00000000	0.0
18	0x00000000	0.0
19	0x00000000	0.0
20	0x00000000	0.0
21	0x00000000	0.0
22	0x00000000	0.0
23	0x00000000	0.0
24	0x00000000	0.0
25	0x00000000	0.0
26	0x00000000	0.0
27	0x00000000	0.0
28	0x00000000	0.0
29	0x00000000	0.0
30	0x00000000	0.0
31	0x00000000	0.0
32	0x00000000	0.0
33	0x00000000	0.0
34	0x00000000	0.0
35	0x00000000	0.0
36	0x00000000	0.0
37	0x00000000	0.0
38	0x00000000	0.0
39	0x00000000	0.0
40	0x00000000	0.0
41	0x00000000	0.0
42	0x00000000	0.0
43	0x00000000	0.0
44	0x00000000	0.0
45	0x00000000	0.0
46	0x00000000	0.0
47	0x00000000	0.0
48	0x00000000	0.0
49	0x00000000	0.0
50	0x00000000	0.0
51	0x00000000	0.0
52	0x00000000	0.0
53	0x00000000	0.0
54	0x00000000	0.0
55	0x00000000	0.0
56	0x00000000	0.0
57	0x00000000	0.0
58	0x00000000	0.0
59	0x00000000	0.0
60	0x00000000	0.0
61	0x00000000	0.0
62	0x00000000	0.0
63	0x00000000	0.0
64	0x00000000	0.0
65	0x00000000	0.0
66	0x00000000	0.0
67	0x00000000	0.0
68	0x00000000	0.0
69	0x00000000	0.0
70	0x00000000	0.0
71	0x00000000	0.0
72	0x00000000	0.0
73	0x00000000	0.0
74	0x00000000	0.0
75	0x00000000	0.0
76	0x00000000	0.0
77	0x00000000	0.0
78	0x00000000	0.0
79	0x00000000	0.0
80	0x00000000	0.0
81	0x00000000	0.0
82	0x00000000	0.0
83	0x00000000	0.0
84	0x00000000	0.0
85	0x00000000	0.0
86	0x00000000	0.0
87	0x00000000	0.0
88	0x00000000	0.0
89	0x00000000	0.0
90	0x00000000	0.0
91	0x00000000	0.0
92	0x00000000	0.0
93	0x00000000	0.0
94	0x00000000	0.0
95	0x00000000	0.0
96	0x00000000	0.0
97	0x00000000	0.0
98	0x00000000	0.0
99	0x00000000	0.0
100	0x00000000	0.0
101	0x00000000	0.0
102	0x00000000	0.0
103	0x00000000	0.0
104	0x00000000	0.0
105	0x00000000	0.0
106	0x00000000	0.0
107	0x00000000	0.0
108	0x00000000	0.0
109	0x00000000	0.0
110	0x00000000	0.0
111	0x00000000	0.0
112	0x00000000	0.0
113	0x00000000	0.0
114	0x00000000	0.0
115	0x00000000	0.0
116	0x00000000	0.0
117	0x00000000	0.0
118	0x00000000	0.0
119	0x00000000	0.0
120	0x00000000	0.0
121	0x00000000	0.0
122	0x00000000	0.0
123	0x00000000	0.0
124	0x00000000	0.0
125	0x00000000	0.0
126	0x00000000	0.0
127	0x00000000	0.0
128	0x00000000	0.0
129	0x00000000	0.0
130	0x00000000	0.0
131	0x00000000	0.0
132	0x00000000	0.0
133	0x00000000	0.0
134	0x00000000	0.0
135	0x00000000	0.0
136	0x00000000	0.0
137	0x00000000	0.0
138	0x00000000	0.0
139	0x00000000	0.0
140	0x00000000	0.0
141	0x00000000	0.0
142	0x00000000	0.0
143	0x00000000	0.0
144	0x00000000	0.0
145	0x00000000	0.0
146	0x00000000	0.0
147	0x00000000	0.0
148	0x00000000	0.0
149	0x00000000	0.0
150	0x00000000	0.0
151	0x00000000	0.0
152	0x00000000	0.0
153	0x00000000	0.0
154	0x00000000	0.0
155	0x00000000	0.0
156	0x00000000	0.0
157	0x00000000	0.0
158	0x00000000	0.0
159	0x00000000	0.0
160	0x00000000	0.0
161	0x00000000	0.0
162	0x00000000	0.0
163	0x00000000	0.0
164	0x00000000	0.0
165	0x00000000	0.0
166	0x00000000	0.0
167	0x00000000	0.0
168	0x00000000	0.0
169	0x00000000	0.0
170	0x00000000	0.0
171	0x00000000	0.0
172	0x00000000	0.0
173	0x00000000	0.0
174	0x00000000	0.0
175	0x00000000	0.0
176	0x00000000	0.0
177	0x00000000	0.0
178	0x00000000	0.0
179	0x00000000	0.0
180	0x00000000	0.0
181	0x00000000	0.0
182	0x00000000	0.0
183	0x00000000	0.0
184	0x00000000	0.0
185	0x00000000	0.0
186	0x00000000	0.0
187	0x00000000	0.0
188	0x00000000	0.0
189	0x00000000	0.0
190	0x00000000	0.0
191	0x00000000	0.0
192	0x00000000	0.0
193	0x00000000	0.0
194	0x00000000	0.0
195	0x00000000	0.0
196	0x00000000	0.0
197	0x00000000	0.0
198	0x00000000	0.0
199	0x00000000	0.0
200	0x00000000	0.0
201	0x00000000	0.0
202	0x00000000	0.0
203	0x00000000	0.0
204	0x00000000	0.0
205	0x00000000	0.0
206	0x00000000	0.0
207	0x00000000	0.0
208	0x00000000	0.0
209	0x00000000	0.0
210	0x00000000	0.0
211	0x00000000	0.0
212	0x00000000	0.0
213	0x00000000	0.0
214	0x00000000	0.0
215	0x00000000	0.0
216	0x00000000	0.0
217	0x00000000	0.0
218	0x00000000	0.0
219	0x00000000	0.0
220	0x00000000	0.0
221	0x00000000	0.0
222	0x00000000	0.0
223	0x00000000	0.0
224	0x00000000	0.0
225	0x00000000	0.0
226	0x00000000	0.0
227	0x00000000	0.0
228	0x00000000	0.0
229	0x00000000	0.0
230	0x00000000	0.0
231	0x00000000	0.0
232	0x00000000	0.0
233	0x00000000	0.0
234	0x00000000	0.0
235	0x00000000	0.0
236	0x00000000	0.0
237	0x00000000	0.0
238	0x00000000	0.0
239	0x00000000	0.0
240	0x00000000	0.0
241	0x00000000	0.0
242	0x00000000	0.0
243	0x00000000	0.0
244	0x00000000	0.0
245	0x00000000	0.0
246	0x00000000	0.0
247	0x00000000	0.0
248	0x00000000	0.0
249	0x00000000	0.0
250	0x00000000	0.0
251	0x00000000	0.0
252	0x00000000	0.0
253	0x00000000	0.0
254	0x00000000	0.0
255	0x00000000	0.0

convolutions.0.weight f4 [200, 1, 3, 100]
0	0xbd2b044d	-0.04175215
1	0x3df8af38	0.12142795
2	0xbdedc495	-0.11609761
3	0xbbb84c73	-0.005624348
4	0x3da567d2	0.08076443
5	0x3bac4d4a	0.005258237
6	0x3c8523f5	0.016252497
7	0xbde4e06c	-0.111756176
8	0x3e12afda	0.14324895
9	0xbd5acc87	-0.05341771
10	0xbdb3fcb2	-0.08788432
11	0x3c10ae3f	0.008830606
12	0x3d367d20	0.044552922
13	0xbdbb2f22	-0.09139849
14	0xbd046ee3	-0.032332312
15	0xbd044051	-0.0322879
16	0x3ce5f8a0	0.028072655
17	0xbdc366a9	-0.09541065
18	0x3c94e58c	0.018175863
19	0x3e19e386	0.150282
20	0x3cf2fe67	0.029662324
21	0xbde6d97b	-0.1127195
22	0xbdb02c91	-0.0860225
23	0x3d4504f6	0.048100434
24	0x3dbd220b	0.09235009
25	0xbc4eb868	-0.012617208
26	0xbdc1daab	-0.09465536
27	0xbde4459e	-0.11146091
28	0x3d827f38	0.06371921
29	0xbd2a1d4f	-0.041531857
30	0xbd514173	-0.051087808
31	0xbd50ed7f	-0.051007744
32	0x3db60d70	0.08889282
33	0xbe6e0be2	-0.2324672
34	0x3d8cbe9f	0.068722956
35	0x3b2cafb2	0.002634984
36	0x3da7aa82	0.08186819
37	0xbc9fd968	-0.019512847
38	0xbd11bbbf	-0.03557944
39	0xbd804cd7	-0.06264656
40	0xbdfbafde	-0.122894034
41	0x3dc577d4	0.09641996
42	0x3dcb1722	0.099165216
43	0x3e2fff76	0.17187294
44	0x3caa83f3	0.020814871
45	0xbdfb6fc0	-0.12277174
46	0x3e3ca668	0.18422854
47	0x3e03ff85	0.12890442
48	0xbe0f3b49	-0.13987459
49	0xbe1503f2	-0.14552286
50	0xbe284894	-0.16433936
51	0xbe6a0b74	-0.22855932
52	0xbdf56727	-0.119825654
53	0x3d2191c2	0.039445646
54	0xbdb95592	-0.09049524
55	0xbd4ecdc4	-0.050489202
56	0x3db1f699	0.08689613
57	0xbde8bbc5	-0.11363939
58	0xbd8a0406	-0.06739049
59	0xbd9a2970	-0.07527435
60	0x3dda6cd5	0.10665289
61	0xbb0b78ac	-0.0021281643
62	0x3be35c0f	0.0069384645
63	0x3dc69ea8	0.0969823
64	0xbe2579ac	-0.16159695
65	0xbd5949cb	-0.05304889
66	0x3b58e379	0.0033094569
67	0x3a2ba4dd	0.0006547699
68	0xbc8a8e2e	-0.0169135
69	0x3cc0a66e	0.02351686
70	0x3d3c3086	0.045944713
71	0x3de6885b	0.112564765
72	0xbdb27826	-0.08714323
73	0xbddfe1a1	-0.10931707
74	0xbd9499c8	-0.07255894
75	0x3a91ff7d	0.0011138764
76	0xbc97f5d6	-0.01854984
77	0x3d9050b3	0.07046642
78	0xbd83d428	-0.0643695
79	0xbd54e109	-0.051972423
80	0x3d9de438	0.07709545
81	0xbd5377d9	-0.051627968
82	0x3d232289	0.039827857
83	0xbbcc5409	-0.0062356037
84	0x3dc217e7	0.09477215
85	0x3de8206e	0.113343105
86	0x3cf00f0a	0.029304046
87	0xbe383ee2	-0.17992738
88	0x3e05f666	0.13082275
89	0xbda8ae7b	-0.082364045
90	0x3c57d10f	0.013172402
91	0xbe0c7261	-0.13715507
92	0x3c33676b	0.01094995
93	0xbce1b1a1	-0.02755052
94	0x3bad824e	0.0052950745
95	0x3e06c951	0.13162734
96	0x3dc271b8	0.094943464
97	0xbe077c63	-0.13231044
98	0x3cc09284	0.023507364
99	0x3e106da3	0.14104323
100	0x3c44e666	0.012017822
101	0x3db69816	0.08915727
102	0xbb415b35	-0.0029503827
103	0xbc150b7d	-0.009096977
104	0x3a249823	0.00062787737
105	0xbd97c18f	-0.07409965
106	0x3d8d1775	0.0688924
107	0xbc783f09	-0.0151517475
108	0x3dcba3eb	0.09943374
109	0x3cfb7a62	0.030698005
110	0x3cf0b6df	0.029384075
111	0x3d88689b	0.06660577
112	0xbd97956d	-0.074015476
113	0xbc9ab070	-0.01888296
114	0x3cce3b74	0.025174834
115	0x3c057995	0.008146663
116	0xbd93e3d0	-0.07221186
117	0xbdb9fb88	-0.09081179
118	0x3d8fdca1	0.070245035
119	0x3dbab84c	0.09117183
120	0x3ddf9fb7	0.10919135
121	0x3ce01d10	0.027357608
122	0x3d714e39	0.05891249
123	0x3d894981	0.06703473
124	0x3e29ca38	0.16581047
125	0xbde9873b	-0.11402746
126	0x3d3224f0	0.043492258
127	0x3d03c3ce	0.032169156
128	0x3e7babcd	0.24577256
129	0xbca0b266	-0.019616317
130	0xbd2ed18d	-0.042680312
131	0xbd59fcb0	-0.053219497
132	0xbd923603	-0.07139208
133	0xbd39ec15	-0.04539116
134	0x3d511887	0.05104878
135	0x3d210d09	0.039319072
136	0xbddebdd5	-0.10876051
137	0x3d243750	0.040091813
138	0x3d1955bb	0.037435275
139	0x3df1c646	0.11805396
140	0x3da70baf	0.08156525
141	0x3c3a35ee	0.011365397
142	0x3cf32a6c	0.029683314
143	0xbd1233f1	-0.035694066
144	0x3deb4620	0.11487985
145	0xbd7f6ed9	-0.062361572
146	0x3e2195ab	0.1577975
147	0x3da30186	0.07959275
148	0xbd8f8276	-0.07007305
149	0x3d7a708e	0.061142497
150	0xbcb3f2e7	-0.02196641
151	0xbe19aac7	-0.15006553
152	0xbdd66959	-0.10469312
153	0xbbbc2e8c	-0.0057428535
154	0x3dab20bd	0.08355854
155	0x3d00a828	0.031410366
156	0x3d74fc41	0.05981088
157	0xbc9680e8	-0.018372014
158	0xbd50aa59	-0.050943706
159	0x3dc10a70	0.09425819
160	0x3d95355d	0.07285569
161	0xbcd34d3a	-0.02579366
162	0xbabb47ee	-0.0014288404
163	0x3de78491	0.11304582
164	0x3d87bd61	0.06627918
165	0x3c2acb1a	0.0104244
166	0x3d7e2ddd	0.062055457
167	0xbc8bb89e	-0.017055806
168	0xbd2e96f3	-0.042624425
169	0xbd7bb754	-0.061454132
170	0xbd04c2fa	-0.032412507
171	0x3c5d30c3	0.013500395
172	0xbd3eed7d	-0.046613205
173	0x3d76564d	0.060140897
174	0xbc1ebe19	-0.0096888775
175	0xbdb38cc9	-0.08767087
176	0xbcb77595	-0.022394935
177	0x3cec39c2	0.028836135
178	0xbc177334	-0.009243775
179	0xbd2e062d	-0.04248636
180	0x3d8946fb	0.067029916
181	0x3e5b6321	0.21424533
182	0xbe18e66b	-0.14931647
183	0x3d443e2b	0.04791085
184	0xbcb5c48e	-0.022188451
185	0xbd6fc3e9	-0.058536444
186	0x3df2be78	0.11852735
187	0x3c59bfc4	0.013290349
188	0x3cc90857	0.02454011
189	0xbce42628	-0.027850226
190	0x3b9994ea	0.0046869414
191	0xbd79d00c	-0.060989425
192	0x3daa88de	0.083268866
193	0x3d5750bd	0.052567232
194	0x3da412a7	0.0801137
195	0x3d0fbb4d	0.035090733
196	0x3e14df38	0.14538276
197	0x3de78291	0.113042004
198	0x3d2c6385	0.042087097
199	0x3cd7e250	0.026353031
200	0xbca794f4	-0.020456769
201	0xbe1ff3f6	-0.15620407
202	0xbe029415	-0.12751801
203	0xbdc083c4	-0.09400132
204	0xbc1d122b	-0.009586851
205	0xbdbb4d81	-0.09145642
206	0x3e119ec3	0.14220719
207	0x3db71bb6	0.08940832
208	0x3e0d0d59	0.13774623
209	0xbcad39dd	-0.021145755
210	0xbe51a4d9	-0.2047304
211	0x3d227dcb	0.039670747
212	0x3dbf328d	0.09335814
213	0x3d1f1ed1	0.03884775
214	0x3db96df8	0.09054178
215	0xbe3d2e4d	-0.18474694
216	0xbd718339	-0.058963034
217	0xbe3de7ae	-0.1854541
218	0x3de9107d	0.11380098
219	0x3b7b243b	0.0038321156
220	0x3c2844a1	0.010270269
221	0x3d00da0f	0.031457957
222	0x3b8be3c7	0.0042690965
223	0x3c4d6676	0.012536636
224	0xbdd90cd4	-0.1059815
225	0x3e014273	0.12623005
226	0xbd51a5c9	-0.051183496
227	0x3d802d41	0.062586315
228	0x3e011df0	0.12609076
229	0x3b36b36e	0.0027877945
230	0x3b0651d3	0.0020495548
231	0xbd421c12	-0.04739005
232	0xbd30e850	-0.0431903
233	0xbd65d9dc	-0.05611597
234	0xbdd997b9	-0.10624642
235	0x3db94051	0.090454705
236	0xbe3c7f8f	-0.18408035
237	0x3c172d1b	0.009227063
238	0xbce3f9b6	-0.027829032
239	0xbe21653a	-0.15761271
240	0x3d004a3a	0.031320788
241	0xbe37da15	-0.17954285
242	0xbb029cea	-0.0019929954
243	0x3e12b559	0.14326991
244	0x3cb4adf9	0.022055613
245	0xbd35d980	-0.044396877
246	0xbe116565	-0.14198835
247	0x3d5eaf59	0.054366443
248	0xbdfb07c2	-0.12257339
249	0x3ddcb6e7	0.10777073
250	0x3ded5903	0.11589243
251	0xbc8646ce	-0.016391184
252	0x3d33d6fa	0.04390619
253	0xbd09816e	-0.0335707
254	0x3ced45c0	0.028963923
255	0x3c2cb60f	0.010541453

convolutions.0.bias f4 [200]
0	0x3d53cbe0	0.051708102
1	0xbd294faf	-0.041335758
2	0xbcad6fd7	-0.021171493
3	0xbd1ca977	-0.03824755
4	0xba3a2062	-0.00071001623
5	0xbd7ad95f	-0.061242457
6	0x3ca478de	0.020077165
7	0x3ba8bbd2	0.005149343
8	0xbd921d55	-0.07134501
9	0xbd06fc1e	-0.03295528
10	0x3d433ea9	0.04766718
11	0x3d55853f	0.052129027
12	0x3cf33348	0.029687539
13	0x3d024cc1	0.03181148
14	0xbc5d75e9	-0.0135168815
15	0xbd3745a2	-0.04474414
16	0xbd3cf036	-0.04612752
17	0x3d1452c3	0.03621174
18	0xbcdd70f6	-0.027031403
19	0xbda1f3a8	-0.07907802
20	0x3cdbf6a0	0.026850998
21	0x3c9c1d9e	0.019057091
22	0x3d18a513	0.037266802
23	0x3d075142	0.033036478
24	0x3d2be9f2	0.041971155
25	0xbca5fc3e	-0.02026188
26	0xba9d272e	-0.0011989826
27	0x3d93aa02	0.07210161
28	0xbb35f42a	-0.0027763941
29	0x3ae5bbe8	0.0017527314
30	0xbd053fce	-0.032531552
31	0xbd4ad604	-0.049520507
32	0x3d0dece3	0.03464974
33	0x381c18ec	3.721651e-05
34	0x3d8ad053	0.06778016
35	0xbbc324e7	-0.005955327
36	0xbd9b221a	-0.07574864
37	0x3c1e91eb	0.009678344
38	0xba1c8205	-0.0005970302
39	0x3ca46a45	0.020070205
40	0x3c985086	0.018593084
41	0x3d5a9909	0.053368602
42	0x3dc87032	0.097870246
43	0xbc01b802	-0.007917406
44	0xbb888e92	-0.0041673863
45	0x3a59423b	0.0008287762
46	0x3d0b1541	0.033955816
47	0xbd390e4b	-0.045179646
48	0xbcd3017f	-0.02575755
49	0xbc97fc52	-0.018552933
50	0xbd483c5a	-0.04888568
51	0xbb280ccf	-0.00256424
52	0x3c5cfe81	0.013488413
53	0x3d91b594	0.071147114
54	0x3c15aa00	0.009134769
55	0xbc7d0474	-0.015442956
56	0x3c38f054	0.011287767
57	0xbd58458d	-0.052800704
58	0x3d8644ec	0.065561146
59	0xbbd13dc3	-0.0063855364
60	0x3cc88fe6	0.024482679
61	0x3dda27c1	0.10652114
62	0xbd8286ec	-0.063733906
63	0xbd5e0e37	-0.054212775
64	0xbc878aff	-0.01654577
65	0x3da9e467	0.082955174
66	0xbd1f0a10	-0.038827956
67	0xbc9e9342	-0.019357327
68	0xbb057af1	-0.0020367468
69	0x3acd6ad0	0.0015672091
70	0xba22a0c1	-0.0006203764
71	0x3c8d77ed	0.0172691
72	0xbc6b4e7b	-0.014361973
73	0xba079e6e	-0.0005173449
74	0xbd06ce8f	-0.032911833
75	0x3d0a9f62	0.033843406
76	0x3d94d309	0.07266814
77	0x3c4da30d	0.012551081
78	0xbc6bfe31	-0.014403866
79	0x3c91e07a	0.017807234
80	0x3d9027bb	0.07038828
81	0xbc15f9a3	-0.009153756
82	0xbd1f56d5	-0.03890117
83	0xbd44bfea	-0.048034586
84	0xbbc2b531	-0.00594201
85	0xbcd85cb6	-0.026411396
86	0x3d258c87	0.04041722
87	0xbd9f4399	-0.07776565
88	0x3d30e570	0.04318756
89	0xbd0506d2	-0.032477207
90	0xba0ea034	-0.0005440742
91	0x3d3a3fe9	0.045471106
92	0xbcd6b703	-0.026210314
93	0x3d76c6af	0.060248073
94	0x3d14f3c2	0.036365278
95	0xbcc91774	-0.024547316
96	0xbc835f87	-0.016036762
97	0x395cf4ae	0.00021071985
98	0x3d73dda3	0.05953754
99	0xbd31825c	-0.04333721
100	0xbd15467f	-0.036444183
101	0x3ce0c13c	0.027435891
102	0x3d278658	0.040899605
103	0xbc939ffc	-0.018020622
104	0x3d2f0ba1	0.0427357
105	0xbc5f6915	-0.013635893
106	0x3c2f3830	0.0106945485
107	0x3d5532c2	0.05205036
108	0xbcb1ac9d	-0.021688754
109	0x3c14df82	0.009086492
110	0xbbc612a5	-0.006044703
111	0x3c4ac52b	0.01237611
112	0x3cfd7f44	0.030944474
113	0x3c5d2e36	0.013499787
114	0xbd4703a3	-0.048587453
115	0xbd372836	-0.044716083
116	0xbc26d387	-0.010182268
117	0xbce894dc	-0.028391294
118	0x3be47311	0.006971725
119	0x3d1f99a3	0.03896488
120	0x3c0f2e60	0.008739084
121	0x3db35278	0.08755964
122	0xbc7ba3dc	-0.015358891
123	0x3c1085cf	0.008820965
124	0x3982c118	0.00024939398
125	0x3af8db7a	0.0018986308
126	0xbc5be359	-0.013420903
127	0xbd0421b0	-0.03225869
128	0xbd8966e3	-0.06709077
129	0x3ade8933	0.0016978144
130	0x3cca7101	0.024712088
131	0x3d15e675	0.036596734
132	0xb820e776	-3.8362537e-05
133	0x3cc4f8c8	0.02404441
134	0x3ca73e54	0.020415463
135	0xbc8c5f9f	-0.01713544
136	0xbb8bceb9	-0.0042665866
137	0x3d7c5f3f	0.06161427
138	0x3ca5d94a	0.020245213
139	0xbcc043aa	-0.023469765
140	0x3aca7078	0.0015444895
141	0x3d606cd4	0.054791287
142	0x3bf0af6a	0.0073451297
143	0x3c1a206a	0.009407142
144	0xbcfe76bb	-0.031062474
145	0x3d640c77	0.05567595
146	0x3dbc809a	0.09204216
147	0xba4b0cdc	-0.00077457516
148	0x3d9594ad	0.07303748
149	0x3c171397	0.009220979
150	0xba8c4fae	-0.0010704899
151	0xbd4be8a1	-0.0497824
152	0x3d90080f	0.07032787
153	0xbd767042	-0.06016565
154	0x3d86c1fa	0.06579967
155	0x3d0f0f3d	0.03492664
156	0x3c5c3b3a	0.013441855
157	0x3caf1272	0.0213711
158	0xbd1de26e	-0.03854602
159	0xba9b2442	-0.0011836367
160	0xbb07132e	-0.0020610797
161	0xbdbdd89e	-0.09269832
162	0x3d21d949	0.03951386
163	0xbcd9c820	-0.026584685
164	0x3d70a93d	0.05875515
165	0xbd01d4dc	-0.03169714
166	0x3cfd72f6	0.030938607
167	0x3bef794b	0.0073081604
168	0x3cb42713	0.021991288
169	0xb9c8ccb1	-0.0003829948
170	0xbd8191df	-0.06326651
171	0x3d15ea2a	0.03660027
172	0x3d4e1550	0.050313294
173	0xbc9536ea	-0.018214662
174	0xbb146ecc	-0.0022649048
175	0xbd3fc6d6	-0.046820484
176	0xba8500ad	-0.0010147296
177	0xbb01d95a	-0.001981339
178	0x3b8c5105	0.004282119
179	0x3b763579	0.0037568493
180	0xbc6c4b22	-0.01442221
181	0x3d7e70d1	0.06211931
182	0x3d180ea0	0.037123322
183	0x3b5352f9	0.00322455
184	0xbc33d532	-0.010976123
185	0xbcbd3ec1	-0.023101212
186	0x3c7a4472	0.015275108
187	0xbb6844e7	-0.003544146
188	0x3db6b6cd	0.08921585
189	0x3c87fde8	0.016600564
190	0xba1b9e85	-0.0005936402
191	0xbda1ab56	-0.07894008
192	0xbcf4d577	-0.029886944
193	0x3c8e9326	0.01740415
194	0x3cb40ccd	0.02197876
195	0xbc9e1345	-0.019296298
196	0x3c0bde2c	0.008536857
197	0xbd2e8a74	-0.042612508
198	0xb76cce2c	-1.4114699e-05
199	0xba9e76eb	-0.0012089884

linear_layers.0.weight f4 [100, 200]
0	0x3cb5713a	0.022148717
1	0x3d1e6a91	0.03867585
2	0xbd29538a	-0.041339435
3	0x3b9a6a8f	0.00471241
4	0xbd2738c6	-0.040825628
5	0xba820ffc	-0.0009922977
6	0x3c9ce3cf	0.019151596
7	0xbd05436f	-0.032535013
8	0x3c21f249	0.009884425
9	0xbd70db30	-0.058802783
10	0xbd4d20ef	-0.050080236
11	0xba4652bf	-0.0007565431
12	0x3cbf97b9	0.023387777
13	0xbd5a3019	-0.053268526
14	0xbccf35be	-0.025294181
15	0xbc9bc980	-0.019016981
16	0x3d3e7eda	0.046507694
17	0xbd873359	-0.06601591
18	0x3cb9f576	0.022700053
19	0xbcdc2c6b	-0.026876649
20	0xbda270f1	-0.07931698
21	0x3ceaae91	0.028647693
22	0x3c400e19	0.011722111
23	0xbd1acefd	-0.037795056
24	0x3d483069	0.048874293
25	0xbccbcccb	-0.024877926
26	0xbd34e49c	-0.04416333
27	0xbbe0cda0	-0.00686045
28	0xbcbea5f6	-0.023272496
29	0xbd8c79d6	-0.06859176
30	0x3ceaac0c	0.028646491
31	0x3cb88c1f	0.022527752
32	0xbc8ff34d	-0.01757207
33	0x3c6ea999	0.014566802
34	0x3c3bc274	0.011459935
35	0x3d106e22	0.03526128
36	0xbd1f02f0	-0.03882116
37	0x3d67484c	0.056465432
38	0x3cc9761c	0.024592452
39	0xbca6d4ee	-0.020365205
40	0xbc1da181	-0.009621025
41	0x3d05b070	0.032638967
42	0x3d532301	0.051547054
43	0x3cd3032a	0.025758345
44	0xbd7ae357	-0.061251964
45	0x3d234a7a	0.03986595
46	0x3d2fb695	0.042898733
47	0x3d25a224	0.040437832
48	0xbceacc47	-0.02866186
49	0xbd722f88	-0.05912736
50	0xbd821b40	-0.06352854
51	0xbc9c36ea	-0.019069154
52	0xbd6b43cb	-0.0574377
53	0x3d2a3e84	0.041563526
54	0xbd899f53	-0.06719842
55	0xbd8ed369	-0.06973917
56	0xbcaa0f43	-0.02075923
57	0xbd6811e9	-0.056657705
58	0xbd895a25	-0.06706647
59	0x3d477280	0.04869318
60	0xbd90514d	-0.07046757
61	0xbd987ef6	-0.07446091
62	0xbccafbc5	-0.024778256
63	0x3d3a1057	0.04542574
64	0xbd09d494	-0.033649996
65	0xbc33dfaa	-0.010978619
66	0xbd9dfe6b	-0.07714542
67	0xbd105f1e	-0.03524696
68	0xbc025b7f	-0.007956385
69	0xbcb43aa7	-0.022000624
70	0x3cadacdc	0.02120059
71	0xbbda877a	-0.006668982
72	0xbd86f8f4	-0.06590453
73	0x3c3f6441	0.011681617
74	0xbd978ad1	-0.07399524
75	0x3d1d94d5	0.038472015
76	0x3cb1bae3	0.02169556
77	0xbc05dff5	-0.008171071
78	0xbc0db2ac	-0.008648556
79	0xbd55a1ee	-0.05215638
80	0x3d6522d9	0.055941436
81	0x3cdf47e0	0.027255952
82	0xbd649eee	-0.05581563
83	0xbab449df	-0.0013754925
84	0xbd83f611	-0.06443418
85	0x3d1ed4ac	0.03877704
86	0x3d729acd	0.05922966
87	0x3d605fc6	0.054778837
88	0xbb9a0892	-0.0047007287
89	0x3d1daddb	0.03849588
90	0x3d3ce5fb	0.046117764
91	0x3d2be81e	0.04196941
92	0x3c9fe81e	0.019519862
93	0x3d1a8471	0.037723962
94	0x3d4ca121	0.049958352
95	0x3bd7131d	0.006563558
96	0x3ccc1ad7	0.024915142
97	0xbd85cf7d	-0.06533716
98	0x3d0bef39	0.034163687
99	0xbd90cde4	-0.070705205
100	0xbd88fbeb	-0.066886745
101	0x3d003678	0.031301945
102	0xbc7960f3	-0.015220868
103	0x3c831786	0.016002428
104	0xbd48782c	-0.04894273
105	0x3d030b61	0.031993274
106	0xbce33294	-0.027734078
107	0x3be5ceaf	0.007013164
108	0x3cdfecb5	0.02733455
109	0xbd9ffb55	-0.0781161
110	0x3d46cab3	0.048533153
111	0xbd830386	-0.063971564
112	0xbcba491d	-0.022739941
113	0x3d0d8795	0.03455313
114	0xbd84ed8f	-0.06490623
115	0xba6c38fd	-0.00090111775
116	0xbd8d8dd6	-0.06911819
117	0x3c46acd3	0.012126165
118	0xbd8d2ea2	-0.0689366
119	0xbbd15f2d	-0.0063895197
120	0xbb4db8b5	-0.0031390612
121	0xbc709f5a	-0.01468643
122	0x3ca98634	0.020693876
123	0xbd4feb61	-0.050761584
124	0xbd8cd135	-0.068758406
125	0xbcbeb3d9	-0.023279117
126	0xbcfb4ee8	-0.030677274
127	0x3c9aa48e	0.018877294
128	0xbd9427eb	-0.07234176
129	0x3d5518ab	0.05202548
130	0x3c7a70c9	0.015285679
131	0xbb9318b0	-0.004489027
132	0xbcd45995	-0.025921622
133	0x3c0c06a5	0.008546506
134	0xbd7862e6	-0.060641192
135	0xbd93252d	-0.07184825
136	0x3cd26fae	0.025688019
137	0xbcbb88f2	-0.022892449
138	0x3cdfc4f1	0.027315589
139	0x3cb02b82	0.021505121
140	0x3d1628e0	0.036660075
141	0xbd4eabe4	-0.050456896
142	0x3d15285d	0.036415447
143	0xbd9cddc6	-0.076594874
144	0x3d1ae6bb	0.037817698
145	0x3d13b945	0.03606536
146	0xbd92d11b	-0.0716879
147	0xbbda7cf3	-0.006667727
148	0xbbdaaf74	-0.0066737477
149	0x3cc421ce	0.0239419
150	0x3d2e6467	0.04257622
151	0x3d3694f1	0.044575635
152	0x3d5bf2b8	0.05369827
153	0x3c921433	0.017831897
154	0x3d1f4388	0.038882762
155	0x3c1f7ef0	0.009734854
156	0x3bab5666	0.0052288054
157	0xbda29b88	-0.079398215
158	0xbd93c6f4	-0.07215682
159	0x3d394534	0.045232013
160	0x3d76004b	0.060058873
161	0x3d4ac3dc	0.049503192
162	0x3b7d7442	0.0038674031
163	0xbb0d06f1	-0.002151903
164	0xbb249cab	-0.0025117795
165	0x3d54c7b9	0.051948283
166	0x3d21e3c0	0.03952384
167	0x3d156eff	0.036482807
168	0xbcf9e819	-0.03050618
169	0xbd7440b2	-0.05963201
170	0x3b6e8e48	0.0036400724
171	0xbcd29293	-0.025704658
172	0xbcce62d5	-0.025193611
173	0xbd9904af	-0.074715964
174	0x3cb4d10e	0.022072341
175	0xbc98f7bb	-0.018672815
176	0xbd2f5ed3	-0.04281504
177	0xbd89f923	-0.06736972
178	0x3d5c787f	0.05382585
179	0xbd221a9a	-0.03957615
180	0x3adb5020	0.0016732253
181	0x3d2f1725	0.04274668
182	0x3c1d9fde	0.009620635
183	0x3d198fdb	0.037490707
184	0xbd402bed	-0.04691689
185	0x3c74da87	0.014944679
186	0xbd644997	-0.055734243
187	0xbd9d6621	-0.07685495
188	0xbd98fc90	-0.074700475
189	0xbc89cb07	-0.016820444
190	0x3d17145f	0.03688466
191	0xbc857978	-0.016293272
192	0x3d26ee5d	0.040754665
193	0xbc4d86e1	-0.012544365
194	0x3c82482d	0.015903557
195	0xbcc2d50a	-0.023783226
196	0xbd450c75	-0.048107583
197	0xbc54caf5	-0.012987842
198	0xbcc73a1c	-0.0243197
199	0xbd18d762	-0.03731478
200	0xbd66776e	-0.05626624
201	0x3bfc1150	0.0076924935
202	0x3d78c0be	0.06073069
203	0xbd902b27	-0.07039481
204	0xbd5e731b	-0.054308992
205	0xbbec604c	-0.007213628
206	0x3bc36f57	0.0059642005
207	0xbd02f342	-0.03197027
208	0xbd06f311	-0.03294665
209	0xbcd98969	-0.02655478
210	0x3d66c179	0.056336854
211	0x3d7215d3	0.059102844
212	0xbd6c5d48	-0.057706147
213	0xbd9af7cd	-0.075667955
214	0xbd1fc855	-0.03900941
215	0xbd899064	-0.067169935
216	0xbd9b043b	-0.07569166
217	0xbd9ff051	-0.078095086
218	0xbc8b7c99	-0.017027186
219	0x3d5cc4d6	0.053898655
220	0xbb85409d	-0.0040665404
221	0xbd24bfa5	-0.04022183
222	0x3d6a676e	0.057227544
223	0x3bb904c0	0.005646318
224	0xbd57f739	-0.052726004
225	0x3cb16182	0.02165294
226	0xbd8b712e	-0.06808697
227	0x3d121283	0.035662185
228	0xbd814623	-0.06312206
229	0xbc53cd2e	-0.012927337
230	0x3c8ee2d8	0.017442152
231	0xbd9d9a18	-0.07695407
232	0xbc71f845	-0.014768665
233	0xbd1b51c6	-0.037919782
234	0xbd63f9b2	-0.05565805
235	0x3c755360	0.014973491
236	0xbcc83d8c	-0.02444341
237	0x38b73b30	8.7371445e-05
238	0x3d0569a2	0.032571442
239	0x3d1840dc	0.03717123
240	0xbc5ca7eb	-0.013467769
241	0xbd8e8b9e	-0.069602236
242	0x3c8f842b	0.017519077
243	0xbd81097e	-0.063006386
244	0xbc14b4e4	-0.009076331
245	0x3ca2516f	0.019814221
246	0x3d2ed16a	0.04268018
247	0xbc76e272	-0.015068637
248	0xbd9a12f3	-0.075231455
249	0xbd1dca90	-0.038523257
250	0xbd8a6357	-0.06757229
251	0xbd1571b4	-0.03648539
252	0xbd812bbe	-0.06307171
253	0x3d27959a	0.040914156
254	0x3c3eeb01	0.011652709
255	0xbca70fac	-0.020393215

linear_layers.0.bias f4 [100]
0	0xbca17a7b	-0.019711724
1	0xbd3a4729	-0.04547802
2	0xbb9eddfd	-0.0048482404
3	0xbd4d6e23	-0.050153863
4	0xbc17709e	-0.009243159
5	0x3d406372	0.04696984
6	0xbc4ee324	-0.012627397
7	0x3d388eb2	0.04505796
8	0xbd030c1e	-0.031993978
9	0xbd6d7bdf	-0.05797946
10	0xbc15f8d1	-0.009153561
11	0xbd00ff7f	-0.03149366
12	0x3c09c734	0.00840931
13	0xbd859b75	-0.06523792
14	0x3dd565f4	0.10419837
15	0xbd7e908c	-0.06214957
16	0x3d4b0098	0.049561113
17	0xbd97df87	-0.07415681
18	0xbc0db5a7	-0.008649266
19	0x3c9863e3	0.018602317
20	0x3d5a7a56	0.053339325
21	0xbd52ee7a	-0.05149696
22	0x3cbde865	0.023182103
23	0xbd738132	-0.059449382
24	0x3d2a090f	0.041512545
25	0x3dc6f42d	0.097145416
26	0x3cec6bd4	0.02886001
27	0x3cbfe518	0.02342467
28	0xbd44b6e4	-0.04802598
29	0xbd8ef310	-0.06979954
30	0x3d66fcb0	0.056393325
31	0x3c862798	0.016376302
32	0x3c14c57f	0.00908029
33	0x3d42ba09	0.0475407
34	0x3d2bb242	0.041918047
35	0x3d9ba026	0.07598905
36	0xbb08b523	-0.002085992
37	0xbcd58f4f	-0.026069311
38	0x3c459cad	0.01206128
39	0x3bfb9614	0.007677803
40	0xbbcd51a5	-0.0062658363
41	0x3d93b007	0.07211309
42	0xbd8fefe0	-0.070281744
43	0x3d944630	0.0723995
44	0x3cfb5f7f	0.030685185
45	0x3d6b99b2	0.057519622
46	0x3b941510	0.0045191124
47	0xbd929819	-0.071579166
48	0x3d6c48d1	0.05768663
49	0xbd6a23f3	-0.05716319
50	0x3da03a59	0.07823629
51	0xbcfa95fc	-0.030589096
52	0x3d578b96	0.052623354
53	0xbb9deb27	-0.004819292
54	0x3cdd4709	0.027011411
55	0xbbaaaa59	-0.0052082953
56	0xbca5a0d5	-0.020218292
57	0x3cb5f907	0.022213472
58	0xbc8973e9	-0.016778903
59	0x3d2e12be	0.042498343
60	0x3d1fce58	0.039015144
61	0xbd189f8b	-0.037261527
62	0x3d0e4592	0.034734316
63	0x3dbf6c09	0.09346778
64	0xbce6a00f	-0.028152494
65	0xbc0df484	-0.008664254
66	0x3cc49b4e	0.023999836
67	0xbd0e7f27	-0.03478923
68	0xbb9d6d7c	-0.0048043113
69	0xbcdf82d7	-0.027284069
70	0x3d4ac046	0.049499772
71	0x3d8b1437	0.06790965
72	0x3cb49aab	0.022046408
73	0x3d009016	0.03138741
74	0xbd29e22c	-0.04147546
75	0x3dbc6f5e	0.09200929
76	0xbc61acc2	-0.013774099
77	0x3cd43240	0.025902867
78	0x3cd27a45	0.025693068
79	0x3d01dc30	0.031704128
80	0x3c5e4155	0.013565381
81	0x3bc039b8	0.0058662556
82	0xbd281378	-0.04103419
83	0xbcf2f39b	-0.029657176
84	0xbbf7b82b	-0.0075597963
85	0xbd688f9b	-0.056777578
86	0x3cf5de2d	0.030013168
87	0x3d4325b3	0.047643375
88	0x3d5711d9	0.052507255
89	0xbd533bb4	-0.05157061
90	0xbd554e5c	-0.052076682
91	0x3d68a830	0.05680102
92	0x3d2de06b	0.04245035
93	0xbc860b92	-0.016362939
94	0xbd4a3a55	-0.049372036
95	0x3d77ca7d	0.060495842
96	0xbd1ba50b	-0.037999194
97	0xbd684359	-0.056704853
98	0x3daced3e	0.08443688
99	0x3cc8b49e	0.024500187

linear_last.weight f4 [5, 100]
0	0x3d8ccb66	0.06874733
1	0x3db71c3e	0.08940934
2	0x3d2ff209	0.042955432
3	0xbd50f168	-0.051011473
4	0x3d99b577	0.07505315
5	0x3de23b37	0.110464506
6	0x3da595e6	0.080852315
7	0x3c1ee09e	0.009697108
8	0x3d2735af	0.04082268
9	0x3d322f28	0.043502003
10	0x3d481b87	0.048854377
11	0x3e43b105	0.19110496
12	0xbda58124	-0.08081272
13	0x3d3853da	0.045001842
14	0xbe7be340	-0.24598408
15	0xbcb979db	-0.022641113
16	0x3e553c8a	0.20823875
17	0xbd4f06f9	-0.05054376
18	0x3d000596	0.031255327
19	0x3d8cdee9	0.06878454
20	0xbd1cad05	-0.03825094
21	0x3db99cb9	0.090630956
22	0xbe1b1fe5	-0.15148886
23	0x3e3735b2	0.17891577
24	0xbecd1264	-0.40053093
25	0xbd1535ad	-0.036428142
26	0x3c6b6240	0.014366686
27	0x3dbc4f98	0.09194869
28	0xbdb39b30	-0.08769834
29	0xbd4c93b5	-0.049945552
30	0x3dd14762	0.10218693
31	0x3d74d43e	0.059772722
32	0x3db5a29e	0.088689074
33	0x3e17e8d4	0.1483491
34	0x3d8ddbac	0.06926665
35	0xbe33ac48	-0.17546189
36	0xbe04ec8e	-0.12980863
37	0xbbd3c5d3	-0.0064627915
38	0x3dba27f0	0.09089649
39	0xbe81e1ac	-0.25367486
40	0xbe3f02ba	-0.18653384
41	0xbe9144a3	-0.28372678
42	0xbd91824e	-0.07104932
43	0x3e2e2448	0.17006028
44	0xbd1196ad	-0.035544086
45	0x3e739a3b	0.23789303
46	0xbd9971d0	-0.07492411
47	0xbd16a050	-0.03677398
48	0xbd98d866	-0.0746315
49	0xbd4e8522	-0.050419934
50	0xbe320a86	-0.17386827
51	0x3ebc9b4c	0.36837232
52	0xbc9f6a28	-0.019459799
53	0x3d975bc9	0.073905535
54	0xbe49a9f3	-0.19693737
55	0x3dc86f10	0.097868085
56	0xbd71fa08	-0.05907634
57	0x3b99df5f	0.0046958174
58	0x3d6f67af	0.05844849
59	0xbd0d4dfa	-0.034498192
60	0x3d5d9e1d	0.054105867
61	0xbd09becc	-0.033629224
62	0x3d1543e8	0.036441714
63	0xbe756b80	-0.23966789
64	0xbe4d27e8	-0.20034754
65	0x3db8eecd	0.09029923
66	0xbea2345c	-0.31680572
67	0x3daee445	0.08539633
68	0x3c4e933d	0.0126083465
69	0xbc9931ae	-0.018700447
70	0x3d3411a0	0.04396212
71	0xbe578228	-0.21045744
72	0x3df1c8ae	0.11805855
73	0xbdc2950d	-0.095010854
74	0xbdb433e2	-0.08798958
75	0x3d3b5425	0.045734543
76	0x3bb04bdf	0.0053801383
77	0xbdc16c8e	-0.09444533
78	0x3c9408f4	0.018070675
79	0xbe64e061	-0.22351219
80	0xbdb19442	-0.08670856
81	0xbd8e3781	-0.0694418
82	0xbd194318	-0.0374175
83	0xbd3d1c7f	-0.046169754
84	0xbe9ebe76	-0.31004685
85	0xbd198bd1	-0.037486855
86	0x3d297555	0.041371662
87	0x3a7bfb61	0.00096123485
88	0xbcf40b5d	-0.029790575
89	0x3d841d3a	0.06450887
90	0xbcf630cc	-0.030052565
91	0x3e6032d2	0.21894386
92	0xbe89f9ee	-0.26948494
93	0x3e12bc45	0.14329632
94	0x3dff9348	0.124792635
95	0xbd7b2c54	-0.06132157
96	0x3d465e7f	0.048429962
97	0x3e5d1bd6	0.2159265
98	0xbc8a291f	-0.016865311
99	0x3c3dd112	0.011585491
100	0x3d24f607	0.040273692
101	0x3cecc32b	0.028901657
102	0xbc42b0bd	-0.011882958
103	0xbbcdb4ed	-0.0062776715
104	0x3cb49098	0.022041604
105	0x3d367818	0.044548124
106	0x3e4e2030	0.20129466
107	0xbd5c9be3	-0.053859603
108	0xbe86a97c	-0.2630118
109	0xbe989c2f	-0.2980666
110	0xbe2a23c0	-0.166152
111	0xbe18ceff	-0.14922713
112	0xbebfb8a9	-0.37445572
113	0x3db03779	0.086043306
114	0xbb9e1129	-0.004823823
115	0xbe6454fb	-0.22298042
116	0xbd1ae460	-0.03781545
117	0x3db2c16e	0.087283
118	0x3da8d8d7	0.08244484
119	0x3d379d75	0.044827897
120	0xbd0053cd	-0.03132992
121	0xbd98e414	-0.074653774
122	0x3e15e226	0.1463705
123	0xbe3b9acf	-0.18320774
124	0xbdcba464	-0.099434644
125	0x3e11f6e5	0.14254339
126	0x3b4ac900	0.003094256
127	0xbd889ef1	-0.06670941
128	0xbd21bed0	-0.039488614
129	0x3d802224	0.06256512
130	0xbe5d9866	-0.21640167
131	0x3e7d88f9	0.24759282
132	0x3d8800a4	0.06640747
133	0xbe839a8c	-0.25703847
134	0xbd731e01	-0.059354786
135	0xbe1c5408	-0.1526643
136	0xbd5d770c	-0.05406861
137	0xbdcca716	-0.099928066
138	0x3c8e8083	0.017395264
139	0xbd8f6727	-0.070020966
140	0x3cb826ca	0.022479434
141	0xbe7e212f	-0.24817346
142	0xbd5d8cbd	-0.054089297
143	0xbdaa5efc	-0.08318898
144	0x3e9ccf54	0.3062693
145	0xbda9643d	-0.08271072
146	0x3d7fa8dc	0.062416896
147	0x3daf20d1	0.08551181
148	0x3d54b20f	0.051927622
149	0x3cf7cac5	0.030248055
150	0x3c8bec53	0.017080462
151	0xbdea79ab	-0.114489876
152	0xbc189870	-0.009313688
153	0xbd0fd7a0	-0.035117745
154	0xbdf236cc	-0.11826858
155	0x3c79364f	0.015210702
156	0x3ca23fc8	0.019805804
157	0x3cc52e3d	0.0240699
158	0xbd6c8b2d	-0.057749916
159	0xbc916917	-0.017750306
160	0xbd7c508d	-0.061600257
161	0xbd2b76f5	-0.041861493
162	0x3d872bb8	0.066001356
163	0xbd8cf15f	-0.068819754
164	0xbde2b089	-0.11068828
165	0xbbfb9950	-0.0076781884
166	0xbd4533b0	-0.048144996
167	0xba80eff1	-0.0009837133
168	0x3db35540	0.087564945
169	0x3d8a6c5f	0.067589514
170	0x3d0e9ccb	0.0348175
171	0xbe465ed6	-0.19372115
172	0xbe121f2b	-0.14269702
173	0xbce68eda	-0.028144289
174	0xbd8f668e	-0.07001983
175	0x3e6257f2	0.22103861
176	0xbe0bc59d	-0.13649602
177	0x3c61cd72	0.013781892
178	0xbdb3b6c0	-0.08775091
179	0x3d139a5b	0.036035877
180	0xbd25cc85	-0.04047825
181	0x3dc1ec73	0.09468927
182	0xbc125c8e	-0.0089332
183	0x3d2a8e58	0.041639656
184	0x3d4eeefd	0.050520886
185	0x3c8af14a	0.016960759
186	0xbde636e2	-0.11240937
187	0x3d8b33e9	0.067970105
188	0xbd1db224	-0.038499966
189	0xbd54babc	-0.051935896
190	0x3d225f9e	0.03964197
191	0x3b44feb8	0.003005905
192	0x3d28528b	0.041094344
193	0xbd48676b	-0.048926752
194	0xbea01642	-0.3126698
195	0x3e1b2da5	0.15154131
196	0xbe417c3c	-0.18895048
197	0xbe44e471	-0.19227768
198	0x3d933b10	0.07189
199	0x3d90f912	0.070787564
200	0x3d229bf3	0.039699506
201	0x3d329374	0.043597654
202	0x3d7f6c87	0.06235936
203	0x3d7d58bf	0.061852213
204	0xbbe953d2	-0.007120588
205	0xbe51b1e5	-0.20478018
206	0xbec01636	-0.37516946
207	0x3d2953c9	0.04133967
208	0xbda84aa0	-0.082173586
209	0xbd848259	-0.06470174
210	0xbe38d8f8	-0.18051517
211	0x3d945c3e	0.07244156
212	0x3defb9de	0.11705373
213	0x3dbcb7d4	0.0921475
214	0xbe2e235e	-0.17005679
215	0x39b34cd6	0.00034198788
216	0xbdfbb73a	-0.12290807
217	0x3d215b47	0.03939369
218	0xbddceddd	-0.10787556
219	0xbc853e81	-0.016265156
220	0x3daf0249	0.08545358
221	0xbe64713d	-0.22308822
222	0x3d97ce78	0.07412428
223	0xbbe6dfa8	-0.007045705
224	0xbc5cc2ff	-0.013474225
225	0xbe33ad41	-0.1754656
226	0xbc907014	-0.017631568
227	0xbd71d753	-0.05904324
228	0x3da53589	0.08066852
229	0x3d935180	0.07193279
230	0xbe4a5561	-0.19759132
231	0xbeb3a96d	-0.350902
232	0x3db20865	0.086930074
233	0x3c879170	0.016548842
234	0x3dbee4a2	0.09320952
235	0x3d2c5b00	0.042078972
236	0x3dc5c611	0.09656919
237	0x3d90fdf1	0.070796855
238	0xbd5f3b7e	-0.054500096
239	0xbe65ab2a	-0.22428575
240	0xbec16787	-0.37774298
241	0x3b5d2f90	0.0033750273
242	0x3d27f746	0.041007303
243	0xbe631d73	-0.22179203
244	0xbe7db325	-0.2477537
245	0x3e11f6dc	0.14254326
246	0xbc6baafb	-0.014384027
247	0xbcd07691	-0.025447162
248	0x3d3b30f2	0.045700975
249	0xbd963b6c	-0.073355526
250	0xbe3ca14a	-0.18420902
251	0x3e01eca1	0.12687923
252	0x3c65d8f0	0.014028773
253	0xbe761ba0	-0.24033976
254	0xbdef92db	-0.11697932
255	0xbe74e6aa	-0.23916116

linear_last.bias f4 [5]
0	0x3cdce57c	0.026964895
1	0x3d78a65b	0.060705524
2	0x3d4d0821	0.05005658
3	0x3d749e40	0.05972123
4	0xbd7cfe05	-0.06176569
