trained_models/cnn_100_200_[100]_5_[3]_Notification Type_zeros_60-20-20_polisis_attr_state.pt (torch_old, 543016 bytes, 7 tensors)

embedding.weight f4 [546, 100]
0	0x00000000	0.0
1	0x00000000	0.0
2	0x00000000	0.0
3	0x00000000	0.0
4	0x00000000	0.0
5	0x00000000	0.0
6	0x00000000	0.0
7	0x00000000	0.0
8	0x00000000	0.0
9	0x00000000	0.0
10	0x00000000	0.0
11	0x00000000	0.0
12	0x00000000	0.0
13	0x00000000	0.0
14	0x00000000	0.0
15	0x00000000	0.0
16	0x00000000	0.0
17	0x00000000	0.0
18	0x00000000	0.0
19	0x00000000	0.0
20	0x00000000	0.0
21	0x00000000	0.0
22	0x00000000	0.0
23	0x00000000	0.0
24	0x00000000	0.0
25	0x00000000	0.0
26	0x00000000	0.0
27	0x00000000	0.0
28	0x00000000	0.0
29	0x00000000	0.0
30	0x00000000	0.0
31	0x00000000	0.0
32	0x00000000	0.0
33	0x00000000	0.0
34	0x00000000	0.0
35	0x00000000	0.0
36	0x00000000	0.0
37	0x00000000	0.0
38	0x00000000	0.0
39	0x00000000	0.0
40	0x00000000	0.0
41	0x00000000	0.0
42	0x00000000	0.0
43	0x00000000	0.0
44	0x00000000	0.0
45	0x00000000	0.0
46	0x00000000	0.0
47	0x00000000	0.0
48	0x00000000	0.0
49	0x00000000	0.0
50	0x00000000	0.0
51	0x00000000	0.0
52	0x00000000	0.0
53	0x00000000	0.0
54	0x00000000	0.0
55	0x00000000	0.0
56	0x00000000	0.0
57	0x00000000	0.0
58	0x00000000	0.0
59	0x00000000	0.0
60	0x00000000	0.0
61	0x00000000	0.0
62	0x00000000	0.0
63	0x00000000	0.0
64	0x00000000	0.0
65	0x00000000	0.0
66	0x00000000	0.0
67	0x00000000	0.0
68	0x00000000	0.0
69	0x00000000	0.0
70	0x00000000	0.0
71	0x00000000	0.0
72	0x00000000	0.0
73	0x00000000	0.0
74	0x00000000	0.0
75	0x00000000	0.0
76	0x00000000	0.0
77	0x00000000	0.0
78	0x00000000	0.0
79	0x00000000	0.0
80	0x00000000	0.0
81	0x00000000	0.0
82	0x00000000	0.0
83	0x00000000	0.0
84	0x00000000	0.0
85	0x00000000	0.0
86	0x00000000	0.0
87	0x00000000	0.0
88	0x00000000	0.0
89	0x00000000	0.0
90	0x00000000	0.0
91	0x00000000	0.0
92	0x00000000	0.0
93	0x00000000	0.0
94	0x00000000	0.0
95	0x00000000	0.0
96	0x00000000	0.0
97	0x00000000	0.0
98	0x00000000	0.0
99	0x00000000	0.0
100	0x00000000	0.0
101	0x00000000	0.0
102	0x00000000	0.0
103	0x00000000	0.0
104	0x00000000	0.0
105	0x00000000	0.0
106	0x00000000	0.0
107	0x00000000	0.0
108	0x00000000	0.0
109	0x00000000	0.0
110	0x00000000	0.0
111	0x00000000	0.0
112	0x00000000	0.0
113	0x00000000	0.0
114	0x00000000	0.0
115	0x00000000	0.0
116	0x00000000	0.0
117	0x00000000	0.0
118	0x00000000	0.0
119	0x00000000	0.0
120	0x00000000	0.0
121	0x00000000	0.0
122	0x00000000	0.0
123	0x00000000	0.0
124	0x00000000	0.0
125	0x00000000	0.0
126	0x00000000	0.0
127	0x00000000	0.0
128	0x00000000	0.0
129	0x00000000	0.0
130	0x00000000	0.0
131	0x00000000	0.0
132	0x00000000	0.0
133	0x00000000	0.0
134	0x00000000	0.0
135	0x00000000	0.0
136	0x00000000	0.0
137	0x00000000	0.0
138	0x00000000	0.0
139	0x00000000	0.0
140	0x00000000	0.0
141	0x00000000	0.0
142	0x00000000	0.0
143	0x00000000	0.0
144	0x00000000	0.0
145	0x00000000	0.0
146	0x00000000	0.0
147	0x00000000	0.0
148	0x00000000	0.0
149	0x00000000	0.0
150	0x00000000	0.0
151	0x00000000	0.0
152	0x00000000	0.0
153	0x00000000	0.0
154	0x00000000	0.0
155	0x00000000	0.0
156	0x00000000	0.0
157	0x00000000	0.0
158	0x00000000	0.0
159	0x00000000	0.0
160	0x00000000	0.0
161	0x00000000	0.0
162	0x00000000	0.0
163	0x00000000	0.0
164	0x00000000	0.0
165	0x00000000	0.0
166	0x00000000	0.0
167	0x00000000	0.0
168	0x00000000	0.0
169	0x00000000	0.0
170	0x00000000	0.0
171	0x00000000	0.0
172	0x00000000	0.0
173	0x00000000	0.0
174	0x00000000	0.0
175	0x00000000	0.0
176	0x00000000	0.0
177	0x00000000	0.0
178	0x00000000	0.0
179	0x00000000	0.0
180	0x00000000	0.0
181	0x00000000	0.0
182	0x00000000	0.0
183	0x00000000	0.0
184	0x00000000	0.0
185	0x00000000	0.0
186	0x00000000	0.0
187	0x00000000	0.0
188	0x00000000	0.0
189	0x00000000	0.0
190	0x00000000	0.0
191	0x00000000	0.0
192	0x00000000	0.0
193	0x00000000	0.0
194	0x00000000	0.0
195	0x00000000	0.0
196	0x00000000	0.0
197	0x00000000	0.0
198	0x00000000	0.0
199	0x00000000	0.0
200	0x00000000	0.0
201	0x00000000	0.0
202	0x00000000	0.0
203	0x00000000	0.0
204	0x00000000	0.0
205	0x00000000	0.0
206	0x00000000	0.0
207	0x00000000	0.0
208	0x00000000	0.0
209	0x00000000	0.0
210	0x00000000	0.0
211	0x00000000	0.0
212	0x00000000	0.0
213	0x00000000	0.0
214	0x00000000	0.0
215	0x00000000	0.0
216	0x00000000	0.0
217	0x00000000	0.0
218	0x00000000	0.0
219	0x00000000	0.0
220	0x00000000	0.0
221	0x00000000	0.0
222	0x00000000	0.0
223	0x00000000	0.0
224	0x00000000	0.0
225	0x00000000	0.0
226	0x00000000	0.0
227	0x00000000	0.0
228	0x00000000	0.0
229	0x00000000	0.0
230	0x00000000	0.0
231	0x00000000	0.0
232	0x00000000	0.0
233	0x00000000	0.0
234	0x00000000	0.0
235	0x00000000	0.0
236	0x00000000	0.0
237	0x00000000	0.0
238	0x00000000	0.0
239	0x00000000	0.0
240	0x00000000	0.0
241	0x00000000	0.0
242	0x00000000	0.0
243	0x00000000	0.0
244	0x00000000	0.0
245	0x00000000	0.0
246	0x00000000	0.0
247	0x00000000	0.0
248	0x00000000	0.0
249	0x00000000	0.0
250	0x00000000	0.0
251	0x00000000	0.0
252	0x00000000	0.0
253	0x00000000	0.0
254	0x00000000	0.0
255	0x00000000	0.0

convolutions.0.weight f4 [200, 1, 3, 100]
0	0x3c175fc7	0.009239144
1	0x3cb0b862	0.021572296
2	0xbe1fcc91	-0.1560538
3	0x3d39b853	0.0453418
4	0xbe58b0cd	-0.21161194
5	0x3caa4c3a	0.0207883
6	0xbd8a451d	-0.067514636
7	0x3db555d9	0.08854265
8	0x3c671e81	0.014106394
9	0xbd98d423	-0.07462337
10	0xbc8c2203	-0.017106062
11	0x3ddc9243	0.10770085
12	0xbd9f4c74	-0.07778254
13	0x3b9c32b4	0.0047667865
14	0xbda2c18f	-0.079470746
15	0xbc2da277	-0.010597817
16	0x3d1aeb61	0.03782213
17	0xba2c5db0	-0.000657524
18	0xbde369e1	-0.11104179
19	0x3e054c69	0.1301743
20	0x3dc63401	0.09677888
21	0x3c68a4d0	0.014199451
22	0x3d84f03d	0.06491134
23	0x3dcca112	0.09991659
24	0xbdfe7078	-0.124237955
25	0x3e0cea96	0.13761362
26	0xbbc39045	-0.005968126
27	0xbd068a13	-0.03284652
28	0x3dc67df1	0.0969199
29	0xbc8cd35b	-0.017190626
30	0xbdb9a6df	-0.09065031
31	0x3d4ae32c	0.049533054
32	0x3dea921c	0.114536494
33	0x3e1a0c9f	0.15043877
34	0xbd37db30	-0.044886768
35	0x3d6f9695	0.058493216
36	0xbdac92c0	-0.08426428
37	0xbdd3888f	-0.10328781
38	0xbd45d695	-0.048300344
39	0x3d11e3ee	0.03561776
40	0xbdcf17b6	-0.101119444
41	0x3e070e06	0.13188943
42	0x3d27cb35	0.040965278
43	0x3da72cab	0.081628166
44	0x3d9dcd91	0.07705224
45	0xbc0666ba	-0.008203203
46	0xbdb95055	-0.09048525
47	0xbd88b29d	-0.06674693
48	0x3d99bd4c	0.07506809
49	0xbc527d5d	-0.012847272
50	0x3e9905ed	0.29887334
51	0xbe1462ee	-0.14490864
52	0xbde1da1f	-0.110279314
53	0x3c3c9fec	0.011512738
54	0x3e132e16	0.14373049
55	0x3d919ff0	0.07110584
56	0x3df75fef	0.12078845
57	0x3e1b30e3	0.15155368
58	0xbc8928dc	-0.016743116
59	0x3e77f382	0.24213985
60	0xbdd939b8	-0.10606712
61	0x3d884a4a	0.066547945
62	0x3e2d338c	0.16914195
63	0x3c38e331	0.011284635
64	0xbd6fb8d4	-0.058525875
65	0xbd59a420	-0.053135037
66	0xbe176a4b	-0.14786641
67	0xbdc174d8	-0.09446114
68	0xbd9c6cd4	-0.07637945
69	0x3ba4ee48	0.005033288
70	0x3e28f413	0.16499357
71	0x3d9dcd0c	0.07705125
72	0xbde0580b	-0.10954293
73	0x3c4226d0	0.011850074
74	0xbe04f6f6	-0.12984833
75	0x3e0eb6e7	0.13936959
76	0xbe48068c	-0.19533747
77	0xbdb87d1f	-0.0900824
78	0xbe20ed38	-0.15715492
79	0xbdde2726	-0.10847311
80	0xbdde30e6	-0.108491704
81	0xbdfaff68	-0.12255746
82	0xbdbc94bf	-0.092080586
83	0x3d0abac5	0.033869524
84	0xbc0f5dc6	-0.008750385
85	0x38763bec	5.8706777e-05
86	0x3e3d9328	0.18513167
87	0x3dd44d21	0.10366274
88	0xbce89437	-0.028390987
89	0x3cf3c190	0.029755384
90	0xbcb8502c	-0.022499166
91	0xbdaef17d	-0.08542154
92	0x3e228dc6	0.15874395
93	0xbd43f04d	-0.04783659
94	0x3d082d04	0.033246055
95	0xbe337ed2	-0.17528847
96	0x3c236ba5	0.009974395
97	0x3d992205	0.07477192
98	0xbe00ca2e	-0.12577125
99	0xbe14034d	-0.14454384
100	0xbdf86a93	-0.121297024
101	0xbd577f2a	-0.052611507
102	0x3d17c057	0.037048664
103	0xbd1f24e2	-0.038853534
104	0xbd321b1b	-0.04348288
105	0xbcecf024	-0.028923102
106	0xbd28d632	-0.041219898
107	0xbcdbe58f	-0.02684286
108	0x3dccf3c9	0.10007436
109	0x3b05b712	0.0020403308
110	0x3c560ab1	0.0130640725
111	0xbd814ee8	-0.06313878
112	0xbd7cc89d	-0.061714757
113	0x3d87cd09	0.06630904
114	0x3d4a138d	0.04933505
115	0xbd37b079	-0.04484603
116	0x3dd85d2d	0.10564647
117	0xbd8615f4	-0.06547156
118	0xbd1bc9d4	-0.038034275
119	0xbc735200	-0.014851093
120	0xbe3eb72e	-0.18624565
121	0xbd3e740c	-0.04649739
122	0xbcbb8c22	-0.022893969
123	0x3bc980bc	0.0061493795
124	0x3d0dfeaf	0.034666713
125	0xbc9d34e9	-0.019190269
126	0xbd5b8334	-0.053591922
127	0x3daa836d	0.08325849
128	0xbe0b5449	-0.13606371
129	0xbcf0fc14	-0.029417075
130	0xbc1e6ae3	-0.0096690385
131	0x3d8e68d6	0.069535896
132	0xbddf3af4	-0.10899916
133	0xbc327245	-0.010891502
134	0xbd7f08b5	-0.062264163
135	0xbd31a0bc	-0.04336618
136	0xbe5b70d7	-0.21429764
137	0x3dbc1dc0	0.09185362
138	0x3d0d9987	0.034570243
139	0xbd468e1a	-0.048475362
140	0xbd26250d	-0.040562678
141	0xbd9f2a40	-0.077717304
142	0x3d9b63af	0.075873725
143	0x3de0674b	0.109572016
144	0x39a7bd50	0.0003199377
145	0xbcd6d22a	-0.02622326
146	0x3dce7c71	0.10082329
147	0xbca906ce	-0.020633128
148	0xbc8804ef	-0.016603915
149	0xbc40efc8	-0.011775918
150	0xbd62d906	-0.05538275
151	0xbd8ffe0d	-0.07030878
152	0xbc394bd7	-0.0113095855
153	0x3cdbc38e	0.026826646
154	0xbd2f8cea	-0.042858995
155	0x3b1a2029	0.0023517704
156	0xbd44a215	-0.048006136
157	0xbddc2786	-0.10749726
158	0x3ca266f8	0.01982449
159	0x3d365436	0.044513904
160	0xbd8ad2a9	-0.067784615
161	0x3cea3270	0.028588504
162	0x3cf0a3a2	0.029374901
163	0x3ddff3d4	0.109351784
164	0xbca03352	-0.019555721
165	0xbcd129d1	-0.025532635
166	0x3c2dac68	0.010600187
167	0xbdeaee61	-0.114712484
168	0x3e1b7b09	0.15183653
169	0xbd6520ba	-0.055939414
170	0xbd48009c	-0.048828706
171	0x3bb4f5ef	0.0055224816
172	0x3e15bf2f	0.14623712
173	0xbc574c3f	-0.013140737
174	0x3c87e55a	0.016588856
175	0xbe22f84c	-0.1591503
176	0xbcfcecb3	-0.030874586
177	0x3d891d6f	0.06695067
178	0x3c870fa3	0.016486948
179	0x3e82414e	0.2544045
180	0xbdae4a19	-0.08510227
181	0x3d7dd303	0.061968815
182	0x3d06227d	0.032747734
183	0xbe37ac48	-0.17936814
184	0xbc700098	-0.014648579
185	0xbe4f943e	-0.20271394
186	0x3d73aaa1	0.059488896
187	0x3e0ebfb0	0.1394031
188	0x3dfaaa81	0.12239552
189	0x3cbc44d8	0.022982046
190	0x3cb8ad7e	0.022543665
191	0x3da9eac6	0.082967326
192	0xbcd288ed	-0.025700057
193	0x3ddfd1a4	0.10928658
194	0xbcd401c9	-0.025879757
195	0xbdb6046e	-0.08887564
196	0x3d009ff5	0.031402547
197	0xbc391b32	-0.011297988
198	0xbd79a39f	-0.060947057
199	0xbdea900c	-0.11453256
200	0x3d3954e4	0.045246974
201	0x3e040d66	0.12895736
202	0xbddc1034	-0.10745278
203	0x3bb1c314	0.0054248665
204	0xbe3f4807	-0.1867982
205	0x3ca83a91	0.02053574
206	0x3d1ea0af	0.03872746
207	0xbb92b67c	-0.0044773202
208	0xbd472553	-0.04861958
209	0xbc8f95e0	-0.01752752
210	0xbe298779	-0.16555585
211	0xbd442bc5	-0.047893304
212	0xbc882267	-0.016617967
213	0x3c2100df	0.009826868
214	0x3dc79c05	0.09746555
215	0x3e08a083	0.1334248
216	0xbcfb7482	-0.030695204
217	0x3d7c6a3d	0.061624754
218	0x3e2c54ac	0.16829175
219	0x3d8ec370	0.069708705
220	0xbcbb4382	-0.022859339
221	0xbdd7fa79	-0.10545821
222	0xbdca48b9	-0.09877152
223	0x3d1df565	0.038564105
224	0xbe8da2e4	-0.27663338
225	0xbdc0425e	-0.093876585
226	0xbd9319a7	-0.07182627
227	0xbd8ba60b	-0.068187796
228	0xbd798bb6	-0.060924254
229	0xbdbd52c6	-0.092443034
230	0xbc977778	-0.018489584
231	0x3cb8e7b8	0.02257143
232	0xbd0f451e	-0.034978025
233	0x3bf9c751	0.0076226373
234	0x3c540755	0.012941201
235	0xbcd1cd1e	-0.025610503
236	0xbda41dc4	-0.0801349
237	0x3d105242	0.035234697
238	0x3d63a7a1	0.055579785
239	0xbe0c2664	-0.1368652
240	0x3cefc218	0.029267356
241	0xbcc9c236	-0.02462874
242	0xbd6f3469	-0.05839959
243	0xbc6d9318	-0.014500402
244	0xbd27d680	-0.040976048
245	0x3d056484	0.032566562
246	0xbb9ae3d2	-0.0047268653
247	0x3df534b9	0.11972947
248	0xbdb3ad25	-0.08773259
249	0x3dae7759	0.085188575
250	0x3e3764fc	0.17909616
251	0xbaf7b326	-0.0018897995
252	0x3d91ab19	0.071127124
253	0x3b179890	0.0023131706
254	0x3d605e7d	0.05477761
255	0x3d387ae3	0.04503907

convolutions.0.bias f4 [200]
0	0x3af49dc2	0.0018662738
1	0xbb380ed9	-0.0028085022
2	0xbcf2d7ff	-0.02964401
3	0xbd992b4d	-0.07478962
4	0x3ab507bb	0.0013811508
5	0xbbd61471	-0.0065331985
6	0x3cb55d08	0.022139087
7	0xbb1b3345	-0.0023681682
8	0x3a78779a	0.0009478271
9	0x3b3282b9	0.0027238561
10	0x3b823e5c	0.003974719
11	0x3a041638	0.0005038711
12	0x3d0edf4d	0.034880925
13	0xbd927cd6	-0.07152717
14	0x3c0192a9	0.007908502
15	0xbd8c4be7	-0.06850415
16	0x3d1d1573	0.038350534
17	0xbcface77	-0.030616028
18	0xbb49a0d2	-0.0030766022
19	0x3c97e717	0.01854281
20	0x392e2e44	0.00016611168
21	0x3ca6455b	0.020296743
22	0xbc867b21	-0.016416134
23	0xbc84aa38	-0.016194448
24	0x3ba591db	0.0050527877
25	0xbceef3ff	-0.02916908
26	0x3c8eb213	0.017418897
27	0x3c052306	0.008126026
28	0x3c55b89c	0.013044503
29	0x3cd2af1e	0.025718268
30	0x3d2fe2a2	0.042940743
31	0xb9f324b2	-0.00046375912
32	0xbd5f36ff	-0.054495808
33	0xbb434a98	-0.00297991
34	0xbd1b2e77	-0.03788611
35	0xbc6c3f9e	-0.014419464
36	0x3d60270b	0.054724734
37	0xbcca2394	-0.024675168
38	0xba39afc4	-0.0007083381
39	0xbd1b3cc3	-0.037899744
40	0xbd2955de	-0.041341655
41	0xbd03838a	-0.032107867
42	0xbd0235db	-0.03178964
43	0x3ae93c28	0.0017794417
44	0xbda61cfb	-0.08110996
45	0xbbbedaaf	-0.005824409
46	0xbd998af7	-0.074972086
47	0x3d904d38	0.07045978
48	0xb93c423d	-0.00017953753
49	0xbd34d5e1	-0.044149283
50	0xbd30f3cb	-0.04320125
51	0x3d1dbb50	0.038508713
52	0xbd29b5aa	-0.041433014
53	0xbd30d7fb	-0.043174725
54	0x3d0568ea	0.032570757
55	0xbc24dd85	-0.01006258
56	0xbb4282b6	-0.002967996
57	0xbb4c003a	-0.0031128065
58	0x3baac4c2	0.0052114436
59	0x3d33f09c	0.043930635
60	0xbd93f606	-0.072246596
61	0xbb55d200	-0.003262639
62	0xbad1d9ca	-0.0016010341
63	0xbd185ddc	-0.037198886
64	0x3c8bc0a7	0.017059637
65	0x3cf54182	0.029938463
66	0xbd064e52	-0.032789536
67	0xbd787835	-0.060661513
68	0xbb8a8e42	-0.0042283842
69	0x3c8318df	0.01600307
70	0x3d70e388	0.05881074
71	0x3d0248ee	0.031807832
72	0xbbd48799	-0.006485891
73	0x3c4e9bfd	0.012610433
74	0xbbd4ce9e	-0.0064943573
75	0xbcb08e27	-0.021552159
76	0xbc4b877f	-0.0124224415
77	0xbd415bfc	-0.047206864
78	0xbdd2379f	-0.10264515
79	0x3d171cde	0.036892764
80	0x3d872eb0	0.06600702
81	0xbca7eea1	-0.02049953
82	0xbd414293	-0.04718263
83	0xbdb9142a	-0.09037049
84	0x3c757642	0.014981808
85	0x3b083a06	0.0020786538
86	0xbd86ecd4	-0.0658814
87	0xbd288de4	-0.041150942
88	0x3a0af27e	0.00053004164
89	0xbc87cfff	-0.016578672
90	0x3ca0c579	0.019625412
91	0xbd6de926	-0.058083676
92	0x3ce7741d	0.02825361
93	0xbdd49c64	-0.10381392
94	0xbd92de36	-0.071712896
95	0xbc906ede	-0.01763099
96	0x3d3933ad	0.045215297
97	0x3c2468c4	0.010034744
98	0xbbd4a136	-0.0064889444
99	0xbd5b9a27	-0.053613808
100	0xbc835eed	-0.016036475
101	0x3cb82d1c	0.022482447
102	0x3bd37ef0	0.006454341
103	0xbcb158b4	-0.021648742
104	0x3d22b5f9	0.039724324
105	0xbd1123d0	-0.035434544
106	0xbd48cfd8	-0.04902634
107	0x3c1a4b40	0.009417355
108	0xbb3d1fe4	-0.002885812
109	0x3c578602	0.013154509
110	0x3c968262	0.018372718
111	0xba87f2dd	-0.0010372062
112	0xbd5852aa	-0.05281321
113	0x3cb798de	0.02241176
114	0xbb1775ce	-0.0023110989
115	0x3b4f4b27	0.0031630488
116	0x3c7a0bb4	0.015261579
117	0xbcd2fd0b	-0.025755426
118	0x3cb61ca1	0.022230448
119	0xbc23f0c7	-0.010006136
120	0xbd6aa72d	-0.057288337
121	0xbd1c48b2	-0.038155265
122	0x3d24aa83	0.040201675
123	0x3ca22e45	0.019797454
124	0xbd563303	-0.052294742
125	0xbd6ffdaf	-0.05859154
126	0xbd34421e	-0.044008367
127	0x3a10d8e4	0.0005525483
128	0x3bca0bcf	0.0061659585
129	0xbce0af57	-0.027427359
130	0xbd1dab6d	-0.038493562
131	0xb9c35c30	-0.00037261983
132	0xbd019339	-0.031634543
133	0x3cfa27f2	0.030536626
134	0x3cb0a0f6	0.021561127
135	0xbd01d9ba	-0.03170178
136	0xbad24611	-0.001604261
137	0xbc48c940	-0.012255013
138	0x3d115987	0.03548577
139	0x3d3367c0	0.043800116
140	0xbc4a4e26	-0.012347734
141	0x3cb7bb0f	0.022428064
142	0x3d12bea2	0.035826333
143	0x3cbf77f2	0.023372624
144	0x3d64eda1	0.055890683
145	0xbc3478b3	-0.011015105
146	0x3cdd2059	0.026992964
147	0xbab851e4	-0.0014062491
148	0x3c67f068	0.014156438
149	0xbb8e196b	-0.004336526
150	0xbc13243a	-0.008980805
151	0x3c513dec	0.012771111
152	0xbd48a96b	-0.048989695
153	0xbd5e93e7	-0.05434027
154	0x3d315dc5	0.043302316
155	0xbd62ba1b	-0.055353265
156	0xbc8a0c21	-0.016851487
157	0xbc9a5afa	-0.01884221
158	0x3d760a96	0.06006869
159	0xbbabe65d	-0.0052459673
160	0x3b3d7636	0.002890957
161	0x3b23816b	0.0024948965
162	0xbd1987bf	-0.037482973
163	0xbd3b0cc5	-0.045666475
164	0xba492a52	-0.0007673848
165	0xbcbf1cd2	-0.023329172
166	0x3bde4567	0.0067831757
167	0xbd324a0c	-0.043527648
168	0xbc2432ad	-0.010021848
169	0x3bef7946	0.007308158
170	0xbdbf81ea	-0.09350951
171	0x3d41e278	0.047335118
172	0xbd0f4210	-0.03497511
173	0xbb501bd6	-0.0031754873
174	0x3d2c49da	0.042062618
175	0xbc4ceb7a	-0.012507314
176	0x3d99cf9b	0.07510301
177	0xbb99a14a	-0.0046884166
178	0xbd08f5e8	-0.03343764
179	0xbc83df12	-0.01609758
180	0xbbcfe908	-0.006344918
181	0x3b56a89c	0.0032754308
182	0x3d695b90	0.056972086
183	0xbd01ad08	-0.031659156
184	0xbc3faae2	-0.0116984565
185	0x3c9f0ce5	0.019415328
186	0x3d313115	0.0432597
187	0x3d29cfd8	0.04145798
188	0x3caaa339	0.020829784
189	0x3cbcb01b	0.023033192
190	0xbccd507d	-0.025062794
191	0xbd3c5aa1	-0.045984868
192	0xbbb5e99d	-0.0055515305
193	0x3c94a96e	0.018147197
194	0xbbacbce9	-0.0052715433
195	0xbd49435a	-0.049136497
196	0xbc21bc0f	-0.009871497
197	0x3c1ec09f	0.009689479
198	0x3c886a4a	0.016652245
199	0xba266ddf	-0.00063487695

linear_layers.0.weight f4 [100, 200]
0	0x3d65e430	0.05612582
1	0xbdf54622	-0.119762674
2	0x3eac1111	0.3360677
3	0xbd24b50f	-0.040211733
4	0xbe0bcc04	-0.13652045
5	0x3d8b3848	0.06797844
6	0xbe4228b8	-0.18960845
7	0x3e075aa5	0.13218172
8	0xbdd236a6	-0.102643296
9	0xbe62e34b	-0.22157018
10	0x3e088469	0.1333176
11	0x3b7facba	0.0039012865
12	0xbec40800	-0.38287354
13	0x3e5a0fb1	0.21295048
14	0xbe026593	-0.1273406
15	0x3b9efc56	0.004851858
16	0x3c5f853b	0.013642604
17	0x3e3e835a	0.18604794
18	0xbdfd1166	-0.12356834
19	0xbdbfdc4e	-0.09368192
20	0xbe46f9c9	-0.19431223
21	0xbd6db7d5	-0.058036644
22	0x3d0fb26c	0.035082266
23	0xbec3be66	-0.382312
24	0x3b4c2004	0.0031147012
25	0xbd396892	-0.04526574
26	0x3db87814	0.09007278
27	0x3e2b6573	0.16737919
28	0x3db99bda	0.090629295
29	0x3e79107f	0.24322699
30	0x3dfd140b	0.123573385
31	0xbd641b31	-0.055689994
32	0xbcd806c3	-0.026370412
33	0xbd09cb4c	-0.033641145
34	0xbdd576f9	-0.10423083
35	0x3e4f0da6	0.2022005
36	0xbd68336c	-0.056689665
37	0x3d124aa8	0.03571573
38	0x3de14a13	0.11000457
39	0x3e57d893	0.2107871
40	0x3e664245	0.22486217
41	0xbc6130af	-0.013744517
42	0x3e1c1262	0.15241387
43	0x3e07213e	0.13196275
44	0x3e87b5ae	0.26505798
45	0x3c101fc1	0.008796633
46	0xbd44ce1b	-0.04804812
47	0x3e0901a1	0.13379528
48	0x3e40c84f	0.18826412
49	0xbb6dae79	-0.0036267324
50	0x3d683fc2	0.05670143
51	0x3e0453c1	0.12922575
52	0x3e28de5e	0.16491076
53	0x3e29c2bc	0.16578192
54	0x3e5a9d5d	0.21349092
55	0xbdabdf76	-0.08392231
56	0x3d8eee6b	0.06979068
57	0x3ec06bd9	0.3758228
58	0xbcf3650b	-0.029711267
59	0x3beb9e59	0.0071905074
60	0xbdbe0ad7	-0.09279411
61	0x3e328cbb	0.17436497
62	0x3ddc83b8	0.10767311
63	0x3e23d999	0.16000976
64	0x3e32cb2b	0.17460315
65	0xbdfd4c76	-0.123680994
66	0x3ebac8e8	0.36481404
67	0xbdee28f6	-0.116289064
68	0x3e4cfa1e	0.20017287
69	0xbd10a25c	-0.035311088
70	0xbe6cfbf5	-0.23142989
71	0xbc038630	-0.008027598
72	0x3e0ab070	0.13543868
73	0xbe9a33fd	-0.3011779
74	0x3e803b8a	0.25045425
75	0x3dd1dbcf	0.10247003
76	0xbd814729	-0.06312401
77	0xbdb29da8	-0.08721477
78	0x3dc6fc6f	0.09716117
79	0xbdd4a9d6	-0.10383956
80	0xbd2ab0c7	-0.041672494
81	0x3dba81a7	0.091067605
82	0xbc6aad1a	-0.014323497
83	0x3e4909ba	0.19632617
84	0x3b850dbc	0.004060475
85	0xbbb58a64	-0.005540179
86	0x3e5499a9	0.20761742
87	0xbb570eed	-0.0032815293
88	0x3ddce6f9	0.10786242
89	0x3d8d27d4	0.06892362
90	0xbd8f97da	-0.07011385
91	0x3d8b32b5	0.06796781
92	0x3cdd5169	0.027016358
93	0x3e607b5e	0.21922061
94	0x3d833128	0.0640586
95	0xbd3eb44f	-0.046558674
96	0x3b6cb585	0.0036118936
97	0x3e043253	0.12909822
98	0x3dc50383	0.096198104
99	0xbe3de948	-0.18546021
100	0xbde45172	-0.11148347
101	0x3e19a02f	0.15002511
102	0x3e78b156	0.24286398
103	0x3e18bab3	0.1491497
104	0x3d868f7f	0.065703385
105	0x3e319bcd	0.1734459
106	0xbe5eb32c	-0.21748036
107	0x3e31bf85	0.17358215
108	0xbe1149d9	-0.14188327
109	0xbd7a9bca	-0.06118373
110	0xbe0ebdb5	-0.13939555
111	0x3e15a0e4	0.14612156
112	0x3e6e4668	0.23269045
113	0x3d96cff2	0.07363881
114	0x3d2620bd	0.040558565
115	0x3e02bfa4	0.12768418
116	0xbd03e439	-0.032200072
117	0x3e2395ac	0.15975064
118	0xbd8f7a5a	-0.070057586
119	0x3e3ddde4	0.18541676
120	0x3c4e3044	0.01258475
121	0x3dcc84ef	0.099862926
122	0x3d1f2e66	0.03886261
123	0x3e7fcb91	0.24979998
124	0x3e6a7b94	0.22898704
125	0x3b39c5b9	0.0028346612
126	0x3e1287f8	0.1430968
127	0x3e286728	0.16445601
128	0x3d9e298a	0.07722767
129	0x3e058218	0.13037908
130	0x3e17c384	0.14820677
131	0xbe861202	-0.26185614
132	0x3cb4d8e6	0.022076081
133	0x3d876d7e	0.06612681
134	0xbde20e4a	-0.11037882
135	0x3e3ff462	0.18745568
136	0xbcafd8a1	-0.021465601
137	0x3dc98554	0.098398834
138	0xbc8a5f34	-0.0168911
139	0x3dc5de14	0.09661499
140	0x3e0840b8	0.13305938
141	0x3cc5e69c	0.024157815
142	0xbc2e9c60	-0.0106574
143	0x3e0cfb10	0.13767648
144	0x3e100bb6	0.14066967
145	0x3d94342b	0.07236513
146	0xbe8efbee	-0.27926582
147	0xbe1237ad	-0.14279051
148	0xbd267e7b	-0.040647965
149	0xbc54ef7e	-0.0129965525
150	0x3d2192a2	0.03944648
151	0xbdbbd744	-0.09171918
152	0x3d7a3bee	0.06109231
153	0xbd99ac37	-0.075035505
154	0x3e39b3b9	0.18134965
155	0xbdf26c04	-0.118370086
156	0x3e844bbf	0.2583904
157	0x3e7748d1	0.24148871
158	0xbd4a3fd5	-0.04937728
159	0x3e7f602f	0.24939035
160	0x3d5b0edc	0.053480968
161	0x3d044dd2	0.032300778
162	0xbd70165d	-0.058615077
163	0x3dc4aa4f	0.09602796
164	0x3d20274d	0.03909998
165	0x3dbd6d58	0.09249371
166	0x3df30af9	0.11867327
167	0xbd3dc301	-0.04632855
168	0xbe75b56c	-0.23994988
169	0xbe5a8655	-0.21340306
170	0x3dba093e	0.09083794
171	0xbdc9c361	-0.09851719
172	0x3d85e4fc	0.06537816
173	0x3e31530b	0.17316835
174	0xbe272f3e	-0.16326615
175	0x3b2a18dc	0.0025954759
176	0x3c62b961	0.013838143
177	0x38d0d208	9.957334e-05
178	0x3e6e26e5	0.23257025
179	0x3e346bd3	0.17619257
180	0x3e8dbfdb	0.27685437
181	0x3e6cc590	0.23122239
182	0xbe7e917d	-0.24860187
183	0xbd9ad144	-0.075594455
184	0xbe0101ee	-0.12598392
185	0xbd959d0d	-0.07305346
186	0xbe079f19	-0.13244285
187	0xbe65f3e9	-0.22456326
188	0x3d945a8d	0.07243834
189	0xbdda5c27	-0.10662108
190	0xbdc1ced8	-0.094632804
191	0xbe50ddf2	-0.20397165
192	0xbe10d965	-0.1414543
193	0x3d232ee0	0.039839625
194	0xbd9535e0	-0.072856665
195	0x3d99cbdb	0.075095855
196	0x3d9dfbcd	0.07714043
197	0xbdd82b11	-0.10555089
198	0xbd8c255e	-0.06843065
199	0x3c9da095	0.01924161
200	0xbde0e186	-0.10980515
201	0xbde2a152	-0.11065926
202	0xbe16559f	-0.146811
203	0xbcc29e99	-0.023757266
204	0xbc631eeb	-0.013862352
205	0xbeae0095	-0.3398482
206	0xbe848dea	-0.25889522
207	0xbde0c333	-0.10974731
208	0x3e96d3ce	0.2945847
209	0x3e1ddd07	0.15416346
210	0xbc1ae3a4	-0.009453688
211	0xbdb8c675	-0.09022228
212	0xbc4b95c6	-0.0124258455
213	0xbdfcf92e	-0.12352215
214	0x3df55e24	0.119808465
215	0x3d3df9e1	0.04638088
216	0x3e1be8ce	0.15225527
217	0xbd2ad4c3	-0.04170681
218	0x3e32c71f	0.17458771
219	0x3d90efb2	0.07076968
220	0x3e68d85b	0.22738783
221	0x3dd7ba39	0.10533566
222	0xbdb24609	-0.087047644
223	0x3d7d0fab	0.06178252
224	0xbe15014e	-0.14551279
225	0x3d9cd55f	0.07657885
226	0xbc9ee499	-0.019396113
227	0xbcd9e9f7	-0.026600821
228	0x3d5fd8db	0.05465017
229	0xbe34cbd6	-0.17655882
230	0xbd27daf9	-0.040980313
231	0xbe2e3b9d	-0.17014928
232	0x3e9fe597	0.3122985
233	0xbdf90850	-0.121597886
234	0x3d7f1434	0.062275127
235	0x3dd06bb4	0.10176793
236	0xbdb30c57	-0.08742588
237	0x3c8c9e15	0.017165223
238	0x3cb5e540	0.022204041
239	0xbe27a509	-0.1637155
240	0xbe020187	-0.12695895
241	0xbe6be28c	-0.2303564
242	0xbcf0e61f	-0.029406605
243	0xbcfa2c47	-0.030538691
244	0xbdc03cb0	-0.09386575
245	0xbe6c51db	-0.230781
246	0x3e52afb9	0.20574845
247	0x3df16605	0.11787037
248	0x3da31b83	0.07964232
249	0x3d157efd	0.03649806
250	0x3d07b900	0.033135414
251	0x3e216051	0.15759398
252	0xbe27eee6	-0.16399726
253	0x3e13fc42	0.14451697
254	0xbddfe0f6	-0.1093158
255	0x3d49665d	0.049169887

linear_layers.0.bias f4 [100]
0	0x3cffaa7a	0.03120922
1	0x3dcd69b1	0.10029925
2	0x3ce5991e	0.028027114
3	0xbcab1e16	-0.02088837
4	0x3c341d75	0.010993351
5	0x3d7a89f6	0.061166726
6	0x3d5499c0	0.05190444
7	0xbb616bab	-0.003439645
8	0x3d81e0f5	0.06341735
9	0xbd3e5340	-0.046466112
10	0x3d1be566	0.03806057
11	0x3d63b61d	0.0555936
12	0xbd085181	-0.033280853
13	0xbd5cec10	-0.053936064
14	0xbc906e6a	-0.017630775
15	0xbc1bc5d8	-0.009507619
16	0x3db666fc	0.089063615
17	0x3d9743ca	0.073859766
18	0x3d46e751	0.048560444
19	0x3c450881	0.012025953
20	0xbdb63c43	-0.08898213
21	0x3b6deca0	0.003630437
22	0x3d8cd7ad	0.068770744
23	0x3c84abe5	0.016195247
24	0xbc95659b	-0.018236926
25	0x3bbf9fab	0.0058478913
26	0x3c406f2c	0.011745255
27	0x3c8538ef	0.0162625
28	0x3d96b982	0.073596016
29	0x3b6f57d2	0.003652085
30	0x3dbc100c	0.09182748
31	0xbcbd04bd	-0.023073548
32	0xbd964c49	-0.07338769
33	0xbd95f159	-0.07321424
34	0x3c846b00	0.016164303
35	0xbd2147d6	-0.03937515
36	0xbd457b51	-0.048213307
37	0x3caad2be	0.020852443
38	0xbc075bd7	-0.008261642
39	0x3d4f9fbe	0.05068945
40	0x3d77c678	0.06049201
41	0x3b952464	0.0045514572
42	0x3d6d87b2	0.057990737
43	0x3c9ca34e	0.019120838
44	0xbd97f8ec	-0.07420525
45	0xbc85b0cd	-0.016319657
46	0x3d9a13be	0.07523297
47	0xbd5cdb3c	-0.053920016
48	0xbc759bbd	-0.014990744
49	0x3cb0a5ce	0.021563437
50	0x3d8284fd	0.06373022
51	0x3d6e0ad8	0.05811581
52	0xbbab3060	-0.0052242726
53	0xbd1f1d88	-0.038846523
54	0xbd6a2223	-0.05716146
55	0x3cda0c8d	0.026617313
56	0xbcb87cd1	-0.022520455
57	0xbc8266ec	-0.015918218
58	0xbcfd5a94	-0.03092698
59	0x3d43c26f	0.04779285
60	0x3d80b9c3	0.06285431
61	0x3c409eb6	0.01175659
62	0x3d4e42bf	0.050356623
63	0xbca7c464	-0.020479389
64	0xbccd5808	-0.02506639
65	0xbc7647e4	-0.0150317885
66	0x3d9e5200	0.07730484
67	0x3d53fefa	0.051756836
68	0xbd27fa81	-0.041010384
69	0xbd41d063	-0.047317874
70	0xbd6ab494	-0.05730112
71	0x3db8e52a	0.090280846
72	0xbc8900e3	-0.016724056
73	0x3cd68095	0.02618436
74	0x3c1db74f	0.009626224
75	0xbc3dc394	-0.011582274
76	0x3cef33a9	0.029199438
77	0x3a70a57c	0.00091799325
78	0x3d1db699	0.038504217
79	0xbd1cb99f	-0.03826296
80	0xbc56a66f	-0.013101204
81	0x3d270072	0.04077191
82	0x3d81804e	0.063233
83	0x3d4607a4	0.04834713
84	0x3d798934	0.060921863
85	0xbd4d751f	-0.050160524
86	0x3cfd8062	0.030945007
87	0x3c444426	0.0119791385
88	0xbccc0ae2	-0.024907533
89	0xbd90ef81	-0.07076932
90	0x3ba87cf9	0.005141851
91	0xbd8a0316	-0.0673887
92	0xbd69c204	-0.057069793
93	0x3cb7073b	0.022342315
94	0xbd466cc4	-0.04844357
95	0x3b1c8820	0.0023884848
96	0x3c6c2770	0.0144136995
97	0xbb374198	-0.002796268
98	0x3da2584b	0.07926997
99	0xbc3063b8	-0.010765962

linear_last.weight f4 [5, 100]
0	0x3eb3c150	0.35108423
1	0xbaa661b4	-0.0012693913
2	0xbdb8da21	-0.0902598
3	0xbcb5b9c6	-0.02218331
4	0x3d2dbf2e	0.04241865
5	0xbc134ad4	-0.008990008
6	0x3d95c10c	0.073122114
7	0xbd50160a	-0.050802268
8	0xbd581230	-0.05275172
9	0xbe31cd95	-0.1736358
10	0xbd9238df	-0.071397536
11	0xbc282bc8	-0.0102643445
12	0x3d3bffe0	0.04589832
13	0x3d572a2e	0.05253046
14	0xbd17a37f	-0.037021156
15	0x3cbff629	0.023432808
16	0x3e797483	0.24360852
17	0xbc8594fe	-0.016306397
18	0xbd64b299	-0.055834386
19	0xbe9aa14b	-0.30201182
20	0x3e56884a	0.20950428
21	0xbdc6f63b	-0.097149335
22	0xbdb6b4aa	-0.08921178
23	0xbdff8f9c	-0.12478563
24	0xbd30e145	-0.043183584
25	0xbcad40cf	-0.021149067
26	0xbd4fc29e	-0.05072271
27	0xb9b0f70b	-0.00033753397
28	0xbdc67b7c	-0.096915215
29	0xbce981c2	-0.028504256
30	0x3d016fd5	0.031600792
31	0x3db829a4	0.08992317
32	0xbcc74806	-0.024326336
33	0xbcdbe9d5	-0.026844898
34	0x3d437299	0.04771671
35	0x3eca77a1	0.39544395
36	0xbd4dfb9c	-0.05028878
37	0xbd843c14	-0.064567715
38	0xbad87c14	-0.001651647
39	0xbdcf6936	-0.10127489
40	0xbca47bb3	-0.020078516
41	0x3d3a1a87	0.045435455
42	0xbd797429	-0.060901795
43	0x3d83c1b1	0.06433428
44	0xbdac1256	-0.08401935
45	0x3ef7248f	0.4827008
46	0xbdca8e77	-0.09890454
47	0xbd5b2f8e	-0.05351215
48	0x3d8d1ccd	0.06890259
49	0x3d2bb45a	0.041920044
50	0xbd28ef96	-0.041244112
51	0xbee013f3	-0.4376522
52	0xbd71d2fa	-0.059039094
53	0xbd919d2b	-0.071100555
54	0x3d108185	0.03527977
55	0xbda03253	-0.078220986
56	0x3d106e64	0.035261527
57	0xbd2e89ce	-0.04261189
58	0xbdb512a1	-0.08841444
59	0x3d7560ab	0.059906643
60	0xbdc94f64	-0.09829596
61	0xbe428571	-0.18996216
62	0xbe2216e7	-0.15829049
63	0x3ebd47ea	0.3696893
64	0x3f0c9867	0.5492005
65	0xbdc029fe	-0.093830094
66	0xbda564a6	-0.08075838
67	0xbdbed5f0	-0.09318149
68	0x3f1eaef4	0.6198571
69	0xbe3a8c68	-0.18217623
70	0xbd180959	-0.03711829
71	0xbdcc2cdc	-0.09969494
72	0x3dbc2837	0.09187358
73	0x3eb974a0	0.3622179
74	0xbd9a6089	-0.07537944
75	0x3d3415fa	0.04396627
76	0x3d3649e4	0.04450406
77	0xbc917820	-0.017757475
78	0xbaed4bba	-0.0018104233
79	0x3e871dcf	0.2638993
80	0xbe0e0744	-0.13869959
81	0x3d1e1e6f	0.038603242
82	0xbe8c9f8b	-0.27465472
83	0x3d810bc6	0.06301074
84	0xbd6b5917	-0.05745801
85	0xbc3f7fc3	-0.011688176
86	0x3dceb0cf	0.10092317
87	0xbcec54f4	-0.028849103
88	0x3f25e22b	0.6479823
89	0xbd2073a1	-0.039172772
90	0xbda3a61a	-0.07990666
91	0xbda17ce6	-0.078851506
92	0x3ca30be7	0.019903136
93	0x3ec97617	0.39347908
94	0x3be34204	0.00693536
95	0xbc9dbef8	-0.0192561
96	0x3da540d1	0.080690034
97	0x3e82bbff	0.25534055
98	0x3db03fde	0.08605932
99	0x3da3bc77	0.07994931
100	0xbd33d6f0	-0.043906152
101	0x3d30bc8f	0.043148573
102	0xbdd76d11	-0.1051885
103	0x3db44088	0.08801371
104	0xbd6889e7	-0.05677214
105	0xbe016540	-0.1263628
106	0x3d7013ed	0.058612753
107	0x3d7f8299	0.062380407
108	0x3d9a850a	0.075449064
109	0xbdc42282	-0.09576894
110	0x3ccb0abf	0.024785398
111	0x3c0ee564	0.008721683
112	0x3d3faa16	0.046793066
113	0xbdd44953	-0.10365548
114	0x3f27f66b	0.6561038
115	0x3efb19d5	0.49043146
116	0x3dec529b	0.11539193
117	0x3ed30758	0.4121654
118	0xbd6775f3	-0.05650897
119	0xbe84cc05	-0.25936905
120	0xbdb2b920	-0.08726716
121	0x3ca98eb1	0.020697923
122	0x3ec07c42	0.375948
123	0x3eea5090	0.4576459
124	0xbccb33d2	-0.024804983
125	0xbdc9e100	-0.098573685
126	0x3d952545	0.07282499
127	0x3f048512	0.5176555
128	0xbea99fdf	-0.33129784
129	0xbda72861	-0.081619985
130	0x3e61a5b8	0.22035873
131	0x3d9ac0c8	0.07556301
132	0xbd835633	-0.064129256
133	0x3da466f2	0.08027448
134	0xbd233c9c	-0.039852723
135	0xbbd5b7d0	-0.0065221563
136	0xbba66bf1	-0.0050787856
137	0xbbd776c8	-0.006575439
138	0x3dbb607c	0.09149262
139	0x3e7a9842	0.24472144
140	0x3e30a8f2	0.17251948
141	0x3e105782	0.14095882
142	0xbdb758b6	-0.08952467
143	0x3dba3a28	0.09093124
144	0x3d6b5669	0.057455454
145	0xbd1bade7	-0.038007643
146	0xbf27aeb9	-0.6550098
147	0x3d3144f6	0.043278657
148	0x3cb2a51d	0.021807248
149	0x3d3f50f2	0.046708055
150	0xbe8d87ca	-0.2764266
151	0xbe081f5f	-0.13293217
152	0xbdbada7a	-0.09123702
153	0x3e0607c5	0.13088901
154	0x3d3aa6b1	0.045569126
155	0x3da0f289	0.0785876
156	0xbdba27ae	-0.090895995
157	0x3d06102a	0.03273026
158	0xbd88309d	-0.06649897
159	0xbbc61de4	-0.0060460437
160	0x3ce8b003	0.028404241
161	0xbede2a4f	-0.43391654
162	0xbd7aaa62	-0.061197646
163	0x3d98392a	0.07432778
164	0xbd4d9905	-0.05019476
165	0xbc2efd76	-0.010680547
166	0x3ea11ab4	0.31465685
167	0xbcb513fa	-0.022104252
168	0xbd9138d5	-0.07090918
169	0x3de3552a	0.11100228
170	0x3da2cd52	0.07949318
171	0x3c1df3af	0.009640618
172	0xbda2069b	-0.07911416
173	0xbdd7b3e7	-0.105323605
174	0xbd905cd0	-0.070489526
175	0xbdbf124f	-0.09329664
176	0x3e0ee0d0	0.13952947
177	0xbd539582	-0.051656254
178	0xbd9e26c8	-0.07722241
179	0xbdc7d54b	-0.09757479
180	0xbdd60ae6	-0.104512975
181	0x3d66184a	0.056175508
182	0xbea467ea	-0.3211053
183	0xbd4cc2cb	-0.049990457
184	0x3dbdbab6	0.09264128
185	0xbb736ada	-0.0037142546
186	0xbe02a9e6	-0.12760124
187	0x3d52d10d	0.051468898
188	0xbd4af4b0	-0.04954976
189	0xbdae6193	-0.085147046
190	0xbc48d245	-0.012257163
191	0xbc297c99	-0.010344648
192	0xbc892301	-0.016740324
193	0xbdbbeec3	-0.091763996
194	0x3d3a3c60	0.045467734
195	0xbcfc31a8	-0.030785397
196	0x3d651182	0.0559249
197	0x3e3c5f18	0.1839565
198	0x3f11bfca	0.5693327
199	0xbd98691a	-0.074419215
200	0xbe9c2724	-0.30498612
201	0xbda7e17e	-0.08197306
202	0x3d68a54f	0.056798276
203	0xbd860c47	-0.065453105
204	0xbea57c3e	-0.32321352
205	0xbf0af2fd	-0.5427702
206	0xbc537364	-0.012905929
207	0x3c555395	0.013020416
208	0x3d7b5c05	0.061367054
209	0x3de0a85d	0.10969613
210	0xbc8a287c	-0.016865008
211	0x3b00c72e	0.001964997
212	0x3d01c0ca	0.031678
213	0x3d973038	0.07382244
214	0x3ca23510	0.019800693
215	0x3d619ea0	0.055082917
216	0x3d236319	0.03988943
217	0x3e6181a6	0.22022113
218	0x3ca9762a	0.020686228
219	0x3cb1c5f7	0.021700842
220	0xbef6c897	-0.48199913
221	0xbe832933	-0.2561737
222	0x3c30ff20	0.010803014
223	0xbda48ab1	-0.08034266
224	0x3d4af8c4	0.049553648
225	0xbe892696	-0.2678725
226	0x3d828989	0.06373889
227	0xbd356fca	-0.044296063
228	0x3acd61f2	0.0015669449
229	0x3d6c59b6	0.057702743
230	0xbd78abe2	-0.060710795
231	0xbe5dece7	-0.21672402
232	0x3daf1f2e	0.08550869
233	0x3c797fc3	0.015228215
234	0x3d3f1451	0.046650235
235	0xbbdba56e	-0.0067030704
236	0xbc4bbcf0	-0.012435183
237	0xbc2e4ae2	-0.010637971
238	0x3da543a7	0.08069544
239	0xbebc4935	-0.36774603
240	0x3e4a8546	0.19777402
241	0x3ee2be1a	0.4428566
242	0x3d3881a1	0.0450455
243	0xbe832828	-0.25616574
244	0xbdb4455a	-0.0880229
245	0xbec51489	-0.3849223
246	0x3dac7749	0.08421189
247	0xbca93bef	-0.020658461
248	0x3d0504c8	0.032475263
249	0x3d49835b	0.049197536
250	0xbea7b69a	-0.327565
251	0xbe1991a8	-0.1499697
252	0xbdc3f26b	-0.09567722
253	0xbe80f1cb	-0.25184473
254	0xbd90338e	-0.07041083
255	0xbd0e5e15	-0.034757692

linear_last.bias f4 [5]
0	0xbe2e9871	-0.1705034
1	0x3d983fb0	0.074340224
2	0x3dfc52d6	0.12320487
3	0xbd4a80d4	-0.049439266
4	0x3e08f184	0.13373381
