trained_models/cnn_100_200_[100]_3_[3]_User Type_zeros_60-20-20_polisis_attr_state.pt (torch_old, 643010 bytes, 7 tensors)

embedding.weight f4 [798, 100]
000000 00 00 00 00 00 00 00 00 00 00 00 00 00 00 00 00
       0.0 0.0 0.0 0.0
000010 00 00 00 00 00 00 00 00 00 00 00 00 00 00 00 00
       0.0 0.0 0.0 0.0
000020 00 00 00 00 00 00 00 00 00 00 00 00 00 00 00 00
       0.0 0.0 0.0 0.0
000030 00 00 00 00 00 00 00 00 00 00 00 00 00 00 00 00
       0.0 0.0 0.0 0.0
000040 00 00 00 00 00 00 00 00 00 00 00 00 00 00 00 00
       0.0 0.0 0.0 0.0
000050 00 00 00 00 00 00 00 00 00 00 00 00 00 00 00 00
       0.0 0.0 0.0 0.0
000060 00 00 00 00 00 00 00 00 00 00 00 00 00 00 00 00
       0.0 0.0 0.0 0.0
000070 00 00 00 00 00 00 00 00 00 00 00 00 00 00 00 00
       0.0 0.0 0.0 0.0
000080 00 00 00 00 00 00 00 00 00 00 00 00 00 00 00 00
       0.0 0.0 0.0 0.0
000090 00 00 00 00 00 00 00 00 00 00 00 00 00 00 00 00
       0.0 0.0 0.0 0.0
0000a0 00 00 00 00 00 00 00 00 00 00 00 00 00 00 00 00
       0.0 0.0 0.0 0.0
0000b0 00 00 00 00 00 00 00 00 00 00 00 00 00 00 00 00
       0.0 0.0 0.0 0.0
0000c0 00 00 00 00 00 00 00 00 00 00 00 00 00 00 00 00
       0.0 0.0 0.0 0.0
0000d0 00 00 00 00 00 00 00 00 00 00 00 00 00 00 00 00
       0.0 0.0 0.0 0.0
0000e0 00 00 00 00 00 00 00 00 00 00 00 00 00 00 00 00
       0.0 0.0 0.0 0.0
0000f0 00 00 00 00 00 00 00 00 00 00 00 00 00 00 00 00
       0.0 0.0 0.0 0.0
000100 00 00 00 00 00 00 00 00 00 00 00 00 00 00 00 00
       0.0 0.0 0.0 0.0
000110 00 00 00 00 00 00 00 00 00 00 00 00 00 00 00 00
       0.0 0.0 0.0 0.0
000120 00 00 00 00 00 00 00 00 00 00 00 00 00 00 00 00
       0.0 0.0 0.0 0.0
000130 00 00 00 00 00 00 00 00 00 00 00 00 00 00 00 00
       0.0 0.0 0.0 0.0
000140 00 00 00 00 00 00 00 00 00 00 00 00 00 00 00 00
       0.0 0.0 0.0 0.0
000150 00 00 00 00 00 00 00 00 00 00 00 00 00 00 00 00
       0.0 0.0 0.0 0.0
000160 00 00 00 00 00 00 00 00 00 00 00 00 00 00 00 00
       0.0 0.0 0.0 0.0
000170 00 00 00 00 00 00 00 00 00 00 00 00 00 00 00 00
       0.0 0.0 0.0 0.0
000180 00 00 00 00 00 00 00 00 00 00 00 00 00 00 00 00
       0.0 0.0 0.0 0.0
000190 00 00 00 00 00 00 00 00 00 00 00 00 00 00 00 00
       0.0 0.0 0.0 0.0
0001a0 00 00 00 00 00 00 00 00 00 00 00 00 00 00 00 00
       0.0 0.0 0.0 0.0
0001b0 00 00 00 00 00 00 00 00 00 00 00 00 00 00 00 00
       0.0 0.0 0.0 0.0
0001c0 00 00 00 00 00 00 00 00 00 00 00 00 00 00 00 00
       0.0 0.0 0.0 0.0
0001d0 00 00 00 00 00 00 00 00 00 00 00 00 00 00 00 00
       0.0 0.0 0.0 0.0
0001e0 00 00 00 00 00 00 00 00 00 00 00 00 00 00 00 00
       0.0 0.0 0.0 0.0
0001f0 00 00 00 00 00 00 00 00 00 00 00 00 00 00 00 00
       0.0 0.0 0.0 0.0
000200 00 00 00 00 00 00 00 00 00 00 00 00 00 00 00 00
       0.0 0.0 0.0 0.0
000210 00 00 00 00 00 00 00 00 00 00 00 00 00 00 00 00
       0.0 0.0 0.0 0.0
000220 00 00 00 00 00 00 00 00 00 00 00 00 00 00 00 00
       0.0 0.0 0.0 0.0
000230 00 00 00 00 00 00 00 00 00 00 00 00 00 00 00 00
       0.0 0.0 0.0 0.0
000240 00 00 00 00 00 00 00 00 00 00 00 00 00 00 00 00
       0.0 0.0 0.0 0.0
000250 00 00 00 00 00 00 00 00 00 00 00 00 00 00 00 00
       0.0 0.0 0.0 0.0
000260 00 00 00 00 00 00 00 00 00 00 00 00 00 00 00 00
       0.0 0.0 0.0 0.0
000270 00 00 00 00 00 00 00 00 00 00 00 00 00 00 00 00
       0.0 0.0 0.0 0.0
000280 00 00 00 00 00 00 00 00 00 00 00 00 00 00 00 00
       0.0 0.0 0.0 0.0
000290 00 00 00 00 00 00 00 00 00 00 00 00 00 00 00 00
       0.0 0.0 0.0 0.0
0002a0 00 00 00 00 00 00 00 00 00 00 00 00 00 00 00 00
       0.0 0.0 0.0 0.0
0002b0 00 00 00 00 00 00 00 00 00 00 00 00 00 00 00 00
       0.0 0.0 0.0 0.0
0002c0 00 00 00 00 00 00 00 00 00 00 00 00 00 00 00 00
       0.0 0.0 0.0 0.0
0002d0 00 00 00 00 00 00 00 00 00 00 00 00 00 00 00 00
       0.0 0.0 0.0 0.0
0002e0 00 00 00 00 00 00 00 00 00 00 00 00 00 00 00 00
       0.0 0.0 0.0 0.0
0002f0 00 00 00 00 00 00 00 00 00 00 00 00 00 00 00 00
       0.0 0.0 0.0 0.0
000300 00 00 00 00 00 00 00 00 00 00 00 00 00 00 00 00
       0.0 0.0 0.0 0.0
000310 00 00 00 00 00 00 00 00 00 00 00 00 00 00 00 00
       0.0 0.0 0.0 0.0
000320 00 00 00 00 00 00 00 00 00 00 00 00 00 00 00 00
       0.0 0.0 0.0 0.0
000330 00 00 00 00 00 00 00 00 00 00 00 00 00 00 00 00
       0.0 0.0 0.0 0.0
000340 00 00 00 00 00 00 00 00 00 00 00 00 00 00 00 00
       0.0 0.0 0.0 0.0
000350 00 00 00 00 00 00 00 00 00 00 00 00 00 00 00 00
       0.0 0.0 0.0 0.0
000360 00 00 00 00 00 00 00 00 00 00 00 00 00 00 00 00
       0.0 0.0 0.0 0.0
000370 00 00 00 00 00 00 00 00 00 00 00 00 00 00 00 00
       0.0 0.0 0.0 0.0
000380 00 00 00 00 00 00 00 00 00 00 00 00 00 00 00 00
       0.0 0.0 0.0 0.0
000390 00 00 00 00 00 00 00 00 00 00 00 00 00 00 00 00
       0.0 0.0 0.0 0.0
0003a0 00 00 00 00 00 00 00 00 00 00 00 00 00 00 00 00
       0.0 0.0 0.0 0.0
0003b0 00 00 00 00 00 00 00 00 00 00 00 00 00 00 00 00
       0.0 0.0 0.0 0.0
0003c0 00 00 00 00 00 00 00 00 00 00 00 00 00 00 00 00
       0.0 0.0 0.0 0.0
0003d0 00 00 00 00 00 00 00 00 00 00 00 00 00 00 00 00
       0.0 0.0 0.0 0.0
0003e0 00 00 00 00 00 00 00 00 00 00 00 00 00 00 00 00
       0.0 0.0 0.0 0.0
0003f0 00 00 00 00 00 00 00 00 00 00 00 00 00 00 00 00
       0.0 0.0 0.0 0.0

convolutions.0.weight f4 [200, 1, 3, 100]
000000 91 b8 db bd 18 f0 86 3d ad 7b 1b 3d 91 12 45 bd
       -0.107285626 0.06588763 0.037959743 -0.04811341
000010 8b c8 63 bd a5 7c 2a 3d d5 9e 6e 3d 8c e1 90 bd
       -0.055611175 0.041622777 0.058256943 -0.0707427
000020 aa d7 0a 3e ca 7c 0d bc 6b 70 85 bd 68 e8 a8 39
       0.13558832 -0.008635709 -0.06515583 0.00032216613
000030 6a b6 a7 bd 23 8c be bd 94 17 c6 3c 9d d7 07 3e
       -0.081890896 -0.09304073 0.024181165 0.13265844
000040 20 d7 07 bb f4 b3 a9 bc 6e 0d 80 3c 97 66 fc 3d
       -0.002072759 -0.020715691 0.015631404 0.12324255
000050 94 77 17 bb 26 43 e1 3d 07 b0 30 bd 89 c5 6f bd
       -0.0023112046 0.10999136 -0.043136623 -0.058537994
000060 55 e5 bb 39 31 c1 29 3d 9a d4 9b 3d ac bc 2d bd
       0.00035838285 0.041444007 0.0760891 -0.04241626
000070 ef 66 9e bd 1c e6 a2 bd 71 d9 a5 3d c5 38 2b 3e
       -0.07734477 -0.07954046 0.08098114 0.16720875
000080 e6 a4 e6 3d 76 4d 02 3d 8e d7 66 bd a4 0c fe bc
       0.11261921 0.031812154 -0.056357913 -0.031011887
000090 92 dd ec 3c 96 47 40 3c aa 47 13 3c 00 aa 03 3d
       0.028914247 0.011735817 0.008989254 0.032144547
0000a0 46 4c b7 3b 02 6b 60 bc a6 33 08 bd 6c 5a 02 3d
       0.0055938093 -0.013697388 -0.03325238 0.031824514
0000b0 7e a0 b5 3c e9 7e 14 be e5 df e9 3c aa 7f 1c bd
       0.022171255 -0.14501537 0.028549144 -0.038207687
0000c0 59 f4 8a 3b cc f3 08 3a 55 37 5e bd ff c7 dd bb
       0.0042405543 0.0005224317 -0.054251987 -0.006768226
0000d0 e6 20 b5 3d b8 c6 2a 3e 07 dd ad 3c 4c 7f 0a 3d
       0.088441655 0.16677368 0.021223558 0.033812806
0000e0 cb 9b 05 3e 4a 5b e7 3c 2f 7a 82 3c d8 29 b3 bd
       0.13047712 0.028241772 0.015927402 -0.087482154
0000f0 05 9d 27 3d 03 4f 98 3d 51 c7 1a 3d 70 e1 23 be
       0.04092123 0.07436945 0.03778774 -0.16003966
000100 bc 5e 45 bb 5e f9 be 3c 27 42 2f bc 27 a1 14 be
       -0.003011628 0.023312267 -0.010696924 -0.145146
000110 5b ba 08 3e 65 75 29 3e 73 8e 0b 3d 4c 30 cc 3d
       0.13352339 0.16548689 0.034071397 0.099701494
000120 2a ca fe bd c7 03 94 3b 97 12 09 be e8 50 13 bd
       -0.124409035 0.004517052 -0.13385998 -0.03596583
000130 a8 c8 bb 3d a4 c6 b2 3d 86 aa e8 3d 38 16 49 bc
       0.091691315 0.08729294 0.1136065 -0.012273364
000140 a8 db 2d 3e f4 b9 ed 3c 3f 2e 3a bc 6e b2 30 be
       0.16978323 0.029019333 -0.011363565 -0.17255566
000150 b1 5f 04 3e 6f db ef 3d c4 8d 21 3c a0 04 5c 3d
       0.12927128 0.117117755 0.00986046 0.05371535
000160 09 3a 86 ba 6d ca f1 bd 4b 11 92 bd df 33 16 bc
       -0.0010240684 -0.11806188 -0.071322046 -0.0091676405
000170 4a 8f e0 bc 7e cb 27 3c 94 11 d9 bc 50 f5 1b 3d
       -0.027412076 0.010241387 -0.02649764 0.038075745
000180 57 be 21 3c bb 98 16 bd ba d6 01 3e 64 f6 09 be
       0.009872041 -0.03676675 0.12679568 -0.13472897
000190 c8 1f 23 3e 7f 99 e5 3d 63 90 af bc 62 2f 0f bd
       0.15930092 0.11210918 -0.021431154 -0.034957297
0001a0 6c 4f 18 3e 7c 9f e7 3d 13 22 0b bc ab 09 95 3b
       0.14874047 0.11309716 -0.008492011 0.0045482717
0001b0 1f ec 00 bd eb 70 ce bd 7c 9c 07 bd 3d 68 d4 3d
       -0.031475183 -0.10080131 -0.03310822 0.103714444
0001c0 67 bb 16 3c b9 fd cc bd fc a9 c6 3d 53 c1 9e bc
       0.009199954 -0.10009331 0.09700391 -0.019379294
0001d0 1b dc 33 bc 8a 1a 8c 3d 47 ef 0a 3e 35 c0 f1 ba
       -0.01097777 0.068409994 0.1356784 -0.0018444123
0001e0 69 53 b6 bc 7b 28 95 3d 3a 0a 76 ba fa a4 a5 3d
       -0.02225657 0.07283112 -0.0009385679 0.080881074
0001f0 f9 c8 67 bd 57 44 3d bd b0 6f ea 3c 5d fc cc bc
       -0.056588147 -0.046207752 0.02861771 -0.02502268
000200 9b 18 3f 3b cc 1e 83 bc e5 6d aa bd cd f2 9c bd
       0.0029158953 -0.016005896 -0.08321742 -0.07663498
000210 87 3e c9 3b c5 d9 25 3e b0 fd d0 bc 24 78 ab 3c
       0.006141487 0.16196354 -0.025511593 0.020931311
000220 7d f7 b5 bc 2d 61 a1 3c 02 c4 ca bc 0a a5 80 bd
       -0.022212738 0.019699657 -0.024751667 -0.06281479
000230 9b 60 36 3c e4 4a e1 bd dd ec 46 bd 6a 33 f2 3d
       0.011131431 -0.110006124 -0.048565734 0.11826213
000240 ba cb f7 bd f5 37 2a bd aa be 07 bd b6 88 f2 3b
       -0.12099405 -0.04155727 -0.033140816 0.007401551
000250 a2 d4 06 bd 6b ac 7b 3b 69 c7 4c 3c 84 fa 3e bb
       -0.032917626 0.003840233 0.012498715 -0.0029141018
000260 47 ac ed 3d a2 dc ba 3d 75 e4 23 3d d0 20 79 3d
       0.11605125 0.091241136 0.040012795 0.060822308
000270 15 82 1d 3d eb 52 31 3d 35 0e 65 3d bd 57 7a 3d
       0.038454134 0.043291967 0.055921752 0.06111883
000280 57 e8 ca bd 80 1b 3f bd ff ef a1 bc 65 0d 83 3d
       -0.099075966 -0.046657085 -0.01976776 0.06399039
000290 6f cc f0 bc 00 f0 ef bc 93 4f 93 bd b7 9a 85 bd
       -0.029394357 -0.029289246 -0.07192912 -0.0652365
0002a0 45 c0 39 3d 97 47 61 bd 1d e8 d6 3d 8d 26 d9 bd
       0.04534938 -0.054999914 0.10493491 -0.10603056
0002b0 df 4b b4 3d 39 b9 a4 3d a4 69 fc 3b ed f1 d9 3d
       0.08803534 0.08043141 0.007703023 0.10641847
0002c0 fe aa 3c be 29 53 17 bd cc b5 04 be b6 fc 83 3d
       -0.18424603 -0.036944542 -0.12959975 0.06444685
0002d0 6b 9e a6 3d 6d 34 c0 bd 88 8a 84 bc 24 a7 98 3c
       0.081356846 -0.093849994 -0.016179338 0.018634386
0002e0 bc ee 4f 3b a3 13 9a bd 2a ef 1d be ff 50 88 3c
       0.003172799 -0.07523277 -0.15423265 0.016640184
0002f0 d0 db 05 bd 15 c1 85 3b 39 c2 11 bd 3f 08 b3 3d
       -0.032680333 0.004081855 -0.035585616 0.08741807
000300 a4 1c 13 be 6b e7 12 3d 79 c4 08 3d 63 f6 05 be
       -0.14366394 0.03586523 0.033390496 -0.1308227
000310 ad d4 40 bd 45 3b f6 3c 69 c1 b4 bd 4a c5 e2 3d
       -0.047077823 0.030057559 -0.088259526 0.11072786
000320 dc fe cb bd 1c 54 4f bd 07 14 80 3c cd f8 87 3c
       -0.0996072 -0.050617322 0.01563455 0.01659813
000330 fb 9c ba bc 9e e2 92 bd b0 50 29 3d 5e 34 65 3d
       -0.022779932 -0.0717213 0.041336715 0.055958144
000340 69 7b c6 3d 7b 93 5d bd 2f 9a 24 bd 1b 47 95 bc
       0.09691507 -0.054095726 -0.040186103 -0.018222382
000350 a8 70 75 bd 7d e7 68 bd 72 61 61 bb 88 7c 2f bd
       -0.05992189 -0.05686139 -0.0034390357 -0.04284337
000360 c4 81 8c bd ed e6 9d bd 57 2e 19 3e e4 e6 9e bc
       -0.06860688 -0.07710061 0.14959083 -0.019397207
000370 5d 61 0b bd 68 67 10 bd 0c 0b 9c bc e9 7b 96 bd
       -0.0340284 -0.035254866 -0.019048236 -0.07347853
000380 4d 4f c5 3c e2 80 23 3d c4 1e d5 bd 7b 54 03 bb
       0.024085665 0.039917834 -0.10406259 -0.0020039368
000390 b6 28 d2 3d 63 85 3d 3c b3 f9 d9 3d 80 5e 40 bd
       0.10261671 0.011567446 0.106433295 -0.046965122
0003a0 63 5c f2 3d 43 2e 80 ba c2 93 eb 3b e2 db 1d 3e
       0.118340276 -0.0009779412 0.007189245 0.1541591
0003b0 15 67 43 bd 3d a0 0e 3e 17 13 07 bd 38 fd 09 be
       -0.04770573 0.13928314 -0.03297719 -0.13475502
0003c0 02 e5 83 3d 38 92 b4 3d 52 0d c1 3d 70 e1 37 bd
       0.06440164 0.088169515 0.09426369 -0.04489273
0003d0 28 fe 43 bb 7d 06 51 3d 92 0c b1 bc 39 52 78 3b
       -0.0029906128 0.05103158 -0.02161244 0.0037890805
0003e0 db 25 e7 3d fd ce 22 be 75 d9 14 bd cf 79 52 3d
       0.11286517 -0.15899272 -0.036340196 0.051385697
0003f0 0e 94 c4 bd ef f0 a0 3d 6c 0a ec bb b7 d5 18 bd
       -0.09598552 0.078584544 -0.007203391 -0.03731319

convolutions.0.bias f4 [200]
000000 97 d1 58 bd 19 ab af bd e2 1a 07 bc 10 4c 85 3d
       -0.052934255 -0.08577556 -0.008246155 0.065086484
000010 1b 98 80 bb 47 58 0a be 9e 4b 03 bb 06 b4 ff bd
       -0.0039243824 -0.13510238 -0.0020034085 -0.124855086
000020 26 52 68 bd be 4e 16 3e 8e 77 56 bd d7 1b 29 bd
       -0.056718968 0.14678475 -0.05236011 -0.041286316
000030 e2 43 ef bb df da 68 bd d4 e0 a1 bd 4c 18 45 3c
       -0.0073017934 -0.056849357 -0.07904211 0.012029719
000040 aa 55 64 bd 12 9e 87 bd be 16 e5 bb 88 c5 24 bd
       -0.055745758 -0.066219464 -0.0069912365 -0.040227443
000050 c8 a9 25 bd c8 f0 53 bd 85 c1 77 bc 41 d5 a9 3d
       -0.04044512 -0.0517433 -0.015121822 0.08292628
000060 96 67 9e bb 1d 38 8f bd 58 60 93 bd 7d 49 52 bc
       -0.0048341257 -0.06993125 -0.071961105 -0.012834904
000070 e2 4d 81 bd 82 d4 91 bb 78 71 c7 bd de 88 46 bd
       -0.06313683 -0.0044503817 -0.09738439 -0.04847037
000080 78 15 2b bc 4d 0b 97 bb ff fc 55 bc f0 bb d6 bc
       -0.01044213 -0.0046095015 -0.013060807 -0.026212662
000090 35 29 0a be 1f 1f bc bc b5 9f be bc d8 ec 8c 3d
       -0.13492282 -0.022964058 -0.023269514 0.06881112
0000a0 63 78 ff 3c 99 89 5f bd 30 15 ac bd 6b 1f b3 bd
       0.031185335 -0.054574583 -0.08402479 -0.08746227
0000b0 19 0f ad bc 5d 40 6a bb 77 f4 0b bd 63 2e 97 bd
       -0.021125363 -0.003574393 -0.034168687 -0.073818944
0000c0 90 2b a2 3d f3 6b 41 bd 7a 56 cc 3a e9 42 2f bd
       0.07918465 -0.04722209 0.0015589737 -0.04278842
0000d0 d7 51 af bd 3d bb 2a bd dd 8b 0c 3d e9 de c9 bd
       -0.085605316 -0.04168247 0.03431307 -0.0985697
0000e0 b9 76 a4 bc 07 f9 cd bd 10 f9 06 bb e6 8c 11 bc
       -0.020076143 -0.10057264 -0.002059523 -0.00888369
0000f0 94 c6 60 ba ec 1d f0 b7 d3 dc 08 3e 76 fb 82 3d
       -0.00085745123 -2.8624163e-05 0.13365488 0.063956186
000100 f1 2a 4f 3d b9 23 9c 3d 22 43 ef b9 a9 1d 56 3d
       0.05057806 0.07624001 -0.0004563565 0.05227438
000110 32 35 2a bd 59 ac a8 3d 23 4f e0 bc 3f 91 a5 bc
       -0.041554637 0.08235998 -0.027381485 -0.02021086
000120 1f d9 4b bc 59 bf 83 bd eb 00 01 be 22 a5 b8 bd
       -0.012441902 -0.06432981 -0.12598006 -0.090158716
000130 6f 12 ec bc ad 5c 8d bd 28 af 04 be e6 5b bb bc
       -0.028817384 -0.06902442 -0.12957442 -0.022870969
000140 93 52 20 b9 b8 40 27 bd 69 ab 88 bc 2d 00 02 be
       -0.0001528955 -0.040833205 -0.016683297 -0.1269538
000150 58 77 8e bd 8e 80 82 bd 99 02 76 bb da ea a1 bd
       -0.06956357 -0.06372176 -0.003753817 -0.079061225
000160 82 dd a2 bd f8 5a 87 bd 64 73 ef bc 80 41 ac ba
       -0.079524055 -0.06609148 -0.029229827 -0.0013142079
000170 fc af 9d bd 3c 9c b1 3d 3b 5a 28 bd 38 b2 b7 bc
       -0.07699582 0.086723775 -0.041101675 -0.022423849
000180 17 0f 87 ba 70 71 64 bd 35 ef e6 3d b7 d7 a8 bb
       -0.001030418 -0.055772245 0.11276094 -0.0051526683
000190 2a 9c 65 3d 52 39 23 bb 49 a4 a3 bd 02 12 cd bd
       0.056057133 -0.0024905992 -0.07990319 -0.100132
0001a0 04 a5 0a bb a2 25 c2 bd 74 98 98 3d 6e 23 21 bd
       -0.0021155486 -0.09479834 0.07450953 -0.03934043
0001b0 d0 17 17 be 6a 6d 0a be e2 96 88 bd db 53 b1 bd
       -0.14755177 -0.135183 -0.066694036 -0.08658572
0001c0 ad 33 f1 bc 5c 52 ac 3d 16 38 04 3e 5a f0 e0 bd
       -0.029443586 0.08414146 0.1291202 -0.109833434
0001d0 93 8f d0 bb e4 49 9d bb 13 45 af bb 66 7d 25 3d
       -0.0063647716 -0.004800068 -0.0053488105 0.040402792
0001e0 53 f7 cd bc 40 87 99 3c 41 90 86 bb 14 5a 59 3d
       -0.025142347 0.01874125 -0.004106552 0.05306442
0001f0 65 81 3e bd a6 26 a1 bd 4a 77 ee bb 64 10 30 bd
       -0.04651012 -0.078687 -0.007277404 -0.04298438
000200 ba 7f ff ba 3b 3c 56 bc 5a 7c 6e 3d da cf c2 bd
       -0.0019493022 -0.0130758835 0.05822406 -0.09512301
000210 4b cc d8 bd 25 ec 83 bd 93 da 14 bd 80 de f6 bd
       -0.10585841 -0.06441525 -0.03634126 -0.12054157
000220 86 f2 f0 3d 93 cf b4 bd c4 35 bc bc 6e 0b 82 bd
       0.11765008 -0.08828654 -0.022974856 -0.06349836
000230 33 39 62 bc e9 7b aa 3d f2 b9 f3 3d f8 75 fe 3d
       -0.013807583 0.08324415 0.11900701 0.124248445
000240 32 fb 45 bd bc 25 f0 bc 52 64 b1 3c d1 1d 60 bd
       -0.04833526 -0.029314868 0.021654282 -0.054715935
000250 ef e6 87 bd 44 87 4f bb db e3 9d bd c8 8b 0d bd
       -0.06635844 -0.0031666318 -0.077094756 -0.034557134
000260 2d 0c ce bd 34 99 0c 3d 1c 17 84 bd 42 40 b3 bb
       -0.10060916 0.034325793 -0.0644972 -0.0054703066
000270 e6 fd 96 3b b5 79 94 bc 42 ee 9b bd 72 8c 70 bb
       0.004607904 -0.01812444 -0.076138034 -0.0036704806
000280 cf fe b1 bd fb 26 f3 bd 57 fd 66 bc 1b 50 04 bd
       -0.08691179 -0.11872669 -0.014098487 -0.032302957
000290 86 e6 1a bd 82 92 40 bd d6 b4 27 bd 3b 76 41 bc
       -0.0378175 -0.04701472 -0.040943943 -0.0118079735
0002a0 66 2a f3 3c be 44 7d bc e6 20 66 3d 51 dc f0 bd
       0.029683303 -0.015458284 0.05618372 -0.11760772
0002b0 c3 50 54 3d 8d b4 a0 bb 85 2e de bd 92 d2 be bb
       0.051834833 -0.004904336 -0.10848717 -0.005823442
0002c0 5c cd 8b 3c d8 92 82 bd 1a d4 b6 bd e5 cd cd bc
       0.017065696 -0.063756645 -0.08927174 -0.025122592
0002d0 08 53 f2 bd 68 37 b0 3c 49 3e 7f bd 2e 87 46 bb
       -0.11832243 0.021510795 -0.06231526 -0.0030292976
0002e0 99 0c c1 bc b8 9b f9 bd bc 34 82 bd ca 65 e9 bc
       -0.023565577 -0.12187904 -0.063577145 -0.02849092
0002f0 db 20 da bd 9c 32 f5 bd ff 2b 99 3a 56 0d 6e 3b
       -0.10650798 -0.119725436 0.0011686085 0.0036323867
000300 a4 01 02 be aa 07 6b bb 86 0e 9f 3d 60 59 59 bd
       -0.12695938 -0.0035862722 0.07766442 -0.05306375
000310 23 b1 d1 b9 a5 84 84 3d 2e 9d e0 bd 76 d4 d5 3c
       -0.00039995564 0.064706124 -0.1096748 0.026102286

linear_layers.0.weight f4 [100, 200]
000000 b9 e6 1d 3d 93 09 64 3d 06 fa a7 be b1 19 da 3d
       0.038550112 0.055673193 -0.3280794 0.106494315
000010 5a e8 d9 3d 93 30 de 3d 66 dd 4c be a8 1b aa 3d
       0.10640021 0.108491085 -0.20006332 0.08306056
000020 7a aa 10 be 34 80 d8 3c 2b c5 66 bd 5e 38 bc bd
       -0.14127532 0.02642832 -0.056340378 -0.09190439
000030 c4 32 c7 bc a7 fe 4f 3d 94 1e 50 3d 1a da b0 bd
       -0.0243162 0.050779965 0.05081041 -0.086353496
000040 d2 67 17 3d 02 80 94 3d 58 8e cc bd 9f ee a3 3c
       0.036964245 0.07250978 -0.099880874 0.020011244
000050 45 7a 79 3d 29 ef ba bd 58 7f f9 bd d8 de e5 3d
       0.06090762 -0.091276474 -0.12182492 0.11224145
000060 4c c8 1f be 1a 89 04 3c 53 45 e5 3d 53 a5 20 bd
       -0.15603751 0.008089328 0.11194863 -0.039220165
000070 d7 58 97 3d b1 86 39 be ee 82 f0 3d b9 a4 d2 3d
       0.07389992 -0.18117787 0.11743723 0.102853246
000080 cc a5 07 3d dd 38 4b be 30 99 9f bd f2 9f 3d 3e
       0.0331171 -0.1984591 -0.0779289 0.18518046
000090 14 15 22 3e 55 6c e6 bd b4 74 81 bd f0 a9 dc 3c
       0.15828353 -0.112511314 -0.063210875 0.026936501
0000a0 ab 82 d0 3d 88 21 34 3d 77 3b 84 3d 15 ef 6f 3d
       0.10181173 0.04397729 0.064566545 0.058577616
0000b0 cb 1a 04 be 1e c9 67 be da 07 bb 3d 71 3b 89 bc
       -0.12900846 -0.22635314 0.09132357 -0.016751977
0000c0 b8 70 6c 3d a7 9c 35 be 28 70 9a 3b 16 35 0e be
       0.057724684 -0.1773554 0.004713077 -0.13887438
0000d0 d2 a0 c2 3d 85 bb a8 bd 30 4f e0 3c c1 88 2e 3d
       0.0950333 -0.082388915 0.02738151 0.042610887
0000e0 ed 47 60 bc ef 48 15 3e 5d 97 fc 3d df 1f b3 3d
       -0.013689023 0.14578603 0.12333558 0.08746313
0000f0 02 21 f0 3a 71 89 52 be d0 2a 63 3d 2c 47 c7 3d
       0.0018320384 -0.20560242 0.05546075 0.09730372
000100 a7 fa 96 bd ea 57 9d 3d 75 04 60 be 18 23 2e be
       -0.07372027 0.07682784 -0.218767 -0.17005575
000110 e3 46 a0 3d f1 78 de 3d 38 a9 5e be ba cf 28 be
       0.078260206 0.108629115 -0.2174424 -0.16485491
000120 a1 bc 07 3e aa e5 1d 3e b7 54 00 3d 94 cd f0 3d
       0.1325555 0.15419641 0.03133079 0.11757961
000130 82 f7 cd 3d fa b1 91 bc 78 25 a6 3d 2f 87 cf 3d
       0.10056974 -0.017785061 0.08112615 0.10133206
000140 a5 7f a9 bd 82 ad 03 be 20 77 33 3a 4c 0d fd 3d
       -0.082762994 -0.12859157 0.0006846059 0.12356052
000150 69 69 df bc 64 5c 62 b8 17 b0 91 bd 83 2f 36 3e
       -0.027271943 -5.3968644e-05 -0.071136646 0.17791562
000160 46 86 63 3d ee 0d 96 3d d8 9b d9 3d ea 6e 1f be
       0.055547975 0.073268756 0.10625428 -0.15569654
000170 3b db e6 ba 43 58 6e bc bf a0 3b 3d 2f cc 80 3d
       -0.0017612943 -0.01454741 0.045807596 0.06288945
000180 76 e4 04 be fd 75 67 3d b0 25 1f 3d fd d6 cd bd
       -0.12977776 0.056509007 0.0388543 -0.100507714
000190 57 8b 21 3d cf 5e d7 bd 29 03 f8 3d 1e 73 5f 3c
       0.039439525 -0.1051613 0.12109978 0.013638286
0001a0 6e 02 8f be 41 0c d6 3c 92 40 8f 3c 9f 75 ba bd
       -0.2793154 0.02612889 0.017486844 -0.09104466
0001b0 9e c0 cd 3d 11 08 8d 3d 17 0a c9 3d 61 fa 85 3d
       0.100465044 0.06886304 0.098163776 0.065418966
0001c0 ef 82 c5 3d f4 d4 95 3d 2d ba 70 3e a4 42 90 bd
       0.09644114 0.07316008 0.2350852 -0.07043961
0001d0 f4 ab fd bc e9 ba ff 3c 68 a1 d5 3c 97 10 fa 3d
       -0.030965783 0.031217055 0.026077941 0.122101955
0001e0 54 ea 14 3d f9 8a fa bc 14 f6 b3 bd e5 8c e8 3d
       0.036356285 -0.030583845 -0.0878717 0.113549985
0001f0 3a ac 22 3e 37 f7 0b 3e 32 80 2f 3e 12 20 90 3c
       0.15886012 0.13668524 0.17138746 0.017593417
000200 64 d3 27 be e0 02 08 bd a1 6e 47 bc 47 5b 53 bd
       -0.16389233 -0.033205867 -0.012172372 -0.05160072
000210 18 e0 60 3d b9 c3 7c 3c 61 78 e2 3d c0 f6 76 bd
       0.054901212 0.015427523 0.11058117 -0.060293913
000220 41 08 9f 3d b6 50 ae bd 3a 99 9f 3d c2 7e 0c bd
       0.07765246 -0.08511488 0.077928975 -0.034300573
000230 36 0b 24 3d c8 4a 9e 3d b1 2f 6f 3d df 67 9e 3d
       0.040049754 0.07729107 0.05839509 0.077346556
000240 11 41 62 3d 5e 1d 93 bd c9 b0 2a 3e e0 61 2a 3e
       0.055237833 -0.07183336 0.16669 0.16638899
000250 a6 fe 87 3d 74 87 d3 bd bf a9 f4 3d 4c 71 e9 3d
       0.06640367 -0.1032857 0.11946439 0.11398563
000260 8e 69 92 bd 41 2b 1a 3e 98 df c8 3d 55 9e a6 bd
       -0.07149039 0.15055563 0.09808272 -0.08135668
000270 78 d7 95 3d 3a a9 77 bd 6a d9 18 3e 21 9d fa bd
       0.07316488 -0.06046412 0.14926687 -0.12237001
000280 69 6c 05 3e ef 02 66 3c a0 91 4f 3d 10 f7 d4 3d
       0.13029636 0.014038785 0.05067599 0.10398686
000290 ec 65 05 3e 37 d9 94 3d 0f 0c cd 3d 77 7e 0c 3e
       0.13027161 0.07267993 0.100120656 0.13720118
0002a0 3c 56 0c 3e 51 74 33 be b0 99 fb 3d ee 2b b7 3c
       0.13704771 -0.1752484 0.12285173 0.022359814
0002b0 8b ed f7 3d 93 19 35 be 39 0b 6b bd 1b b7 1e be
       0.121058546 -0.17685537 -0.05738375 -0.15499537
0002c0 10 1c 7f 3d 46 7a 91 bd 9c 8d 53 bd 4d 5d 93 bd
       0.06228262 -0.071034 -0.05164872 -0.0719553
0002d0 e3 a7 42 bd 6f 7f a3 bb 1e 19 de 3d 70 3a ff bd
       -0.04752339 -0.0049895565 0.108446345 -0.12462318
0002e0 36 d0 1c 3e 20 97 ca 3c 12 ea 31 3c 93 b2 7b ba
       0.15313801 0.024730265 0.010859029 -0.00096015
0002f0 20 ed 9d 3d f7 e1 df 3d 40 58 e0 bd 15 d4 f7 3c
       0.07711244 0.10931771 -0.10954332 0.030252496
000300 7c d7 94 3d f7 7b 24 3e a3 03 3f 3d de e7 c0 3b
       0.07267663 0.16062914 0.046634328 0.0058870157
000310 24 b2 09 be b5 24 42 be 2d e2 eb 3c ac 9f 09 3e
       -0.13446862 -0.18959315 0.028794372 0.13439816
000320 ab c0 74 3c 77 da 40 3d a3 4a 4f be ee 95 c6 3c
       0.014938514 0.047083344 -0.20243315 0.024241414
000330 2a ed 7c be f6 6f bb 3c 10 39 a9 3c 9c a6 ff 3d
       -0.24699846 0.022880536 0.020657092 0.1248295
000340 bf 51 9a 3d 35 3b 29 bd 41 87 70 3d b1 0a a4 3e
       0.07535123 -0.04131623 0.05872274 0.32039407
000350 ae 86 cd bd 9c c1 cc 3d e1 f6 85 3e 08 9a 05 3d
       -0.10035454 0.099978656 0.26164916 0.0326176
000360 06 40 86 3e ec fb f3 3d 35 a7 d8 bd 63 27 83 3d
       0.2622072 0.11913285 -0.10578767 0.06403997
000370 d3 93 e2 3d b0 62 4e 3e 0a 9a ed bc 72 aa 3a 3c
       0.110633515 0.20154834 -0.029004116 0.011393176
000380 21 9a 34 bd 00 5d 13 be 38 95 35 bb 29 db 88 3e
       -0.0440923 -0.14390945 -0.002770735 0.26729706
000390 bb d0 8d 3d bf ff 53 be ac ea b1 3c dc 66 4e 3e
       0.06924578 -0.20703028 0.021718346 0.20156425
0003a0 b3 02 40 3e 10 b8 e4 bd 72 52 22 3e 2d 83 bd 3d
       0.1875103 -0.1116792 0.15851763 0.092535354
0003b0 48 fc 4a 3e 1c 83 cb 3b 9b d6 de 3d 8a a0 16 bd
       0.198228 0.006210698 0.108807765 -0.036774196
0003c0 53 8d e6 ba 18 a7 8b 3d 44 b2 07 3e f1 b5 e4 bc
       -0.0017589725 0.0681898 0.13251597 -0.027918788
0003d0 60 cd 92 3d 35 ce c8 3b ba 99 1d 3e 25 c3 fb 3d
       0.071680784 0.0061280974 0.15390673 0.1229308
0003e0 c9 e4 ef 3b d4 a2 a2 3b a8 3b 44 be 2a 29 86 3e
       0.0073209745 0.0049632583 -0.19163382 0.2620328
0003f0 73 3c f4 bb 2f 4e 13 3e a8 2e 75 3d 37 1d 0a 3e
       -0.007453495 0.14385293 0.059858948 0.13487707

linear_layers.0.bias f4 [100]
000000 2c 3f 3c 3c 18 8f 97 bd b1 7a 30 bd 18 b4 89 3d
       0.011489671 -0.0740034 -0.043085758 0.06723803
000010 9a 01 b4 bc 58 ec c4 3d 5e 43 c3 bc 44 ea e2 3a
       -0.02197342 0.096153915 -0.023835834 0.0017312248
000020 51 0a 38 bd 9d 4f 29 bd 67 d8 84 bd b1 a1 d5 bd
       -0.044931713 -0.04133569 -0.06486588 -0.10431231
000030 cc d4 ae 3c 43 06 8f 3c 4a e4 36 3e 4a d2 41 3c
       0.021341704 0.01745904 0.17860523 0.011829922
000040 1f 7e ba bc 15 cb 26 bc 28 7c 5e bd 8e 26 13 3e
       -0.022765217 -0.0101802545 -0.054317623 0.14370176
000050 47 6c f8 bd 4c 84 03 bc b4 d8 ad 3d 93 42 94 bd
       -0.12130027 -0.0080271475 0.084885985 -0.072392605
000060 e5 6f ba 3d be 1c fa bc 10 25 f4 3d 60 b0 d9 bc
       0.091033734 -0.030531283 0.119211316 -0.02657336
000070 1b 2f dd 3d 5e 37 c7 bd c3 bb b4 bc 6a e3 63 bc
       0.108 -0.09727357 -0.022062188 -0.0139092
000080 7a 2c 5a bb da 85 8e bc a3 83 90 3d d2 63 ce bb
       -0.003329067 -0.01739781 0.07056358 -0.0062985206
000090 9e d4 ba 3d 00 cf 44 3a 0c c6 06 3c b3 9d 7f 3d
       0.09122585 0.0007507652 0.008225929 0.062406253
0000a0 42 71 8a 3c 53 b9 87 3d 6c 7f f9 3c 68 83 8c bd
       0.016899709 0.06627145 0.030456267 -0.06861001
0000b0 b0 14 ef 3b 20 db ae 3b 10 e5 a0 bb da b0 a1 bd
       0.0072961673 0.0053361803 -0.004910119 -0.0789506
0000c0 62 19 7f bd b2 6a 21 bd 08 15 03 3c d0 57 6a bd
       -0.062280066 -0.039408393 0.00800062 -0.05721265
0000d0 17 c3 8c bd cf df cf 3c c8 9f 15 bd a4 61 18 3f
       -0.06873148 0.025375275 -0.036529332 0.5952399
0000e0 f1 37 4f bd e5 db 60 bd bd 94 06 3e c0 53 42 bd
       -0.05059046 -0.054897208 0.13142677 -0.04744315
0000f0 21 d2 6a bd fe 01 4c bd a1 30 a8 3d d0 94 56 3d
       -0.0573293 -0.049806587 0.082124 0.052388012
000100 37 12 86 bc 66 73 85 3d 98 2f 0a 3e fc 07 62 3a
       -0.016366107 0.06516151 0.13494718 0.00086224056
000110 7b 54 7d 3d 4a ea d3 3d 2b 92 69 bd 51 cb 4d 3d
       0.061848145 0.103474215 -0.057024162 0.050242726
000120 ec dd d1 bc 42 5b 52 bd 1d ba b5 3b 1b 18 c5 3e
       -0.025618516 -0.05135656 0.005545868 0.38494954
000130 06 22 13 bd 19 95 4e bd f9 ac c9 3b 3f 31 65 bd
       -0.03592112 -0.05043516 0.006154653 -0.055955168
000140 9b 02 9e bd d3 1d 2c bd 58 09 1c 3e 98 51 03 3e
       -0.07715341 -0.04202063 0.1523794 0.12824094
000150 f3 dd 50 bd e6 cc 9c bc 62 47 88 3d 09 89 96 bc
       -0.050992917 -0.019140672 0.0665424 -0.01837589
000160 5e 11 8e 3c 89 c6 bd 3c c4 18 fc 3a c1 64 f1 3b
       0.017342266 0.023165958 0.0019233455 0.007366747
000170 1b f8 06 3f 69 ec 4c bd 31 5d 21 bc 68 63 d9 3c
       0.5272233 -0.050030146 -0.009848879 0.026536658
000180 92 a7 92 3c ad e1 d5 bd 97 53 bb 39 ca ef fd 3c
       0.01790217 -0.10443435 0.000357297 0.03099813

linear_last.weight f4 [3, 100]
000000 f1 f8 a0 3e 90 30 7a 3c 52 b7 5c bd 53 e8 d9 3e
       0.31439927 0.015270367 -0.053885765 0.42560062
000010 ad 8a 2d be 70 6f 0c 3f c5 13 0b bc 2c c2 91 bd
       -0.16947432 0.5485754 -0.0084886 -0.071171135
000020 34 7c 11 3d b6 42 08 3d 92 0d 5a 3d 7b 05 49 bd
       0.03551884 0.033266746 0.053235598 -0.049077492
000030 13 f5 74 bd f9 70 00 bc f3 af f1 3d 32 e6 42 bc
       -0.059804033 -0.007839435 0.11801138 -0.011895703
000040 b7 39 2c bc 87 21 b6 3c f9 59 d3 bd 48 9f d3 3e
       -0.010511807 0.022232784 -0.10319895 0.4133246
000050 58 4c 45 bd fd 8b da be 3e 8e 13 3f 68 17 c9 3a
       -0.04816851 -0.42684928 0.5763892 0.0015342059
000060 f8 67 d6 3e 78 ee 0f bd 0f d3 c6 3e d0 43 15 3f
       0.41876197 -0.03513953 0.388329 0.583066
000070 6e 4a 5b 3d bc c2 98 bd 48 cd b3 bd fc ec f9 3a
       0.05353778 -0.07459018 -0.08779389 0.0019067819
000080 81 b8 39 3d c8 10 99 bc 3d 67 53 3b 0b c4 80 bd
       0.045341972 -0.01868476 0.003225758 -0.06287392
000090 fa 54 ef 3e fe ff 30 3d a8 e9 58 bd ab 77 8e be
       0.4674452 0.043212883 -0.052957207 -0.27825674
0000a0 9b fb c1 3e b3 9e 9e bd 63 fa d4 3e 02 91 a4 bd
       0.37887272 -0.07745113 0.4159728 -0.080354705
0000b0 aa db 17 be 6a dd 98 3d 08 e8 1c bf 95 76 4c 3b
       -0.14829889 0.074641064 -0.6129155 0.003119861
0000c0 f9 ef 7f 3d 83 2b 18 be b4 3b ab be f6 7e 90 3c
       0.062484715 -0.14860348 -0.33443987 0.017638665
0000d0 46 cd e7 3c cb 79 0a be 1d fa 31 bc e0 85 0f 3f
       0.028296124 -0.13523023 -0.010862854 0.5606365
0000e0 57 95 b9 bd c0 ab 38 3d 64 30 df 3e 86 f5 66 bd
       -0.090616874 0.04508567 0.43591607 -0.056386493
0000f0 24 7c 82 be ba 57 b7 bd da 35 12 3d 8e fd bf bb
       -0.25485337 -0.089522794 0.035695888 -0.0058590835
000100 05 90 44 3b a5 3b a4 bb 59 51 dc 3e 1c 4f 32 3d
       0.002999307 -0.005011993 0.43030813 0.043532476
000110 07 07 0d 3d 6e 63 1b 3f dd d1 86 3b 69 a7 a2 3d
       0.03443053 0.6069859 0.004114373 0.07942087
000120 06 95 0e bd 18 c7 7d bc b1 fd 39 bd 20 12 aa 3e
       -0.03481009 -0.015489362 -0.045407955 0.33216953
000130 34 a8 0c bd d2 7b ab 3d 0c 9e 1b bb 18 7e 52 bd
       -0.0343401 0.08373226 -0.0023745326 -0.051389784
000140 20 4b 5b 3d 6a 51 16 be f5 63 04 3f 84 88 ee 3d
       0.05353844 -0.14679495 0.5171502 0.11647132
000150 6a 91 84 be 95 90 09 be e1 c4 b9 3e 62 a8 d8 3c
       -0.25892192 -0.1343406 0.3628302 0.026447479
000160 40 01 b9 bd e4 8c 05 bd a9 27 ca ba da 8d a1 bd
       -0.090334415 -0.032605067 -0.0015423197 -0.07888384
000170 b0 b9 03 3f b6 56 b4 3d fd db f6 3c 5b 55 3a 3c
       0.5145521 0.08805601 0.030134195 0.011372889
000180 aa b5 9c bd 61 90 60 bd fc ca 48 bd 1a fd 23 3d
       -0.07651837 -0.05482519 -0.049021706 0.0400363
000190 6c a9 28 3d 88 95 30 be d7 a4 07 3e 45 e5 90 3a
       0.0411772 -0.17244542 0.13246475 0.0011054656
0001a0 ca 13 d5 be 6e cf 46 bc 15 a0 3d 3d dd d3 ce bc
       -0.4161666 -0.012134416 0.046295244 -0.025247509
0001b0 96 10 53 3d 98 e6 7f 3d 74 25 fc 3c ec 4c b9 be
       0.05152949 0.06247577 0.030779578 -0.361915
0001c0 2b 7d c7 bd 46 58 87 3c 9e 0b 8c bd 3e 40 7d 3d
       -0.09740671 0.016521584 -0.06838153 0.061828844
0001d0 0b 4e fa bc f6 8c 4e bd 68 e3 db be 67 25 b0 bd
       -0.030554792 -0.0504274 -0.42946935 -0.08600884
0001e0 57 69 f8 be 99 1f 03 bc 0d 47 0e be 1e e1 d5 bc
       -0.48517868 -0.008003139 -0.13894291 -0.02610832
0001f0 d1 dd 42 be 1e 4b 86 be 64 f6 86 bc 5b 8b 1c bc
       -0.19029929 -0.26229185 -0.01647491 -0.009554709
000200 e5 c6 d1 3c b1 a2 bb 3e 12 ca 7c 3d dc 55 0e 3d
       0.025607536 0.3664756 0.061716147 0.03474985
000210 5d 4a 91 3d b8 cd 69 bc 88 94 60 be e9 b6 90 3d
       0.07094262 -0.014270239 -0.2193166 0.07066137
000220 cd 3e 63 bc b0 e4 2d bd f8 85 4b bd aa 07 bd bc
       -0.013869953 -0.04245442 -0.04968831 -0.023074944
000230 ec 91 2d be 40 a6 e6 be 3b dd d7 bd 19 65 9d 3d
       -0.16950196 -0.45048714 -0.10540243 0.076852985
000240 ae d4 c6 be 67 b1 66 bd 3a 3b a8 bc d4 d4 3a 3c
       -0.38834137 -0.056321528 -0.020536054 0.011403281
000250 0d 40 b3 bd 28 79 f0 3e 9e 40 1f bd 1e c2 76 3d
       -0.08752451 0.46967435 -0.038879983 0.06024372
000260 90 7f 03 3f a4 9d 0e bf f5 0e d8 3b b4 4a 22 bf
       0.5136652 -0.5570929 0.00659358 -0.6339524
000270 7c e1 d8 be ae d6 b8 bc ef 8b 26 3b 78 d7 a9 3b
       -0.4235953 -0.022563305 0.0025412997 0.0051831566
000280 9c 75 07 3e 14 1f 5f bc 04 b1 aa be 27 4a 9c 3d
       0.13228458 -0.013618249 -0.33338177 0.07631331
000290 f9 a9 8f 3c 4d 46 fe be c2 a3 fc b9 5f 33 0c 3d
       0.017537104 -0.4966301 -0.00048187195 0.03422868
0002a0 49 ce a1 be de 5e b6 bc e6 42 8a 3c da 47 46 3d
       -0.31602696 -0.022262033 0.016877603 0.048408367
0002b0 95 b6 61 bb 04 c4 62 3e d3 5a ab 3d 71 9d b3 bd
       -0.0034441103 0.22145087 0.08366933 -0.08770264
0002c0 c3 ef 80 3d 37 b6 94 3d 3c e8 3b 3d 90 46 93 3c
       0.06295731 0.07261317 0.045875773 0.017977983
0002d0 38 54 8f 3d 84 6f ad be b3 be 82 bc 4e ac b9 bc
       0.06998485 -0.33874142 -0.015960073 -0.02266517
0002e0 f1 cb 3d be cf 83 c6 be ff fd 82 3d 06 72 6f bd
       -0.18534829 -0.38772437 0.06396102 -0.05845835
0002f0 e6 d2 40 3d 8c d9 94 3d cb e8 a3 3d 5c 47 31 3c
       0.04707613 0.07268056 0.08003386 0.010820236
000300 fa ee d6 be 17 21 38 3d aa 88 59 3c 9d b5 22 3d
       -0.419792 0.044953432 0.013277212 0.03972398
000310 12 91 3b bd 6f a1 77 3e 6f 0d 33 3f 21 d5 5b 3d
       -0.045792647 0.24182676 0.69942373 0.053670052
000320 71 f4 2e be 1c 8d ba be 24 c5 fb be 85 e2 00 bd
       -0.17085434 -0.36435783 -0.49173844 -0.031466026
000330 e8 4c ba 3d e6 8e b8 bc d4 15 90 3d c9 a5 22 bd
       0.090967 -0.022529077 0.070354134 -0.039708886
000340 0c 7f 86 3c 97 41 f8 3b 00 05 dc b9 03 8f bd be
       0.016418003 0.0075761783 -0.00041965395 -0.37023172
000350 b5 a1 85 3d b6 a9 40 3d 5f 3c 16 be e7 ae 33 bc
       0.06524984 0.04703685 -0.14671467 -0.010966993
000360 ae 13 f6 3a 37 11 eb bc 46 eb 35 bc 83 cf 82 bd
       0.0018774176 -0.028694732 -0.011103457 -0.06387236
000370 e8 b9 a7 3c 40 f5 45 3e 88 bc 07 bc ec e7 c2 3c
       0.02047439 0.19331837 -0.008284695 0.02379223
000380 60 11 b2 bc e5 fe c1 be 6b dc 21 bc 04 f5 fc bb
       -0.0217368 -0.37889782 -0.009879212 -0.007719638
000390 5f c0 c6 be ec 0e c1 be 32 8f 9b bd cd 63 48 3c
       -0.38818642 -0.37706697 -0.07595672 0.012230826
0003a0 43 5a 78 3d 5a 78 fc ba d5 c9 f1 3e 64 d9 dd be
       0.060632955 -0.0019261942 0.47224298 -0.43329918
0003b0 17 5a 90 bc 8d 84 94 3d 61 41 97 3d 1d 86 84 3e
       -0.017621083 0.072518446 0.07385517 0.2588357
0003c0 9c 92 37 3c 24 dc 90 3e 21 98 86 bc e4 c8 f7 3c
       0.011204388 0.28292954 -0.016429963 0.03024716
0003d0 cb b2 06 3e 2d 7b b5 3d 8e 72 9a bb aa d9 fb be
       0.13154142 0.088613845 -0.004713363 -0.49189502
0003e0 d6 76 82 3c 8f 32 64 3e 62 13 e1 3c 64 2b 9b 3d
       0.015925806 0.22284912 0.027475063 0.075766355
0003f0 eb c4 19 be fc fa 18 3d c6 fa 8e bc 0c 55 24 bf
       -0.15016524 0.037348732 -0.017453562 -0.6419227

linear_last.bias f4 [3]
000000 8e bb 90 be 80 45 45 be 95 aa 25 be
       -0.28268093 -0.19264793 -0.16178353
