trained_models/cnn_100_200_[100]_3_[3]_Identifiability_zeros_60-20-20_polisis_attr_state.pt (torch_old, 713010 bytes, 7 tensors)

embedding.weight f4 [973, 100]
0	0x00000000	0.0
1	0x00000000	0.0
2	0x00000000	0.0
3	0x00000000	0.0
4	0x00000000	0.0
5	0x00000000	0.0
6	0x00000000	0.0
7	0x00000000	0.0
8	0x00000000	0.0
9	0x00000000	0.0
10	0x00000000	0.0
11	0x00000000	0.0
12	0x00000000	0.0
13	0x00000000	0.0
14	0x00000000	0.0
15	0x00000000	0.0
16	0x00000000	0.0
17	0x00000000	0.0
18	0x00000000	0.0
19	0x00000000	0.0
20	0x00000000	0.0
21	0x00000000	0.0
22	0x00000000	0.0
23	0x00000000	0.0
24	0x00000000	0.0
25	0x00000000	0.0
26	0x00000000	0.0
27	0x00000000	0.0
28	0x00000000	0.0
29	0x00000000	0.0
30	0x00000000	0.0
31	0x00000000	0.0
32	0x00000000	0.0
33	0x00000000	0.0
34	0x00000000	0.0
35	0x00000000	0.0
36	0x00000000	0.0
37	0x00000000	0.0
38	0x00000000	0.0
39	0x00000000	0.0
40	0x00000000	0.0
41	0x00000000	0.0
42	0x00000000	0.0
43	0x00000000	0.0
44	0x00000000	0.0
45	0x00000000	0.0
46	0x00000000	0.0
47	0x00000000	0.0
48	0x00000000	0.0
49	0x00000000	0.0
50	0x00000000	0.0
51	0x00000000	0.0
52	0x00000000	0.0
53	0x00000000	0.0
54	0x00000000	0.0
55	0x00000000	0.0
56	0x00000000	0.0
57	0x00000000	0.0
58	0x00000000	0.0
59	0x00000000	0.0
60	0x00000000	0.0
61	0x00000000	0.0
62	0x00000000	0.0
63	0x00000000	0.0
64	0x00000000	0.0
65	0x00000000	0.0
66	0x00000000	0.0
67	0x00000000	0.0
68	0x00000000	0.0
69	0x00000000	0.0
70	0x00000000	0.0
71	0x00000000	0.0
72	0x00000000	0.0
73	0x00000000	0.0
74	0x00000000	0.0
75	0x00000000	0.0
76	0x00000000	0.0
77	0x00000000	0.0
78	0x00000000	0.0
79	0x00000000	0.0
80	0x00000000	0.0
81	0x00000000	0.0
82	0x00000000	0.0
83	0x00000000	0.0
84	0x00000000	0.0
85	0x00000000	0.0
86	0x00000000	0.0
87	0x00000000	0.0
88	0x00000000	0.0
89	0x00000000	0.0
90	0x00000000	0.0
91	0x00000000	0.0
92	0x00000000	0.0
93	0x00000000	0.0
94	0x00000000	0.0
95	0x00000000	0.0
96	0x00000000	0.0
97	0x00000000	0.0
98	0x00000000	0.0
99	0x00000000	0.0
100	0x00000000	0.0
101	0x00000000	0.0
102	0x00000000	0.0
103	0x00000000	0.0
104	0x00000000	0.0
105	0x00000000	0.0
106	0x00000000	0.0
107	0x00000000	0.0
108	0x00000000	0.0
109	0x00000000	0.0
110	0x00000000	0.0
111	0x00000000	0.0
112	0x00000000	0.0
113	0x00000000	0.0
114	0x00000000	0.0
115	0x00000000	0.0
116	0x00000000	0.0
117	0x00000000	0.0
118	0x00000000	0.0
119	0x00000000	0.0
120	0x00000000	0.0
121	0x00000000	0.0
122	0x00000000	0.0
123	0x00000000	0.0
124	0x00000000	0.0
125	0x00000000	0.0
126	0x00000000	0.0
127	0x00000000	0.0
128	0x00000000	0.0
129	0x00000000	0.0
130	0x00000000	0.0
131	0x00000000	0.0
132	0x00000000	0.0
133	0x00000000	0.0
134	0x00000000	0.0
135	0x00000000	0.0
136	0x00000000	0.0
137	0x00000000	0.0
138	0x00000000	0.0
139	0x00000000	0.0
140	0x00000000	0.0
141	0x00000000	0.0
142	0x00000000	0.0
143	0x00000000	0.0
144	0x00000000	0.0
145	0x00000000	0.0
146	0x00000000	0.0
147	0x00000000	0.0
148	0x00000000	0.0
149	0x00000000	0.0
150	0x00000000	0.0
151	0x00000000	0.0
152	0x00000000	0.0
153	0x00000000	0.0
154	0x00000000	0.0
155	0x00000000	0.0
156	0x00000000	0.0
157	0x00000000	0.0
158	0x00000000	0.0
159	0x00000000	0.0
160	0x00000000	0.0
161	0x00000000	0.0
162	0x00000000	0.0
163	0x00000000	0.0
164	0x00000000	0.0
165	0x00000000	0.0
166	0x00000000	0.0
167	0x00000000	0.0
168	0x00000000	0.0
169	0x00000000	0.0
170	0x00000000	0.0
171	0x00000000	0.0
172	0x00000000	0.0
173	0x00000000	0.0
174	0x00000000	0.0
175	0x00000000	0.0
176	0x00000000	0.0
177	0x00000000	0.0
178	0x00000000	0.0
179	0x00000000	0.0
180	0x00000000	0.0
181	0x00000000	0.0
182	0x00000000	0.0
183	0x00000000	0.0
184	0x00000000	0.0
185	0x00000000	0.0
186	0x00000000	0.0
187	0x00000000	0.0
188	0x00000000	0.0
189	0x00000000	0.0
190	0x00000000	0.0
191	0x00000000	0.0
192	0x00000000	0.0
193	0x00000000	0.0
194	0x00000000	0.0
195	0x00000000	0.0
196	0x00000000	0.0
197	0x00000000	0.0
198	0x00000000	0.0
199	0x00000000	0.0
200	0x00000000	0.0
201	0x00000000	0.0
202	0x00000000	0.0
203	0x00000000	0.0
204	0x00000000	0.0
205	0x00000000	0.0
206	0x00000000	0.0
207	0x00000000	0.0
208	0x00000000	0.0
209	0x00000000	0.0
210	0x00000000	0.0
211	0x00000000	0.0
212	0x00000000	0.0
213	0x00000000	0.0
214	0x00000000	0.0
215	0x00000000	0.0
216	0x00000000	0.0
217	0x00000000	0.0
218	0x00000000	0.0
219	0x00000000	0.0
220	0x00000000	0.0
221	0x00000000	0.0
222	0x00000000	0.0
223	0x00000000	0.0
224	0x00000000	0.0
225	0x00000000	0.0
226	0x00000000	0.0
227	0x00000000	0.0
228	0x00000000	0.0
229	0x00000000	0.0
230	0x00000000	0.0
231	0x00000000	0.0
232	0x00000000	0.0
233	0x00000000	0.0
234	0x00000000	0.0
235	0x00000000	0.0
236	0x00000000	0.0
237	0x00000000	0.0
238	0x00000000	0.0
239	0x00000000	0.0
240	0x00000000	0.0
241	0x00000000	0.0
242	0x00000000	0.0
243	0x00000000	0.0
244	0x00000000	0.0
245	0x00000000	0.0
246	0x00000000	0.0
247	0x00000000	0.0
248	0x00000000	0.0
249	0x00000000	0.0
250	0x00000000	0.0
251	0x00000000	0.0
252	0x00000000	0.0
253	0x00000000	0.0
254	0x00000000	0.0
255	0x00000000	0.0

convolutions.0.weight f4 [200, 1, 3, 100]
0	0x3d6ecaa0	0.058298707
1	0xbdc69779	-0.0969686
2	0xbccb4b66	-0.024816226
3	0xbd29c6b8	-0.04144928
4	0xbe880551	-0.26566556
5	0x3ca98394	0.020692624
6	0xbcd4751a	-0.025934745
7	0x3cc62ba8	0.024190739
8	0xbb348b2a	-0.0027548769
9	0x3e1e17a3	0.15438704
10	0x3d72836c	0.059207365
11	0xbc94fd7c	-0.018187277
12	0x3d1b2554	0.037877396
13	0x3dbeb8d4	0.09312597
14	0x3bad5ac6	0.005290362
15	0x3d989f34	0.074522406
16	0x3da3abbb	0.07991739
17	0x3c5731c5	0.013134425
18	0xbc9abe20	-0.018889487
19	0x3dae847e	0.08521365
20	0xbcfeb84a	-0.031093735
21	0xba9a702d	-0.0011782699
22	0x3d8dfdf2	0.06933202
23	0x3d23e373	0.040011834
24	0x3c6910db	0.01422521
25	0x3e17123e	0.14753053
26	0xbc9e75ff	-0.019343374
27	0xbde14cdd	-0.11000989
28	0x3c5760d9	0.013145649
29	0xbbadb3b7	-0.0053009647
30	0x3c97eba4	0.01854498
31	0x3dc04b20	0.09389329
32	0xbe6f8288	-0.23389637
33	0xbcab7b01	-0.020932676
34	0xbd3da207	-0.0462971
35	0xbc6be6a1	-0.014398248
36	0x3dde0c58	0.10842198
37	0xbe08b6ff	-0.13351057
38	0xbc2c99ea	-0.010534743
39	0xbdcb08fd	-0.09913824
40	0xbe4e4576	-0.20143685
41	0x3dd3eec4	0.10348275
42	0xbdd3d0e8	-0.1034258
43	0xbe4ac64e	-0.1980221
44	0xbdeb9f9b	-0.11505052
45	0xbdbf5733	-0.09342804
46	0xbd12b3e7	-0.0358161
47	0x3da90884	0.08253577
48	0xbc0d938d	-0.008641136
49	0xbcb17d23	-0.021666115
50	0x3d27c013	0.04095466
51	0xbd3396a0	-0.04384482
52	0x3d186f13	0.037215304
53	0xbd70e0c4	-0.058808103
54	0xbe0e7560	-0.13911963
55	0xbcb6fd70	-0.022337645
56	0xbde394a9	-0.11112339
57	0x3d97db2a	0.07414849
58	0xbc3f2b5f	-0.011668055
59	0xbd940f39	-0.07229466
60	0x3e3b625c	0.1829924
61	0xbdb6d39f	-0.08927082
62	0x3cfb5430	0.030679792
63	0xbded7d43	-0.115961574
64	0x3d34d298	0.04414615
65	0xbccf3dd7	-0.025298042
66	0xbdb350db	-0.08755656
67	0x3db1aff1	0.08676136
68	0xbcdbb127	-0.026817871
69	0x3bf8cd56	0.0075928373
70	0xbdfe5661	-0.12418819
71	0xbe40e2f3	-0.18836574
72	0x3aec92dd	0.001804914
73	0xbd6624af	-0.056187328
74	0x3c8a5faa	0.01689132
75	0xbc9d9dd6	-0.019240301
76	0xbd2020e3	-0.039093863
77	0x3d337d78	0.04382083
78	0x3e8a8d35	0.27060857
79	0xbdfe00e3	-0.12402513
80	0x3d958cca	0.07302244
81	0xbd7a8e43	-0.061170828
82	0x3dfb78c2	0.12278892
83	0xbd8c5bca	-0.06853445
84	0xbcf390ba	-0.029732097
85	0x3d0a8ad9	0.03382382
86	0xbcdcc221	-0.026948037
87	0x3d2b70cd	0.041855622
88	0xbdcace0f	-0.09902584
89	0xbcf9650f	-0.030443696
90	0x3c75d963	0.015005442
91	0x3da3f19a	0.08005066
92	0x3d974876	0.07386868
93	0xbd72115a	-0.05909858
94	0x3ca3c8ad	0.01999315
95	0x3dc82dc7	0.09774356
96	0xbd9011a1	-0.070346124
97	0xbd02a988	-0.03189996
98	0x3d53c190	0.051698267
99	0xbdc96b5d	-0.09834931
100	0xbadbf728	-0.0016782032
101	0xbd4dd2e9	-0.050249968
102	0xbd4f68e2	-0.050637133
103	0xbcb59ed9	-0.022170471
104	0xbe064d8b	-0.13115518
105	0xbe157baa	-0.14597955
106	0x3d8d3fad	0.06896911
107	0xbd9bd7e6	-0.07609539
108	0xbdb169c9	-0.08662755
109	0xbdffbc8c	-0.12487134
110	0xbd17430d	-0.03692918
111	0xbe248085	-0.16064651
112	0xbc0f0d8d	-0.008731258
113	0xbd3ff7b7	-0.0468671
114	0xbd0f5a70	-0.034998357
115	0xbdae9c2f	-0.085258834
116	0xbc5edd16	-0.013602516
117	0xbdb19032	-0.08670081
118	0x3cc18476	0.023622733
119	0x3e433760	0.19064093
120	0xbc36ca25	-0.011156593
121	0xbde9491e	-0.11390899
122	0x3c629c76	0.0138312485
123	0x3e5113f5	0.20417769
124	0x3cee69a7	0.029103113
125	0x3e40f116	0.18841967
126	0xbcc7889f	-0.024357138
127	0xbc95c0f0	-0.018280476
128	0xbd1dc720	-0.03851998
129	0xbc232434	-0.009957362
130	0xbd0df45c	-0.034656867
131	0xbd891452	-0.06693329
132	0xbc415802	-0.011800768
133	0xbdab8a4c	-0.083759874
134	0xbd71f98d	-0.05907588
135	0xbd4c9bae	-0.049953155
136	0xbbf5d281	-0.0075019007
137	0xbd72a123	-0.059235703
138	0x3d33d034	0.04389973
139	0xbbada07e	-0.005298673
140	0xbe1e5b08	-0.15464413
141	0xbe39b30b	-0.18134706
142	0xbc0d15f5	-0.008611192
143	0xbe3edf6a	-0.18639913
144	0x3e087be7	0.13328515
145	0x3e6240c5	0.2209502
146	0xbafd549a	-0.0019327581
147	0x3db7997d	0.089648224
148	0x3dca9578	0.0989179
149	0xbc35d05e	-0.011097042
150	0xbdc8b8f7	-0.09800904
151	0x3c6793a5	0.014134322
152	0xbc2843cf	-0.010270073
153	0x3df1a5d8	0.1179921
154	0xbd49aa91	-0.04923493
155	0x3d05dbeb	0.032680433
156	0xbcfc2e79	-0.030783879
157	0x3b9a9966	0.0047179936
158	0xbde0a7a5	-0.10969476
159	0x3c9200dd	0.017822677
160	0x3c37c984	0.011217479
161	0x3c5eb02e	0.013591809
162	0x3c5ac4ab	0.013352553
163	0xbd49d131	-0.049271766
164	0x3d84fb60	0.064932585
165	0x3ddd887c	0.10817048
166	0x3e5960bb	0.21228306
167	0x3cb33649	0.021876471
168	0x3d131c0c	0.03591542
169	0xbd6a89a7	-0.05726018
170	0xbc07e86e	-0.008295162
171	0x3e2fd9dc	0.1717295
172	0xbd19f242	-0.03758455
173	0xbda06e52	-0.07833542
174	0xbad81f0c	-0.0016488745
175	0x3d5926e2	0.053015597
176	0x3e4add0e	0.19810888
177	0xbc9e7271	-0.01934168
178	0xbe01e423	-0.12684684
179	0xbe1a53f6	-0.15071091
180	0xbddd983c	-0.10820052
181	0x3d6e14b8	0.058125228
182	0x3d2dded0	0.04244882
183	0x3d9aa3c3	0.07550766
184	0x3e145baa	0.14488092
185	0x3d372e1d	0.04472171
186	0x3dcce21a	0.10004063
187	0xbbd443ae	-0.0064777946
188	0xbcfc64ef	-0.030809848
189	0xbd73f533	-0.059560012
190	0x3d89190c	0.066942304
191	0x3cd6f9a5	0.026242087
192	0xbd8994ee	-0.06717859
193	0xbd930486	-0.07178597
194	0xbdad3f52	-0.08459343
195	0x3dea4657	0.114391975
196	0x3d94053f	0.07227563
197	0x3cbea1da	0.023270536
198	0xbc194603	-0.009355071
199	0xbcb5e6f3	-0.022204852
200	0x3d68938f	0.056781348
201	0x3d4514ca	0.04811553
202	0xbd4ce6d7	-0.050024834
203	0xbdc25cdf	-0.0949037
204	0x3cde091b	0.027103951
205	0xbd44a231	-0.04800624
206	0xbc8d717f	-0.017266033
207	0xbdcfa37d	-0.10138605
208	0x3d668c53	0.056286167
209	0xbdcfe9a9	-0.10151989
210	0x3d8936dd	0.066999175
211	0xbc409495	-0.011754175
212	0xbc076181	-0.008262993
213	0xbddd5a1f	-0.10808205
214	0xbd39f824	-0.04540266
215	0x3dc2a5dd	0.09504292
216	0xbd006584	-0.031346813
217	0x3d6a7ce3	0.057248008
218	0x3d3bd8c6	0.045861028
219	0xbd449125	-0.047989983
220	0xbe18b7df	-0.14913891
221	0x3d36a3cf	0.044589814
222	0xbc9df6ba	-0.019282687
223	0x3d0f7cf6	0.03503128
224	0xbc796fd9	-0.01522442
225	0xbcb29509	-0.021799581
226	0xbc89fb02	-0.016843323
227	0xbcfb99a7	-0.030712916
228	0x3e357fdb	0.17724554
229	0xbda0ccb1	-0.07851542
230	0xbe070265	-0.13184507
231	0xbd97a373	-0.07404222
232	0x3d8de571	0.06928528
233	0xbd8c8e7f	-0.068631165
234	0xbdf28b77	-0.11843007
235	0xbdff9812	-0.12480177
236	0x3d87bc15	0.06627671
237	0x3cc94250	0.024567753
238	0x3db2db2b	0.08733209
239	0x3d161d12	0.036648817
240	0xbd0a395b	-0.033746105
241	0xbc3a860c	-0.011384498
242	0x3da0b280	0.07846546
243	0xbe3f978e	-0.18710157
244	0x3cb9b896	0.022671025
245	0xbd44a9f7	-0.048013654
246	0xbca98dda	-0.020697523
247	0xbdd3d6c8	-0.10343701
248	0x3d005c7b	0.031338196
249	0xbdea0e5f	-0.11428522
250	0x3c81beed	0.01583811
251	0x3cc36440	0.023851514
252	0x3d03ae03	0.032148372
253	0x3c54255f	0.012948363
254	0x39c5c493	0.00037721227
255	0xbddb402e	-0.10705601

convolutions.0.bias f4 [200]
0	0xbda60c5c	-0.08107826
1	0xbce059bf	-0.027386544
2	0xbde3ff26	-0.1113265
3	0xbd299676	-0.041403256
4	0xbcf54a55	-0.02994267
5	0xbd2b04a6	-0.04175248
6	0xbd4bfb30	-0.049800098
7	0xbcbae9be	-0.022816535
8	0xbca6e245	-0.020371566
9	0x3a811fc2	0.0009851384
10	0xbc6b59c9	-0.014364668
11	0x3cc8d343	0.0245148
12	0xbd1fda19	-0.039026354
13	0x3d4e79dc	0.050409183
14	0xbd938adb	-0.07204219
15	0xbdaac99c	-0.08339235
16	0xbdddcb9c	-0.10829851
17	0xbd531834	-0.051536754
18	0x3d28e9f6	0.041238748
19	0xbc6ba5ed	-0.0143828215
20	0xbbdcadbd	-0.0067345784
21	0xbd9744d9	-0.073861785
22	0xbdd52345	-0.10407118
23	0xbd120c4f	-0.03565627
24	0xbd5eaf5a	-0.054366447
25	0xbb9a88a7	-0.0047159973
26	0xbddb4b31	-0.10707701
27	0xbd82c0da	-0.0638444
28	0xbd82e9be	-0.06392239
29	0xbd561458	-0.052265495
30	0xbe08053e	-0.1328325
31	0xbdac23e1	-0.08405281
32	0x3c9015a8	0.017588452
33	0xbd8001de	-0.06250356
34	0x3c51934f	0.012791469
35	0xbd2da071	-0.042389337
36	0xbc03327a	-0.00800764
37	0xbd1cc3f4	-0.038272813
38	0xbdba50c5	-0.09097437
39	0xbd95de0d	-0.073177435
40	0xbd175c1a	-0.03695307
41	0xbe12bbba	-0.14329425
42	0xbc81d426	-0.01584823
43	0xbda50a41	-0.080585964
44	0xbccca7eb	-0.024982413
45	0xbc2f53fe	-0.010701178
46	0xbd99aa7e	-0.07503222
47	0xbd4c0fa7	-0.049819615
48	0xbc870d6b	-0.01648589
49	0x3ce3972d	0.027782047
50	0xbb45eb0c	-0.0030199913
51	0xbc04d4ef	-0.008107408
52	0xbdf5da92	-0.120045796
53	0xbdbdbe11	-0.09264768
54	0xbd6c4033	-0.057678413
55	0x3b026f16	0.0019902638
56	0xbc8df8f6	-0.017330628
57	0xbc3ffbc3	-0.0117177395
58	0xbd8d9ad6	-0.06914298
59	0x3d211024	0.039322034
60	0x3c4638d2	0.012098508
61	0xbd0f422a	-0.03497521
62	0xbd53d2f2	-0.051714845
63	0xbde20144	-0.11035398
64	0xbc09bfa6	-0.008407509
65	0x3aad41a5	0.0013218416
66	0xbb9a9753	-0.0047177463
67	0x3cde43f3	0.02713201
68	0xbd37b298	-0.044848055
69	0x3c968483	0.018373733
70	0x3d258f21	0.0404197
71	0xbded49e6	-0.11586361
72	0xbe30120e	-0.17194387
73	0xbb6ca68e	-0.0036110017
74	0xbd2f7890	-0.042839587
75	0xbc33678f	-0.010949983
76	0x3c472d9c	0.01215687
77	0xbb553836	-0.0032534725
78	0xbcd2a1c4	-0.025711901
79	0xbc124c67	-0.008929349
80	0xbb4a665a	-0.003088376
81	0x3cfd5b04	0.030927189
82	0xbd62e305	-0.055392284
83	0xbe0a7882	-0.13522533
84	0xbd8303fa	-0.06397243
85	0xbcc58d82	-0.024115328
86	0x3d97ccc7	0.07412105
87	0xb7b7d044	-2.1912281e-05
88	0xbc1017b8	-0.0087947175
89	0x3cff95c9	0.031199353
90	0xbe1ed501	-0.15510942
91	0xbdc4ae92	-0.09603609
92	0x3d8a5bcd	0.06755791
93	0xbd3ae59d	-0.045629133
94	0xbc273eb6	-0.010207823
95	0xbdb78c04	-0.08962253
96	0xbcdae609	-0.026721017
97	0xbbc2aecd	-0.005941248
98	0xbdda3bb6	-0.1065592
99	0xbe02e31d	-0.1278195
100	0xbd8599a9	-0.06523449
101	0xbdc0839e	-0.09400104
102	0x3d695e46	0.05697467
103	0x3d1ff522	0.039052136
104	0xbd30dda1	-0.04318011
105	0x3c5c9e8c	0.013465535
106	0x3d461f37	0.048369613
107	0xbba1b9d9	-0.004935485
108	0xbd508f43	-0.050917875
109	0xbdbeb5fa	-0.09312053
110	0xbb5c234c	-0.0033590375
111	0xbd386a8e	-0.045023493
112	0xbc263eac	-0.010146778
113	0xbb640efe	-0.0034798975
114	0xbd7e307d	-0.06205796
115	0xbc565562	-0.01308188
116	0xbe37ec79	-0.17961301
117	0xbd30ad28	-0.043133885
118	0xbda9b8d4	-0.08287206
119	0xbd28e699	-0.04123554
120	0x3cc689b2	0.02423558
121	0xbd09a57d	-0.033605088
122	0xbdcd9bb3	-0.10039463
123	0xbc7752b9	-0.015095406
124	0xbdea3683	-0.114361785
125	0xbda1abeb	-0.07894119
126	0xbc80ead2	-0.015736971
127	0xbe420a2a	-0.1894919
128	0xbcd2e1d5	-0.02574245
129	0xbdbe6b20	-0.09297776
130	0xbd798ca3	-0.060925137
131	0xbdd0fbbf	-0.10204267
132	0xbcc27c7b	-0.023740998
133	0xbc37162d	-0.011174721
134	0xbd8479e7	-0.064685635
135	0xbd53e46d	-0.051731516
136	0xbb9b8d3d	-0.0047470615
137	0x3c0fe4c0	0.008782566
138	0xbdaff3ff	-0.085914604
139	0x3c3858a9	0.011251607
140	0x3c95d4f2	0.018290017
141	0x3b406c44	0.0029361406
142	0xbc32c565	-0.01091132
143	0xbd2c9f34	-0.042144015
144	0x3d6ca030	0.057769954
145	0x3aa90183	0.0012894127
146	0x3d091e65	0.033476252
147	0x3c24aaed	0.0100505175
148	0x3cb34f5d	0.02188843
149	0x3cd06429	0.025438385
150	0xbc41c258	-0.01182612
151	0xbb40e653	-0.002943416
152	0x3d0f0f95	0.03492697
153	0xbd8eeabc	-0.06978366
154	0x3cff1e0c	0.031142257
155	0x3bd0ee3d	0.0063760565
156	0xbd46818d	-0.048463393
157	0x3d237ef7	0.039916005
158	0xbde3465d	-0.11097405
159	0xbdb2b172	-0.08725251
160	0xbd926ea8	-0.07150012
161	0x3cf847ea	0.030307729
162	0xbdf0acac	-0.117516845
163	0xbda96779	-0.08271689
164	0x3d11ab07	0.035563495
165	0xbd18b7c8	-0.037284642
166	0xbd1242d6	-0.03570827
167	0xbbe5d9d1	-0.007014491
168	0xbd8884a9	-0.06665928
169	0xbdb2c395	-0.087287106
170	0xbdb42cd6	-0.08797614
171	0xbd982844	-0.07429555
172	0xbd2ce919	-0.042214487
173	0x3d5b9c49	0.053615842
174	0xbbf87fdf	-0.007583603
175	0xbdd75582	-0.10514356
176	0xbd807474	-0.06272212
177	0xbb935a8b	-0.0044968775
178	0xbceff5ed	-0.029292071
179	0xbdb48112	-0.08813681
180	0xbd7583f4	-0.059940293
181	0xbd97dbc0	-0.07414961
182	0xbd56eaf0	-0.052470148
183	0xbcaa91eb	-0.020821532
184	0xbd923eda	-0.07140894
185	0x3d14036c	0.036136076
186	0xbd5b9f37	-0.053618636
187	0x3be7a7c3	0.0070695593
188	0x3d4123c9	0.047153268
189	0xbc10c3af	-0.008835717
190	0xbc1feab3	-0.0097605465
191	0xbbf28719	-0.007401359
192	0xbcd002e2	-0.025392
193	0xbdcb9c16	-0.099418804
194	0x3cbb6b9d	0.022878462
195	0xbdcb34fa	-0.09922214
196	0xbad5852a	-0.0016290296
197	0xbe02e39b	-0.12782137
198	0xbc7a7d7e	-0.015288709
199	0xbd0786b0	-0.033087432

linear_layers.0.weight f4 [100, 200]
0	0xbd665303	-0.05623151
1	0x3db29f26	0.087217614
2	0xbe69b139	-0.22821511
3	0xbc27f085	-0.010250215
4	0x3dd293a4	0.102820665
5	0x3dfb0b8d	0.122580625
6	0x3ee11172	0.43958622
7	0xbde027bc	-0.10945079
8	0x3e2946af	0.1653087
9	0x3db22e14	0.08700195
10	0xbe144b8e	-0.14481947
11	0x3d8ad667	0.06779175
12	0x3d87107e	0.065949425
13	0x3dd27d27	0.10277777
14	0xbc9620d2	-0.018326197
15	0xbe421f61	-0.18957283
16	0xbe34c8d4	-0.17654735
17	0xbe2bdf52	-0.16784409
18	0xbbc03c2a	-0.005866547
19	0xbd572e4b	-0.052534383
20	0xba284cce	-0.0006420136
21	0xbd3d001d	-0.046142686
22	0xbd7f2f50	-0.06230098
23	0xbe2bc084	-0.16772658
24	0x3d09db32	0.033656307
25	0xbea88e68	-0.32921147
26	0x3d83553d	0.06412742
27	0x3dbcd822	0.092209116
28	0x3df8b9f1	0.121448405
29	0x3e932747	0.28740904
30	0x3e0b1266	0.13581237
31	0x3d9b3da1	0.07580114
32	0xbe8ab16e	-0.27088493
33	0xbdb4ee65	-0.08834533
34	0x3d9c0670	0.07618415
35	0x3e3065e5	0.1722637
36	0xbdff69b5	-0.12471334
37	0x3ceb2c2a	0.028707583
38	0xbe067107	-0.13129054
39	0x3d9806d8	0.0742318
40	0xbe1fae2c	-0.15593785
41	0x3df9fe13	0.12206664
42	0xbd5fd38e	-0.054645114
43	0x3e363d6b	0.17796867
44	0xbda81387	-0.082068495
45	0x3e77b050	0.24188352
46	0x3d821ba2	0.06352927
47	0xbe16e04e	-0.14734003
48	0x3e20bcfc	0.15697092
49	0x3c5aae5e	0.013347236
50	0x3cc9e139	0.024643527
51	0xbda62a82	-0.081135765
52	0x3df40549	0.119150706
53	0x3e3562ea	0.17713514
54	0xbc68f9cf	-0.014219715
55	0x3d4c4eec	0.049879953
56	0xbe49c7da	-0.19705144
57	0x3a537bf4	0.00080674817
58	0x3d380eee	0.044936113
59	0x3d70f084	0.058823124
60	0xbe524202	-0.20532992
61	0x3ec73616	0.38908452
62	0xbe0f1da5	-0.13976152
63	0xbe389184	-0.1802426
64	0xbd9203ff	-0.071296684
65	0xbe4c601a	-0.19958535
66	0xbe47ae90	-0.19500184
67	0xbe86362d	-0.26213208
68	0x3e2233ca	0.15840068
69	0x3d581875	0.0527577
70	0x3c09041c	0.008362796
71	0xbcffff88	-0.031249776
72	0x3d9e0cf0	0.077173114
73	0x3d837f41	0.06420756
74	0x3bcf052b	0.0063177547
75	0xbd777b3e	-0.060420267
76	0x3ce684d8	0.028139517
77	0xbe95df18	-0.2927177
78	0xbd398fba	-0.045303084
79	0xbe498134	-0.19678193
80	0xbd001385	-0.031268615
81	0xbe828cb0	-0.2549796
82	0x3e2446c9	0.16042627
83	0x3db22655	0.086987175
84	0x3d2c6611	0.042089526
85	0xbc8cdbc3	-0.017194634
86	0x3d308f32	0.04310531
87	0xbe12ac1c	-0.14323467
88	0x3e64d8c9	0.22348322
89	0xbe410d38	-0.18852699
90	0x3dd1fce3	0.102533124
91	0x3dd68833	0.10475197
92	0xbd8aff42	-0.06786968
93	0x3db2178f	0.086959
94	0x3e4afc8e	0.19822904
95	0x3dac9e35	0.08428613
96	0x3b23f33f	0.0025016812
97	0xbdcb2023	-0.09918239
98	0xbd471ec9	-0.048613343
99	0xbdb336d2	-0.087506905
100	0xbc7747c8	-0.015092798
101	0xbd36d589	-0.044637237
102	0xbda65092	-0.08120836
103	0xbe14a045	-0.14514263
104	0x3d49c87d	0.049263466
105	0xbde854e2	-0.11344315
106	0x3d5182c2	0.05115009
107	0xbcfa5623	-0.030558651
108	0x3e1aa492	0.15101841
109	0x3de038df	0.10948347
110	0xbe061873	-0.13095264
111	0xbe23a2b9	-0.15980043
112	0x3e554d30	0.20830226
113	0xbeb12255	-0.34596506
114	0x3e718f3a	0.23589793
115	0x3e3de06e	0.18542644
116	0x3d9b4202	0.07580949
117	0x3be4a9f7	0.006978269
118	0x3d5fe1fa	0.054658867
119	0x3e70b42d	0.23506232
120	0xbdeac627	-0.11463576
121	0xbe3b293a	-0.18277445
122	0xb9503318	-0.0001985546
123	0x3e5a06fe	0.2129173
124	0x3de3329e	0.11093639
125	0x3db15c34	0.086601645
126	0xbdff0811	-0.124527104
127	0x3e1534a2	0.14570859
128	0xbd8d8ed5	-0.06912009
129	0xbe038022	-0.12841848
130	0xbd09a3fe	-0.03360366
131	0xbda6756e	-0.08127867
132	0x3e901a44	0.2814504
133	0x3d7ea8fe	0.062172882
134	0xbd8a3d2a	-0.06749947
135	0xbdd6fd5d	-0.10497544
136	0x3e7964f5	0.24354918
137	0xbe57b942	-0.21066764
138	0x3dd39a8e	0.10332213
139	0xbe075f91	-0.1322005
140	0xbd9db529	-0.07700569
141	0x3ea1e15a	0.31617242
142	0xbe2559d0	-0.16147542
143	0x3e23ce5c	0.15996689
144	0x3d78533f	0.060626265
145	0xbd3b3171	-0.045701448
146	0x3e4ed9ca	0.20200267
147	0xbdc38625	-0.095470704
148	0x3eaf3712	0.34221703
149	0x3dc3a0d7	0.09552162
150	0xbe3e8bed	-0.18608065
151	0xbd9b8d47	-0.07595306
152	0x392d2968	0.0001651399
153	0xbd85f5b1	-0.065410025
154	0xbcf234bd	-0.029566163
155	0xbe360e93	-0.17778997
156	0x3db13e52	0.08654465
157	0x3da92b9c	0.08260271
158	0x3d4090fc	0.047013268
159	0x3dcaa5ed	0.09894929
160	0xbde8e28e	-0.11371337
161	0x3d74ba9d	0.05974828
162	0x3db85131	0.08999861
163	0x3d09340c	0.0334969
164	0xbe0d3d40	-0.13792896
165	0x3c8d9f55	0.01728789
166	0x3d438c85	0.04774143
167	0x3df348b0	0.118790984
168	0x3ddb03aa	0.10694058
169	0x3d9abef9	0.075559564
170	0xbd92e3ad	-0.07172332
171	0x3e1beb7b	0.15226547
172	0xbdc6b391	-0.09702218
173	0xbda764be	-0.08173512
174	0xbe6e781c	-0.23288006
175	0x3ddd2b01	0.10799218
176	0x3e23a379	0.15980329
177	0x3db775c9	0.089580126
178	0x3d50403e	0.050842516
179	0xbbae8457	-0.0053258347
180	0xbde6335e	-0.11240266
181	0x3e248c5f	0.16069172
182	0x3d8270cd	0.06369171
183	0xbd544789	-0.051826034
184	0x3e4b12e3	0.19831423
185	0xbe262fd0	-0.16229177
186	0xbc38fe61	-0.011291117
187	0x3dc196d4	0.09452596
188	0x3dae4272	0.08508767
189	0xbb0aa34b	-0.002115446
190	0x3c706cfc	0.014674421
191	0x3d50f0f7	0.051011052
192	0x3e0e1d52	0.13878372
193	0xbc931429	-0.017953949
194	0xbe6c1a28	-0.23056853
195	0x3d2c1a76	0.042017423
196	0x3e4b9198	0.19879758
197	0x3d5e14fb	0.054219227
198	0xbd17023b	-0.03686736
199	0x3da1ca75	0.07899944
200	0xbc717b80	-0.014738917
201	0x3d244b31	0.04011077
202	0xbcde6805	-0.02714921
203	0x3d216101	0.03939915
204	0xbd9e879f	-0.077407114
205	0x3d0cba55	0.034357388
206	0x3d752906	0.059853576
207	0xbd2610e5	-0.040543456
208	0x3d13f919	0.03612623
209	0x3cd47625	0.025935242
210	0x3cca93dd	0.02472871
211	0xbc2ce188	-0.010551818
212	0xbd1805e0	-0.037114978
213	0xba2c2ce2	-0.00065679674
214	0xbc807c7e	-0.015684363
215	0xbb252b2f	-0.0025202741
216	0x3d0c1b49	0.03420571
217	0x3ce8dfb8	0.02842699
218	0xbdac262d	-0.08405719
219	0xbd215a54	-0.039392784
220	0xbd04d8e2	-0.032433398
221	0x3b5e9935	0.003396583
222	0xbd00d05c	-0.031448707
223	0xbd29d8ff	-0.04146671
224	0x3cab74a9	0.020929651
225	0xbd220aee	-0.039561205
226	0x3cc8d260	0.024514377
227	0x3d472069	0.048614893
228	0xbc33dfc3	-0.010978642
229	0x3d28f3a6	0.041247986
230	0x3cbe10f8	0.02320145
231	0xbb83d79f	-0.004023507
232	0xbd782aa2	-0.060587533
233	0x3c155446	0.009114331
234	0xbd7eaa9e	-0.062174432
235	0xbcf995cb	-0.030466935
236	0xbd77f19a	-0.060533144
237	0xbd9dcb6a	-0.07704814
238	0xbd993569	-0.0748089
239	0xbd0f0f64	-0.034926787
240	0x3c9aa16a	0.018875796
241	0x3d446856	0.047951065
242	0xbcbff396	-0.02343158
243	0xbd8439b5	-0.06456319
244	0x3c87f8ba	0.016598094
245	0xbccc5f48	-0.024947777
246	0xbd8fa38a	-0.070136145
247	0xbcfb2507	-0.030657304
248	0x39e1dda3	0.00043080476
249	0xbda7bcfb	-0.08190342
250	0xbc37a031	-0.011207626
251	0xbcef6fd0	-0.029228121
252	0x3d753578	0.059865445
253	0x3a674a05	0.00088229805
254	0xbd57cf6f	-0.05268806
255	0x3d0635df	0.03276622

linear_layers.0.bias f4 [100]
0	0xbd892eab	-0.06698354
1	0x3cea3e36	0.028594118
2	0x3c10b6e0	0.008832663
3	0xbd202de4	-0.039106265
4	0xbd9e3a4c	-0.07725963
5	0x3cad7c8f	0.021177558
6	0xbcceb5d9	-0.025233196
7	0x3d05269d	0.032507528
8	0xbd308ede	-0.043105
9	0x3b49365f	0.0030702574
10	0xbd846412	-0.064643994
11	0xbc4ae6d5	-0.012384136
12	0xbd555cff	-0.05209064
13	0xbd3a0b84	-0.04542114
14	0xbd713254	-0.058885887
15	0xbcbc29be	-0.022969123
16	0x3c928884	0.017887361
17	0xbc494a31	-0.012285755
18	0xbcf9e1dd	-0.030503208
19	0xbd20d3df	-0.039264556
20	0xbd19e31d	-0.037570108
21	0x3e072b01	0.13199998
22	0xbd9eb5a9	-0.07749493
23	0x3cabdc03	0.020978933
24	0xbc8ed3c6	-0.017434966
25	0xbaba92b4	-0.0014234395
26	0x3c95e81c	0.018299155
27	0x3c5ec29f	0.013596206
28	0x3b7eca8e	0.0038878056
29	0x3c44b8cb	0.012006949
30	0x3d58fe44	0.05297686
31	0x3e9c70b6	0.30554742
32	0xbd2aab76	-0.041667424
33	0x3d71d763	0.0590433
34	0xbd329725	-0.043601174
35	0xbd8e7361	-0.069556005
36	0xbd9fee9b	-0.07809182
37	0x3d31f995	0.04345091
38	0xbae4c041	-0.0017452316
39	0x3d59be26	0.053159855
40	0xbd8c8bfc	-0.068626374
41	0x3de75bd1	0.112968095
42	0xbb83bf82	-0.0040206322
43	0xbc464be2	-0.012103053
44	0x3de4d16d	0.11172757
45	0xbd7bfc0b	-0.061519664
46	0x3db14014	0.086548
47	0x3e8ae2d1	0.27126172
48	0x3e1f1014	0.15533477
49	0xbcd30626	-0.025759768
50	0x3c0c1cbf	0.0085517755
51	0x3d9b179f	0.07572865
52	0x3dbfbf48	0.09362656
53	0x3cbd5cb0	0.023115486
54	0x3d9ae0e4	0.07562426
55	0xbd5554bb	-0.05208276
56	0x3e08a235	0.13343127
57	0x3cf754c5	0.030191788
58	0xbba03bd6	-0.0048899455
59	0x3c9bd278	0.019021258
60	0xbc65ecd4	-0.014033515
61	0xbda3d091	-0.07998765
62	0x3d07c36c	0.033145353
63	0xbd92e6aa	-0.07172902
64	0xbccc13ea	-0.02491184
65	0xbd4c6865	-0.049904246
66	0x3ce5eeb2	0.02806792
67	0x3d904abd	0.07045505
68	0x3d96fd87	0.07372575
69	0xbcbf5fd5	-0.023361126
70	0xbcd5b6f7	-0.026088221
71	0xbd32eccf	-0.04368287
72	0x3c802197	0.015641017
73	0x3d829d15	0.06377617
74	0x3bed7e48	0.00724772
75	0xbd8d28d4	-0.06892553
76	0xbcbe02b6	-0.023194652
77	0xbd42fc95	-0.047604162
78	0xbd038681	-0.032110695
79	0xbd9a46c1	-0.075330265
80	0x3c95aa70	0.018269747
81	0xbd384890	-0.044991076
82	0xbd573110	-0.052537024
83	0xbc9287d7	-0.01788704
84	0x3dd0748b	0.10178479
85	0xbd9e8026	-0.07739286
86	0xbd0aafa6	-0.033858918
87	0x3c9e6a0a	0.019337673
88	0xbc3338e9	-0.010938861
89	0xbd5e5fac	-0.05429046
90	0xbd7673ff	-0.060169216
91	0x3d505384	0.050860897
92	0x3cc045fd	0.023470873
93	0xbbc2eaf1	-0.0059484174
94	0x3dd8e225	0.10590009
95	0xbafe21ba	-0.0019388713
96	0xbd46e4cf	-0.048558053
97	0xbd730cc5	-0.05933835
98	0x3b5569d5	0.0032564302
99	0xbb4278ec	-0.0029674126

linear_last.weight f4 [3, 100]
0	0xbd2f5786	-0.04280808
1	0xbd6a8d42	-0.05726362
2	0xbb513b60	-0.003192626
3	0x3c6ec34e	0.014572931
4	0xbd1c2273	-0.03811879
5	0xbcbe4489	-0.02322604
6	0xbcc6915d	-0.024239236
7	0xbeb86cd7	-0.36020538
8	0xbd36f287	-0.044664886
9	0x3b9b5167	0.0047399285
10	0x3d28f8c6	0.041252874
11	0xbda9aa6d	-0.08284459
12	0xbf3e6ac6	-0.74381673
13	0xbdae791b	-0.08519193
14	0xbd924a8d	-0.07143126
15	0xbe3b5417	-0.18293796
16	0xbeba81d1	-0.36427167
17	0xbf31a6e9	-0.6939531
18	0xbe1dc9bc	-0.15408987
19	0xbc485f48	-0.012229748
20	0x3f468c9e	0.77558315
21	0x3d6fb9f6	0.058526956
22	0xbc66eb64	-0.014094207
23	0x3d31e171	0.04342789
24	0xbcf065a5	-0.029345343
25	0x3d3bcf4c	0.04585199
26	0xbce47c5a	-0.027891327
27	0xbc8ed2cb	-0.017434498
28	0xbd83586d	-0.0641335
29	0xbd86de44	-0.065853626
30	0x3f401a02	0.75039685
31	0x3e918171	0.28419068
32	0x3f201d0c	0.6254432
33	0x3f327492	0.6970912
34	0xbd36200a	-0.04446415
35	0xbd041b19	-0.032252405
36	0x3d8a448e	0.06751357
37	0xbf258faf	-0.6467237
38	0x3f233907	0.6375889
39	0x3f3d0995	0.73842746
40	0xbd068614	-0.03284271
41	0x3ce6f2e5	0.028191993
42	0xbdbae975	-0.0912656
43	0xbd2f118d	-0.042741347
44	0xbcac6fb1	-0.021049352
45	0xbd669ada	-0.05630002
46	0x3bece492	0.007229396
47	0x3e849986	0.2589838
48	0x3f2e22a2	0.68021595
49	0xbdbacd68	-0.091212094
50	0xbd7d56f0	-0.06185049
51	0x3f27a492	0.6548549
52	0x3cbd59b1	0.023114057
53	0x3f291ede	0.66062725
54	0x3de4c2f4	0.11169997
55	0xbd874e4f	-0.06606733
56	0x3e775458	0.24153268
57	0x3ef2a53b	0.47391686
58	0x3d9102bd	0.070806004
59	0x3d7faeb9	0.062422488
60	0xbcdfa9ea	-0.027302701
61	0xbd947649	-0.072491236
62	0x3c10a2ed	0.008827907
63	0x3b799565	0.003808343
64	0xbda25e51	-0.07928146
65	0x3d19e157	0.037568416
66	0xbd1ca803	-0.038246166
67	0x3f14ac89	0.5807577
68	0xbc7eda1b	-0.01555493
69	0xbd651511	-0.055928294
70	0xbf38f73c	-0.7225225
71	0x3d9f60b2	0.07782115
72	0xbe1390da	-0.14410725
73	0x3cc0310a	0.023460884
74	0xbda55e50	-0.08074629
75	0x3c9b66c6	0.018969905
76	0xbc20f10a	-0.009823093
77	0xbd89362b	-0.06699785
78	0xbc1f8cb1	-0.009738133
79	0xbd3b01ff	-0.0456562
80	0xbd87179b	-0.06596299
81	0xbf374c83	-0.7160112
82	0xbd5205d3	-0.051275086
83	0x3b8b73e1	0.004255757
84	0xbcdb5741	-0.026775004
85	0x3d974aeb	0.07387336
86	0x3b99f482	0.004698337
87	0xbd5c3fff	-0.05377197
88	0xbe44992d	-0.19199057
89	0x3db50531	0.08838881
90	0xbdb609c6	-0.08888583
91	0xbd71ae5f	-0.059004184
92	0xbea57f51	-0.32323697
93	0xbd82e6e3	-0.063916944
94	0x3d04c880	0.032417774
95	0x3da8f931	0.082506545
96	0xbf145676	-0.5794443
97	0xbdc2af5e	-0.09506105
98	0xbd4a5a38	-0.049402446
99	0xbe2db487	-0.16963397
100	0x3f11620a	0.5679022
101	0xbd4d5428	-0.050129086
102	0x3be5952b	0.0070063076
103	0x3d4f4ed3	0.050612282
104	0x3f4b4027	0.79394764
105	0xbc54523e	-0.012959061
106	0x3f1d52c7	0.61454433
107	0x3ced56e6	0.0289721
108	0xbccd3d00	-0.025053501
109	0x3d9c4e98	0.07632178
110	0xbbb42ebe	-0.005498736
111	0xbdbe06a7	-0.092786126
112	0xbc75d541	-0.015004457
113	0xbe0da809	-0.13833632
114	0x3f28d122	0.6594411
115	0x3c85f11b	0.01635032
116	0xb9965ed5	-0.00028680885
117	0xbb067060	-0.0020513758
118	0x3e9c84a9	0.30569962
119	0xbc637435	-0.013882686
120	0xbce3e71a	-0.027820159
121	0xbd15d517	-0.03658017
122	0x3b9f2e3e	0.0048578074
123	0xbdb27e96	-0.087155506
124	0x3dad1568	0.084513485
125	0xbd673071	-0.05644268
126	0x3d87afe8	0.06625348
127	0xbda81fa3	-0.08209159
128	0xbdc31a06	-0.09526448
129	0xbd5b2385	-0.05350067
130	0xbad8cae8	-0.0016539963
131	0x3c3762f0	0.011193022
132	0xbd09e3bb	-0.033664446
133	0xbc206b55	-0.009791215
134	0x3f1cdc37	0.6127352
135	0xbd2c0bfa	-0.04200361
136	0x3c25a4a1	0.010110051
137	0x3c1d4666	0.009599304
138	0xbce9ad2c	-0.028524958
139	0xbc75293a	-0.014963442
140	0x3da973cf	0.08274042
141	0xbb9cf536	-0.0047899736
142	0x3ca86fc2	0.020561103
143	0x3f434dbd	0.76290494
144	0x3e6b907b	0.23004334
145	0xbd2a7f00	-0.041625023
146	0xbf54467d	-0.82920057
147	0xbd1f20de	-0.038849704
148	0xbd9f4312	-0.077764645
149	0xbd51a8c0	-0.051186323
150	0xbdb80c10	-0.08986676
151	0xbc8ce0e7	-0.017197086
152	0x3c5972c8	0.013271995
153	0xbd770ab3	-0.060312938
154	0xbe96e968	-0.2947495
155	0xbcbde86e	-0.02318212
156	0xbeb9e839	-0.36309984
157	0xbe3952de	-0.18098018
158	0xbd765edf	-0.06014907
159	0xbdad1dc3	-0.08452942
160	0x3f6514b0	0.8948469
161	0x3da934ac	0.082619995
162	0x3cb46037	0.022018535
163	0x3db6d553	0.08927407
164	0xbce451cf	-0.02787104
165	0x3cc037f6	0.023464184
166	0xbd9b331c	-0.07578108
167	0xbd00259f	-0.03128588
168	0x3ed52204	0.41627514
169	0x3ed11561	0.40836623
170	0x3cbd7f3b	0.023131957
171	0x3d9f57f9	0.07780451
172	0xbf295ced	-0.6615742
173	0xbd6936b5	-0.05693694
174	0x3dcd1c9e	0.10015224
175	0xbc156452	-0.0091181565
176	0x3c9181ea	0.017762143
177	0x3d867f9f	0.065673105
178	0xbf517877	-0.8182444
179	0xbd8072eb	-0.06271919
180	0xbda84b2c	-0.08217463
181	0x3cab2c29	0.02089508
182	0x3c89bd5b	0.016813925
183	0xbf3124da	-0.69196856
184	0x3d6de0c8	0.058075696
185	0xb9fb83db	-0.0004797269
186	0x3d2703a1	0.040774945
187	0xbd65627e	-0.056002133
188	0xbf417c7c	-0.75580573
189	0xbd6f1504	-0.05836965
190	0xbdb4e082	-0.08831884
191	0x3e5165eb	0.20449035
192	0xbdebd32c	-0.11514887
193	0x3d46c527	0.048527863
194	0xbca87d81	-0.020567657
195	0xbd6a289c	-0.057167634
196	0x3c532060	0.012886137
197	0xbdbd1215	-0.092319645
198	0x3f3f5d29	0.74751526
199	0xbdf13733	-0.117781065
200	0xbd67c959	-0.056588504
201	0x3d14192e	0.036156826
202	0x3d666189	0.05624536
203	0x3dad97ac	0.08476195
204	0xbbdc7d86	-0.0067288307
205	0x3d1bb85d	0.03801762
206	0xbd13643b	-0.03598426
207	0x3c4f0862	0.012636276
208	0xbd42b687	-0.047537353
209	0x3c762daf	0.01502554
210	0xbd74b4ea	-0.059742846
211	0x3cf66df0	0.03008172
212	0x3dbbeb73	0.09175768
213	0x3f203cba	0.6259266
214	0xbcdc5210	-0.0268946
215	0xbd8bb8c9	-0.06822354
216	0x3cc8e9a8	0.024525478
217	0x3d3d10d4	0.046158627
218	0xbd0555b7	-0.032552447
219	0x3d873398	0.066016376
220	0xbccd2c6c	-0.025045596
221	0xbebd3034	-0.3695084
222	0x3d68eb90	0.056865275
223	0x3d79afa3	0.060958516
224	0xbd3dcf03	-0.04634
225	0x3d33fff4	0.043945268
226	0xbc863e72	-0.016387198
227	0x3d9f36f3	0.077741526
228	0x3d9f7c82	0.0778742
229	0x3cfcd0ff	0.030861376
230	0xbcb014b2	-0.021494243
231	0xbe997fce	-0.2998032
232	0xbc9154e3	-0.017740672
233	0xbd0b0d2e	-0.033948116
234	0xbd3cccd3	-0.046093773
235	0x3f52b88b	0.8231284
236	0x3dab8377	0.08374684
237	0x3cc77ffc	0.02435302
238	0xbcbffa20	-0.023434699
239	0xbc724741	-0.014787496
240	0xbe80bd38	-0.25144362
241	0xbef62baa	-0.48080188
242	0x3d02587c	0.031822667
243	0xbc7a047e	-0.01525986
244	0xbe547f19	-0.20751609
245	0xbb0a80fa	-0.0021134005
246	0x3cd8dbb5	0.026471952
247	0xbe40b695	-0.1881965
248	0xbde07b62	-0.109610334
249	0x3f433fae	0.7626904
250	0x3db720f0	0.08941829
251	0xbcd19dba	-0.025587905
252	0xbeae5164	-0.3404647
253	0xbd2ef5c9	-0.042714868
254	0xbecf8fc3	-0.4053937
255	0xbdc490a0	-0.095978975

linear_last.bias f4 [3]
0	0xbce3986b	-0.02778264
1	0x3deee24f	0.11664259
2	0xbf066756	-0.5250143
