trained_models/cnn_100_200_[100]_5_[3]_Action Third-Party_zeros_60-20-20_polisis_attr_state.pt (torch_old, 978218 bytes, 7 tensors)

embedding.weight f4 [1634, 100]
00000000: 0000 0000 0000 0000 0000 0000 0000 0000
00000010: 0000 0000 0000 0000 0000 0000 0000 0000
00000020: 0000 0000 0000 0000 0000 0000 0000 0000
00000030: 0000 0000 0000 0000 0000 0000 0000 0000
00000040: 0000 0000 0000 0000 0000 0000 0000 0000
00000050: 0000 0000 0000 0000 0000 0000 0000 0000
00000060: 0000 0000 0000 0000 0000 0000 0000 0000
00000070: 0000 0000 0000 0000 0000 0000 0000 0000
00000080: 0000 0000 0000 0000 0000 0000 0000 0000
00000090: 0000 0000 0000 0000 0000 0000 0000 0000
000000a0: 0000 0000 0000 0000 0000 0000 0000 0000
000000b0: 0000 0000 0000 0000 0000 0000 0000 0000
000000c0: 0000 0000 0000 0000 0000 0000 0000 0000
000000d0: 0000 0000 0000 0000 0000 0000 0000 0000
000000e0: 0000 0000 0000 0000 0000 0000 0000 0000
000000f0: 0000 0000 0000 0000 0000 0000 0000 0000
00000100: 0000 0000 0000 0000 0000 0000 0000 0000
00000110: 0000 0000 0000 0000 0000 0000 0000 0000
00000120: 0000 0000 0000 0000 0000 0000 0000 0000
00000130: 0000 0000 0000 0000 0000 0000 0000 0000
00000140: 0000 0000 0000 0000 0000 0000 0000 0000
00000150: 0000 0000 0000 0000 0000 0000 0000 0000
00000160: 0000 0000 0000 0000 0000 0000 0000 0000
00000170: 0000 0000 0000 0000 0000 0000 0000 0000
00000180: 0000 0000 0000 0000 0000 0000 0000 0000
00000190: 0000 0000 0000 0000 0000 0000 0000 0000
000001a0: 0000 0000 0000 0000 0000 0000 0000 0000
000001b0: 0000 0000 0000 0000 0000 0000 0000 0000
000001c0: 0000 0000 0000 0000 0000 0000 0000 0000
000001d0: 0000 0000 0000 0000 0000 0000 0000 0000
000001e0: 0000 0000 0000 0000 0000 0000 0000 0000
000001f0: 0000 0000 0000 0000 0000 0000 0000 0000
00000200: 0000 0000 0000 0000 0000 0000 0000 0000
00000210: 0000 0000 0000 0000 0000 0000 0000 0000
00000220: 0000 0000 0000 0000 0000 0000 0000 0000
00000230: 0000 0000 0000 0000 0000 0000 0000 0000
00000240: 0000 0000 0000 0000 0000 0000 0000 0000
00000250: 0000 0000 0000 0000 0000 0000 0000 0000
00000260: 0000 0000 0000 0000 0000 0000 0000 0000
00000270: 0000 0000 0000 0000 0000 0000 0000 0000
00000280: 0000 0000 0000 0000 0000 0000 0000 0000
00000290: 0000 0000 0000 0000 0000 0000 0000 0000
000002a0: 0000 0000 0000 0000 0000 0000 0000 0000
000002b0: 0000 0000 0000 0000 0000 0000 0000 0000
000002c0: 0000 0000 0000 0000 0000 0000 0000 0000
000002d0: 0000 0000 0000 0000 0000 0000 0000 0000
000002e0: 0000 0000 0000 0000 0000 0000 0000 0000
000002f0: 0000 0000 0000 0000 0000 0000 0000 0000
00000300: 0000 0000 0000 0000 0000 0000 0000 0000
00000310: 0000 0000 0000 0000 0000 0000 0000 0000
00000320: 0000 0000 0000 0000 0000 0000 0000 0000
00000330: 0000 0000 0000 0000 0000 0000 0000 0000
00000340: 0000 0000 0000 0000 0000 0000 0000 0000
00000350: 0000 0000 0000 0000 0000 0000 0000 0000
00000360: 0000 0000 0000 0000 0000 0000 0000 0000
00000370: 0000 0000 0000 0000 0000 0000 0000 0000
00000380: 0000 0000 0000 0000 0000 0000 0000 0000
00000390: 0000 0000 0000 0000 0000 0000 0000 0000
000003a0: 0000 0000 0000 0000 0000 0000 0000 0000
000003b0: 0000 0000 0000 0000 0000 0000 0000 0000
000003c0: 0000 0000 0000 0000 0000 0000 0000 0000
000003d0: 0000 0000 0000 0000 0000 0000 0000 0000
000003e0: 0000 0000 0000 0000 0000 0000 0000 0000
000003f0: 0000 0000 0000 0000 0000 0000 0000 0000
0.0 0.0 0.0 0.0 0.0 0.0 0.0 0.0
0.0 0.0 0.0 0.0 0.0 0.0 0.0 0.0
0.0 0.0 0.0 0.0 0.0 0.0 0.0 0.0
0.0 0.0 0.0 0.0 0.0 0.0 0.0 0.0
0.0 0.0 0.0 0.0 0.0 0.0 0.0 0.0
0.0 0.0 0.0 0.0 0.0 0.0 0.0 0.0
0.0 0.0 0.0 0.0 0.0 0.0 0.0 0.0
0.0 0.0 0.0 0.0 0.0 0.0 0.0 0.0
0.0 0.0 0.0 0.0 0.0 0.0 0.0 0.0
0.0 0.0 0.0 0.0 0.0 0.0 0.0 0.0
0.0 0.0 0.0 0.0 0.0 0.0 0.0 0.0
0.0 0.0 0.0 0.0 0.0 0.0 0.0 0.0
0.0 0.0 0.0 0.0 0.0 0.0 0.0 0.0
0.0 0.0 0.0 0.0 0.0 0.0 0.0 0.0
0.0 0.0 0.0 0.0 0.0 0.0 0.0 0.0
0.0 0.0 0.0 0.0 0.0 0.0 0.0 0.0
0.0 0.0 0.0 0.0 0.0 0.0 0.0 0.0
0.0 0.0 0.0 0.0 0.0 0.0 0.0 0.0
0.0 0.0 0.0 0.0 0.0 0.0 0.0 0.0
0.0 0.0 0.0 0.0 0.0 0.0 0.0 0.0
0.0 0.0 0.0 0.0 0.0 0.0 0.0 0.0
0.0 0.0 0.0 0.0 0.0 0.0 0.0 0.0
0.0 0.0 0.0 0.0 0.0 0.0 0.0 0.0
0.0 0.0 0.0 0.0 0.0 0.0 0.0 0.0
0.0 0.0 0.0 0.0 0.0 0.0 0.0 0.0
0.0 0.0 0.0 0.0 0.0 0.0 0.0 0.0
0.0 0.0 0.0 0.0 0.0 0.0 0.0 0.0
0.0 0.0 0.0 0.0 0.0 0.0 0.0 0.0
0.0 0.0 0.0 0.0 0.0 0.0 0.0 0.0
0.0 0.0 0.0 0.0 0.0 0.0 0.0 0.0
0.0 0.0 0.0 0.0 0.0 0.0 0.0 0.0
0.0 0.0 0.0 0.0 0.0 0.0 0.0 0.0

convolutions.0.weight f4 [200, 1, 3, 100]
00000000: d8cd 19bd 0782 b8ba b9ab 38be 31f9 fd3d
00000010: a0ed 673d 2fdd b63d 3a3d a73e 7037 edbd
00000020: 5add a03d b634 a9be 0cc3 0dbd d1df f23d
00000030: 0aa9 1cbd 0af7 2a3e 8464 f13d f91b 283e
00000040: 75f5 be3b 1129 75be 97ba 6b3e ec70 b13c
00000050: cb4f 0cbe 1be8 0e3e 2368 a53e 0d38 87bd
00000060: 1dd8 80bd df93 1c3e 7591 c03c 36e6 5bbd
00000070: 9900 273d a3bd 04be 60e6 1c3d 8a78 f33d
00000080: 9fb3 2fbe 32a9 4c3c 82ea 0e3e 04aa d03b
00000090: 31e2 e3bd d3f4 90be c690 c8bd 8999 a43d
000000a0: 1798 853c 995c 413e c4eb 253d dd4b db3d
000000b0: a925 e6be 756a 823e c894 083e 2dfc 38bd
000000c0: d6d1 9ebc c560 b2bd d269 b13d 30cb 2ebc
000000d0: ac71 623e 504f ea3d f1bf 253e 6cb2 363d
000000e0: e096 aabc 72fc ed3c aded 04be 9f3b d43d
000000f0: 1725 633e c5b0 2b3d a11c 853d 2642 05be
00000100: 25c5 223e 32d8 003e c908 82be 15e4 aabd
00000110: 802d 063e a3b6 473d cb6a 80bc 0ec7 5fbe
00000120: 60e9 4ebe d4b7 be3e 1274 113e 63f2 47be
00000130: 20b3 05be 1091 c8bd 4830 803d ec0f 5dbc
00000140: 07a5 673d 95f5 403e 90a5 6cbd 7d4d 83bd
00000150: facc 93bc 5736 b43b d001 1d3e 7bf1 43be
00000160: 63ad fd3c b91d 9abd 3de2 683d 1778 f83c
00000170: 0ce0 55be 7ea3 1fbd c890 f23d 162c 59bd
00000180: 67be 3e3e ecaa d7bd 0831 66bd 6ac6 8dbe
00000190: 5f26 78bd 7706 a33d 2ce3 4c3a a0b2 1d3e
000001a0: 74b6 e6bc 5835 b73d 4dc3 23bd 7ee4 6839
000001b0: e463 dbbc 1b7f c93d 1dcd 2e3e 1de2 093e
000001c0: b8bb 83bd 2564 acbd 2c81 42bd d6cf 3fbe
000001d0: 7fa1 acbd c4d7 803d e4a4 1b3e 9cec 04be
000001e0: f7f7 fb3c 734b b33d bca8 233e f2ae 813d
000001f0: a1d1 093e 0dd8 1fbe c0dd 6e3b ab5d 5f3d
00000200: 4da8 54be 376c e1bc 059e e8bc a2f3 443d
00000210: a96a 2cbd 4c31 7b3d 05fa dc3d b13a 273d
00000220: 4523 9bbc b4f4 65be 6793 dd3c 673b 7e3d
00000230: 686c da3b 21d3 a9bd b08e eb3d 81a9 fa3b
00000240: 91d2 8abe 0a3e c5bd d5c4 093d cbea 61bd
00000250: 7024 9a3d 4bb2 43bd 063f 9cbd 24bc cebc
00000260: f3e9 63be ed83 403e bc66 9c3d 4646 d73c
00000270: 4202 203d 4e25 1fbd 1288 1dbe 3197 a1bd
00000280: 31fa d23c 8158 03be 3564 5c3a f773 51be
00000290: 7f0f 14bc 7224 54bc 1c90 163e 092e 97bd
000002a0: 41b2 103e 1367 f33d 3abc 293d 03e1 5abe
000002b0: 5895 2fbb 5142 e63d 2fb2 c7bd 64e4 023d
000002c0: 5267 a03c 2385 7c3d b234 3a3c 681a 373e
000002d0: 92be b43d c78c e13d 6c14 56be c92d 4ebe
000002e0: ebe8 a53c a041 f8bc b53e e6bd 4885 5a3e
000002f0: 25fa f33c aa2f c93c 8ac7 76be be87 ef3b
00000300: 4bba c03d 2ddb 1abe b43c 3e3d a663 073d
00000310: 281c 84be a061 5fbd d8a7 04be 79cc 10be
00000320: a230 6e3d 42d2 c1b9 c659 d2bd e723 9abc
00000330: d985 1fbd 7035 143d 06f2 6dbd 6c00 aa3e
00000340: fdc2 82bd 2e02 193d 7613 f93d d8e5 8c3e
00000350: f0e1 ba3d da57 033e 04cf 263e 1f1e 613e
00000360: bff1 bbbd 8848 1e3e b0de b73d 4475 a2bd
00000370: 9d6d 3e3d 52e3 7b3d e384 06be 95f4 9c3d
00000380: b9de 25be 2b05 03bd 8a8f 3abe dd5a 623e
00000390: c6c2 db3c 1edc 393d e2ac a33c 4cfe a0bc
000003a0: dae3 c8bc 226a 2fbe 9657 da3c 1bb5 b9bd
000003b0: dba8 173e d80c 083e f296 bbbc dc05 d03e
000003c0: 04ad dd3b 90c7 02be 13b2 94ba 378b 15be
000003d0: f293 513e 015b 7a3e a258 74bd f65c 4a3e
000003e0: 3a5f b53d b9a8 debd bbe7 4f3d 5bb6 37bc
000003f0: 3f1a 433c 6fb6 873d 1b13 863e 8df9 903d
-0.037549824 -0.0014076837 -0.18034257 0.12401045 0.0566231 0.08928906 0.326639 -0.115828395
0.078547195 -0.33048028 -0.03460984 0.11859096 -0.038247146 0.166958 0.1178675 0.1641692
0.0058276006 -0.23941447 0.23020397 0.02166029 -0.13702314 0.13955729 0.32306013 -0.06602488
-0.0629122 0.15290783 0.02350686 -0.053686343 0.040772054 -0.12962966 0.03830564 0.118882254
-0.17158364 0.012491511 0.13956645 0.0063679237 -0.11127127 -0.28311786 -0.09793238 0.08037097
0.016307874 0.1888298 0.040508047 0.10707829 -0.44950607 0.25471845 0.13338006 -0.04516237
-0.019387167 -0.087098636 0.08662762 -0.010668561 0.22113675 0.11440909 0.16186501 0.04460375
-0.020823896 0.02905104 -0.12981291 0.10362934 0.22182117 0.041916627 0.06499601 -0.13013515
0.15895517 0.12582472 -0.25397328 -0.083442844 0.13103294 0.04875816 -0.015675923 -0.21853277
-0.20206213 0.37249625 0.14204434 -0.19526057 -0.13056612 -0.097932935 0.06259209 -0.013492566
0.056553867 0.18843682 -0.05777508 -0.06411264 -0.018042076 0.005499642 0.15332723 -0.19135086
0.030966466 -0.075252004 0.056856383 0.0303307 -0.20886248 -0.038974278 0.11844021 -0.05302056
0.1862732 -0.10530648 -0.056199104 -0.2769044 -0.06058347 0.079602174 0.00078158337 0.15400171
-0.028163172 0.089457214 -0.039981175 0.00022210364 -0.02678103 0.098386966 0.17070432 0.13465162
-0.06432289 -0.084175386 -0.04748647 -0.18731627 -0.084292404 0.06291154 0.1519962 -0.12980884
0.030757887 0.08754625 0.15982336 0.06332196 0.13458873 -0.1560976 0.0036448091 0.054532688
-0.20767327 -0.027517421 -0.028395662 0.04808391 -0.042093907 0.06132631 0.10789875 0.040827457
-0.018937716 -0.22456628 0.027047826 0.06206837 0.006665755 -0.08292223 0.11501825 0.007649601
-0.27113774 -0.09630974 0.03363498 -0.055155557 0.07526481 -0.047777455 -0.07629208 -0.025236197
-0.22257213 0.18800326 0.076367825 0.026278626 0.039064653 -0.038853936 -0.15383938 -0.078901656
0.025754066 -0.1282673 0.0008407266 -0.20454393 -0.009036898 -0.012948142 0.14703411 -0.073818274
0.14130498 0.11884894 0.041439272 -0.21374898 -0.0026791897 0.112431176 -0.09750783 0.03195609
0.019580517 0.061650407 0.011365103 0.17881167 0.08825411 0.11013179 -0.20906228 -0.20134653
0.020252666 -0.03030473 -0.11242429 0.21339905 0.029782364 0.02455886 -0.24099556 0.007309883
0.094105326 -0.15122671 0.04644461 0.033054017 -0.25802732 -0.05453646 -0.12954652 -0.141405
0.05815185 -0.00036968483 -0.10271029 -0.018815948 -0.038946006 0.036183774 -0.05809214 0.33203447
-0.06384847 0.037355594 0.12161915 0.27519107 0.091251254 0.12826481 0.16289908 0.21984147
-0.09176969 0.15457356 0.08978021 -0.07932523 0.046491254 0.061496086 -0.1313663 0.07663838
-0.16198243 -0.03198735 -0.18218818 0.22104974 0.026826274 0.045375936 0.019979898 -0.019652508
-0.02452271 -0.1713033 0.026653092 -0.09067746 0.14810507 0.1328615 -0.022899125 0.4062947
0.00676501 -0.1277144 -0.0011344574 -0.14603887 0.20466593 0.24448778 -0.05965484 0.19762024
0.08856054 -0.10872025 0.050758105 -0.0112129105 0.011908113 0.06626593 0.2618645 0.07078848

convolutions.0.bias f4 [200]
00000000: e8dc e0bd e873 2ebd d22c 6cbb 9e27 a3bd
00000010: f3f5 f6bd 3fb9 8cbc 0dff e2bb 5952 08bc
00000020: 0a71 223d 9182 24bc f5e1 25bd 4fd8 48be
00000030: 95ed 4bbd 26d3 4bbd 32e6 22bc 670a 3ebd
00000040: bfcb e9bd 4cfc 63bc 625a c13b 2d6e 0bbd
00000050: d0ca f6bd 830e cfbc 57a3 eabc 4d8b dabd
00000060: be5e 843c fd4f 24bd 7bd2 19be 4dde b3bd
00000070: 6d9c a8bc 373d e7bd c553 81be 5313 a7bb
00000080: b05e 2dbd a438 12be 3f8a 35bd 40cb f1bc
00000090: 4a72 e6bc 1829 40be 7b7b b9bc f3a1 c3bd
000000a0: 9268 c7bd dfc6 c6bc ed20 8bbd 2815 d4bd
000000b0: 79b1 b5bc b63d adbc fbbc d8ba 86c8 24bc
000000c0: 7195 a8bc a104 92bb b30e e7bc 0325 563d
000000d0: 9bd6 b5bb c91d 50bd 8741 80be 1d5f bfbd
000000e0: 892d 1cbc a8f9 873c ca65 3dbc 3092 32bd
000000f0: 3634 88bd 38c7 c6bd 7d11 05be 50e5 d73b
00000100: e834 f4bc 3f17 abbd 372d 6b3d 7823 a7bb
00000110: 1f96 09be 9fd1 0dbd 4ec5 aabd 128e 1ebc
00000120: 7b20 3fbd b268 cabd ffbf 56be 893d f4bc
00000130: 8bc1 02bd cc34 90bd df11 7cbd 1e08 a7bd
00000140: 6ff4 1d3d 79e2 bebc 03a1 67ba e9a4 70be
00000150: 76ae 863d 8668 9e3d 8def e5bc da65 f4bd
00000160: a599 65bd dde7 46bc 2bc3 16be a5f4 87bc
00000170: a4c4 88bc a6e9 fc3c 6e4d 20bd ecec 2fbd
00000180: d3be 06be 014f 94bd 4d6e aebd 7d8d 8fbc
00000190: a405 51be dfbd b5bd 15ad cfbd 88d9 6dbd
000001a0: 1dcb b9bc 97bd 11bd bf34 efbd 7dc4 6dbd
000001b0: 143c a9bc c71a 863b 8983 e53c aadb 07bd
000001c0: 339e 8abd cd5d 22bd 382b 71bd ae6c bdbc
000001d0: e41f b1bc 9214 e6bd 8619 a6bd b1c3 4fbc
000001e0: cdee 95bd 85f9 44be 3ee9 cdbc 547e f5bc
000001f0: ed84 93bd c88f 4cbe 6b68 07bd b300 36bd
00000200: 5f5a 8dbd 5c13 10bc 35ca 1dbd 2885 c1bc
00000210: 902c 87bc 3f82 80bd df65 06be 1908 6abd
00000220: da8a 973c d1b3 a8bd a188 17be 52ea b1bc
00000230: dc81 59bc d62a 68bb de62 0dbc c718 ddbd
00000240: dc49 0bbe 5da2 b239 08a7 62bd bc00 13be
00000250: 0505 57bd 8ef6 e1bd 1339 4cbc a517 08be
00000260: e8ab 45bd 7ac4 1bbe 4e66 393b d38a 1b3c
00000270: 7977 ddbc 488a abbd b4c0 d8bd f760 a83c
00000280: 540e 88bd 215b 1abd 34ff 2cbc 7ed8 eebd
00000290: cb81 97bd 8ffd 9c3d 102e 85bd 9220 8e3c
000002a0: 29d8 c8bc c69e d5bd fcfa 953d 2929 45bc
000002b0: b7cd acbd fa52 14be b42c 19be 5919 87bd
000002c0: e0a5 c8bb 21e8 96bd 8c23 793d 1d54 8fbd
000002d0: 15bc 70bb 4e42 31be 5d27 22be 3b5c cabd
000002e0: 3d80 debc 8a83 a83d 2389 49be b563 10be
000002f0: 5c44 9abd e634 50bd bd3e 3ebe f549 bdbd
00000300: be76 fdbd 7b5f 33bd a32c 07be 824b 90bc
00000310: 669c 7abe 696c ffbc 3184 d2bd 17fa c6bd
-0.109796345 -0.042591006 -0.0036037457 -0.07966541 -0.1205863 -0.017178176 -0.006927377 -0.008320414
0.039658584 -0.010040895 -0.040498693 -0.19613765 -0.049787123 -0.049761914 -0.009942578 -0.04639664
-0.114158146 -0.013915133 0.005900667 -0.03404062 -0.12050402 -0.025275474 -0.02864234 -0.10671101
0.016158458 -0.040115345 -0.15021698 -0.08782635 -0.020582402 -0.11290973 -0.25259224 -0.005098739
-0.04232663 -0.14279419 -0.044321295 -0.029515862 -0.02813067 -0.18765676 -0.022641888 -0.09552374
-0.09736742 -0.024264751 -0.067933895 -0.10355598 -0.022179352 -0.02114759 -0.0016535813 -0.010057574
-0.020579072 -0.004456118 -0.028205251 0.05228139 -0.0055492646 -0.050809655 -0.25049993 -0.09344313
-0.009532341 0.016598538 -0.011559913 -0.043596447 -0.066505834 -0.09705967 -0.12994952 0.0065886155
-0.029810384 -0.08354043 0.057416167 -0.0051006638 -0.13436173 -0.03462374 -0.08338414 -0.009677427
-0.046661835 -0.0988325 -0.20971678 -0.029814498 -0.03192286 -0.0704132 -0.06154048 -0.08155845
0.03856319 -0.02330135 -0.00088359433 -0.23500408 0.065762445 0.0773478 -0.028068328 -0.11933489
-0.05605473 -0.012140241 -0.14722888 -0.016596148 -0.016695328 0.030873131 -0.039136343 -0.042950556
-0.13158731 -0.07241631 -0.08517132 -0.017523522 -0.20412308 -0.08874106 -0.10140435 -0.058068782
-0.02267986 -0.035581198 -0.116799824 -0.058048714 -0.02065853 0.0040925476 0.028016822 -0.033168472
-0.06768455 -0.039640237 -0.058879107 -0.023123112 -0.021621652 -0.11234392 -0.08110337 -0.012680934
-0.07320938 -0.19235809 -0.025135633 -0.029967465 -0.07203088 -0.19976723 -0.033058565 -0.04443426
-0.069020025 -0.008793678 -0.038522918 -0.023623064 -0.016500741 -0.062748425 -0.13124798 -0.05713663
0.018498827 -0.08237422 -0.14798214 -0.021718178 -0.01327559 -0.0035425923 -0.008629529 -0.107957415
-0.13602394 0.00034071776 -0.055335075 -0.14355749 -0.05249502 -0.11033355 -0.012464779 -0.1329027
-0.048259646 -0.15211669 0.0028289738 0.0094935475 -0.027034508 -0.083759844 -0.1058363 0.020554049
-0.06643358 -0.037684564 -0.010558892 -0.11662386 -0.07397803 0.0766555 -0.06502926 0.017349515
-0.024517136 -0.10430674 0.07323262 -0.012033739 -0.084376745 -0.14484778 -0.14958459 -0.065966316
-0.0061232895 -0.07368494 0.060824916 -0.06998465 -0.00367332 -0.1731045 -0.15835328 -0.09880873
-0.027160758 0.08228214 -0.1968122 -0.14100535 -0.0753257 -0.050831698 -0.1857862 -0.09242622
-0.12376164 -0.04379223 -0.13200621 -0.01761413 -0.24473724 -0.031179624 -0.1027912 -0.097156696

linear_layers.0.weight f4 [100, 200]
00000000: 37a3 52bd e8e8 a4bc 76a9 9a3c 395a 6538
00000010: d979 bdbd 4a7a 18bc d0ed 343d c326 403c
00000020: 8221 cebd b435 09bd 6bc2 43bd 76e4 f83c
00000030: 33dc bf3c 2ccd a4bc ec34 c9bc 31fe 1c3d
00000040: e4aa c1bc 99f5 0cbe 15e3 eabd 8c4f b2bc
00000050: c01b 7abd 94ff 113c 17d5 a3bd 2a99 e4bc
00000060: 94e1 e0bd 2117 dc3c 1338 bf3b e68f afbd
00000070: 048b 81bd 8bab 80bc 2b73 b83c 9ff8 4dbd
00000080: 6f28 c6bd c9b1 bdbb a4f1 98bc d265 79bc
00000090: 3851 0dbd cd33 9d3b a03c 183c 3f11 e2bc
000000a0: 4ae7 1ebd c64e 003c cb8f 6fbc 2d46 0fbd
000000b0: 1e4b af3b fe16 f93b 4688 7dbc 9aa7 f3bc
000000c0: e102 c9bc 9927 3ebb 5a4e 2bbc c9e8 1bbd
000000d0: 857a c73c 2586 793a 0110 c2bc 15af 98bd
000000e0: 049a b03c 55c1 c5bc a6d1 abbc 497b ebbb
000000f0: ab51 3c3d bcaf 963c febf ccbc 2d86 b3bd
00000100: d455 85bd 674e c8bd b040 f4bc 38ef b3bd
00000110: 8a03 06bd dc28 fd3b aebe c7bd 26ea 95bc
00000120: 5910 2ebd 0cdc c2bc 65ff 5fbd 21df b7bd
00000130: 3829 87bc 5766 cbbd 8313 2bbc baf8 cf3c
00000140: 6305 9c3c 5869 a7bc ca28 333d 9589 78bc
00000150: 1ed7 c1bd 84ef 96bc 412c 26bd 0b96 8cbd
00000160: 39e9 29bd 215f b4bc 946f 7bbd 7dee 9a3c
00000170: 9d54 833d 939a 45bc 6ed8 cbbd 1f1a a03c
00000180: 38c4 b4bc f307 0abb b252 afbd 698f 9cbd
00000190: 2dde 8dbd 219a 603b e9f4 10bd e9d8 b0bd
000001a0: bc79 bf3c 631d 84bd f9bf c4bc f094 a9bd
000001b0: a6c5 8ebc 5239 99bd f81d bdbd 9154 13bd
000001c0: 4092 edbc 7f2e 70bd dd73 aabc 3083 30bd
000001d0: 4802 4dbd 7562 d6bc c52e e0bb baef 843a
000001e0: feed 79bd f5c0 6ebd ce4e 28bd 81cd 07bd
000001f0: 5a62 58bd 6686 8fbc a317 80bd 626d e8bd
00000200: 3e23 453d ce26 50bc f234 1cbd e819 1b3c
00000210: c1df c03b 81d5 8abd b32c b1bd 53df 4f3d
00000220: 4ffa 19bc a389 a0bc 6d47 0abd 5b8e 1dbd
00000230: 9130 8ebd 2f7d ebbc cf4f 82bc d4d2 7fbc
00000240: 9640 30bd cfd9 39bd 981a debd df3f f5bb
00000250: fef2 c63b a392 2b3a 48c0 243c 158a b8bb
00000260: 8750 2ebd e0e3 a2bd 0723 d53c 7df4 aabd
00000270: 7958 9ebd ce29 0abc c1eb 1dbd 693d 87bd
00000280: 95ee 5c3c 0fbe 91bd 41b1 cfbc c80c 693c
00000290: d89e d8bc 0130 99bd 6192 8bbc 3597 04bd
000002a0: abdc 07bc 31bd abbd b0c3 c7bd e3e8 f23c
000002b0: 7fdc babc 0cdd acbd 9999 d0bd 9d81 97bd
000002c0: ed08 46bd ae18 bfbd 84cb adbc 7ad5 3f3c
000002d0: 0311 14bc ddea febc da17 b1bd f2f2 cabd
000002e0: 60bb d23c fdb1 e1bd a361 dabd 3baa 263d
000002f0: b7c3 aebd 8e2e be3c d3ed 243c 4e40 3bbd
00000300: a48f 0dbd 0e51 c9bd bd35 b0bd ad06 afbd
00000310: 83e9 a1bd e09d 51bd 7404 4f3c 1e51 b63a
00000320: a3d8 32be a614 983d 0a5e 85be 18cb 363e
00000330: 2bf3 1dbc cff0 f4bb 5566 413e 5237 af3d
00000340: 2f95 6d3e f2f0 dd3d 997b be3d f280 7c3d
00000350: e455 f53c 3562 d4bd 528d 153e 37e2 793c
00000360: 0e01 d33c 7639 9c3d a408 afbd 4756 23be
00000370: eebd 6cbd a7a2 2a3d 99fe c53d c557 da3d
00000380: 56a6 e83d 3676 5c3d 25ea 41be fdf3 bebd
00000390: 3f0a 6fbe e645 873d 679f 143e 9962 06be
000003a0: bc42 e4bd 1385 ffbc 7993 0e3e b977 903d
000003b0: d96a 7a3e ad22 da3b e1c1 e2bc b2bc 613c
000003c0: 891c a1bc 972c 863d 094e 9a3d 6542 1fbd
000003d0: 2caa 823e 6b58 1f3e 2302 a83e f461 b5be
000003e0: 0d70 f43b b6be 67be 7108 373d b767 a33e
000003f0: c387 d4bd 5d4d e9bc 7c0b 0bbe 8d10 f93d
-0.051425185 -0.02013059 0.018879633 5.468188e-05 -0.09251756 -0.0093065 0.04417211 0.0117279915
-0.10064985 -0.03349848 -0.047792833 0.030382376 0.023420429 -0.020117365 -0.024561368 0.038328353
-0.023641057 -0.13765563 -0.11469094 -0.021766447 -0.06106162 0.008911032 -0.07999628 -0.027905066
-0.109805256 0.026866497 0.005835542 -0.08572368 -0.06325343 -0.015706798 0.022515854 -0.05028593
-0.09675681 -0.005789016 -0.01866991 -0.01522203 -0.034501284 0.004797435 0.009291798 -0.027596114
-0.038794793 0.007831281 -0.014621685 -0.034979034 0.005349531 0.007601618 -0.015474385 -0.029743005
-0.024537506 -0.0029015301 -0.010455692 -0.038063798 0.024350414 0.0009518585 -0.023689272 -0.07455269
0.021557815 -0.02414004 -0.020973992 -0.0071863276 0.045976322 0.018394344 -0.024993893 -0.087658264
-0.06510511 -0.09780579 -0.029816002 -0.08785862 -0.03271822 0.007725818 -0.09753166 -0.018300127
-0.04249606 -0.023786567 -0.054686923 -0.08978105 -0.016499147 -0.09931629 -0.010441664 0.025387157
0.019045537 -0.020435974 0.04374007 -0.015169521 -0.094648585 -0.018424757 -0.040569548 -0.06864556
-0.041482184 -0.022018017 -0.061385706 0.018912548 0.06412623 -0.012060779 -0.0995339 0.019543706
-0.02206622 -0.0021061867 -0.08560695 -0.07644541 -0.06927142 0.0034271555 -0.035389815 -0.08635122
0.023373477 -0.064509176 -0.024017321 -0.08280361 -0.01742823 -0.07481636 -0.09234232 -0.03596932
-0.029000401 -0.058638092 -0.020807201 -0.04309386 -0.050051004 -0.026169995 -0.006841513 0.0010142245
-0.061017983 -0.058289487 -0.04109078 -0.03315497 -0.05282817 -0.01752014 -0.06254508 -0.11348988
0.048129313 -0.012704564 -0.03813643 0.009466626 0.0058860485 -0.06779004 -0.08651104 0.050750088
-0.009398057 -0.01959688 -0.033759523 -0.03846584 -0.06942857 -0.028746216 -0.015907196 -0.01561423
-0.043030344 -0.045373734 -0.10844916 -0.0074844207 0.0060714474 0.0006544983 0.010055609 -0.005631695
-0.042557266 -0.0795362 0.026017679 -0.08347414 -0.077317186 -0.008432819 -0.03855491 -0.0660351
0.013484617 -0.07116329 -0.025353076 0.014224239 -0.02644293 -0.07479859 -0.017037572 -0.032370765
-0.008292357 -0.08385695 -0.09754121 0.029652065 -0.022810219 -0.08440599 -0.101855464 -0.07397769
-0.048348356 -0.09330879 -0.021215208 0.011708612 -0.009037259 -0.03111785 -0.086471274 -0.099096194
0.025724113 -0.11020277 -0.10663154 0.04068969 -0.085334234 0.023215558 0.010066467 -0.045715623
-0.034560814 -0.09829913 -0.08604 -0.08546195 -0.07905867 -0.051175952 0.012635339 0.0013909673
-0.17465453 0.074258134 -0.2604831 0.17850912 -0.009640495 -0.0074749957 0.18886693 0.085554734
0.2320144 0.10836972 0.09300918 0.06164641 0.029948182 -0.10370294 0.1460469 0.015251688
0.025757339 0.07628147 -0.0854657 -0.15950881 -0.05779832 0.041659024 0.09667701 0.10661272
0.11359851 0.053823672 -0.18936975 -0.09323881 -0.23343752 0.06605129 0.14513932 -0.1312355
-0.11145541 -0.031191384 0.13923444 0.07054085 0.24454822 0.0066569657 -0.02768034 0.013777899
-0.019666927 0.065514736 0.07534415 -0.038881678 0.25520456 0.15561073 0.3281413 -0.35426295
0.0074596466 -0.22631344 0.044685785 0.31915066 -0.10377457 -0.028479272 -0.135786 0.1216136

linear_layers.0.bias f4 [100]
00000000: 48fb d4bc effd 5e3e f3a4 7dbc 2e21 283d
00000010: ded3 74bc d316 22bd fbf3 92bd 858e d83e
00000020: 26aa 65bc a9cb 55bc ceb2 39bc ec79 af3c
00000030: 2844 89bc 22fe 003e ffc1 ce3c d904 1bbc
00000040: 29a9 5dbd 3140 1d3e 19ac 3abd be8a 45bb
00000050: 0788 69bd b432 c8bd 2c07 083e a723 693c
00000060: 750c 83bd 8e08 4b3e 3931 fcbc 1989 4b3c
00000070: cdbe efbb f9db c8bd bcbb d13c 1efa 80bd
00000080: 48df e33b 3a89 543e fcbf 223d a324 183e
00000090: 96c3 2e3c 4dbd e4ba 64e6 b5bc 2ee3 1abd
000000a0: 1625 183d 4ab2 94bd c258 c73b 173e 673b
000000b0: fbf9 71bc a6b2 4abc bbda 843d f032 b83d
000000c0: fe03 dcbc 101a 8d3d e3b3 0e3e e022 bcbc
000000d0: 0f02 c03d 9329 3a3d 5ca4 19be ae54 1dbd
000000e0: 7149 c43d 26ac 933c 64a0 b03d 37e8 f6bb
000000f0: 4c18 083d a28f f83c 554a 99bc 2082 193d
00000100: a577 13bd a9d6 323f 7a28 95bc 2ec0 0b3d
00000110: 9cc1 c33c 7b27 433b e9b0 a5bd 29d4 aabd
00000120: 8e46 bdbb 4464 f43d e4a7 b13d 4d55 c1bb
00000130: 518c b33d 5ce7 50bc a89e 223d 231d 873d
00000140: b6d4 893c bbbb 9b3d 3c1c 8abd 645d ae3e
00000150: eef6 3fbd 893d a83d 071f 2b3c 3f00 b13d
00000160: cfb7 71bd 953b 6a3d 5d7f 153e cc83 46bd
00000170: 8384 5e3d ac46 303e a150 49bd 3157 55bd
00000180: 5780 aabc 8de8 6dbd 955f a0bd 42a8 9b3b
-0.025998726 0.21776555 -0.0154812215 0.041047268 -0.014943091 -0.039572548 -0.07175442 0.42296234
-0.014017617 -0.013049045 -0.011334134 0.021420442 -0.016756132 0.12596944 0.025238989 -0.009461605
-0.0541164 0.15356518 -0.04557428 -0.0030142511 -0.05701449 -0.09775296 0.13283986 0.014229692
-0.0639886 0.19827482 -0.03078519 0.012422823 -0.0073164464 -0.098075815 0.025602214 -0.06297706
0.0069541074 0.20755473 0.03973387 0.14857726 0.0106667485 -0.0017451436 -0.022204585 -0.03781431
0.037144743 -0.072605684 0.006083579 0.0035284811 -0.014769073 -0.012371695 0.06487032 0.089940906
-0.026857372 0.06889737 0.13935809 -0.022965848 0.09375393 0.045449805 -0.15004104 -0.038410835
0.0958432 0.018026423 0.08624342 -0.0075350064 0.033226296 0.030341927 -0.018712202 0.037477612
-0.036002774 0.69858795 -0.018207777 0.034118824 0.023896031 0.002977817 -0.080903836 -0.083412476
-0.005776233 0.11933187 0.08674601 -0.005900061 0.087669976 -0.012750473 0.039702088 0.06597354
0.016825061 0.07604166 -0.067436665 0.34055626 -0.04686635 0.08214862 0.010444409 0.08642625
-0.059013184 0.057185728 0.14599366 -0.048465535 0.05432559 0.17214459 -0.04914916 -0.052085105
-0.02081315 -0.058083106 -0.07830731 0.0047502825

linear_last.weight f4 [5, 100]
00000000: a992 33bb fe79 80bd b659 c9bd 967a 61bf
00000010: ad2c ebbb 79af a13d c0cf c03b 674e 763b
00000020: cf7c b8bc b5db cb38 f62f 573d 739a 2fbd
00000030: 84a7 1c3e e532 323d f2b3 c53d 91ed 01bf
00000040: d206 c6bd 9411 a1bc 8676 6a3c 6819 d9bc
00000050: 1931 00bd 9f16 edbc 7284 1dbf 96d5 2abd
00000060: f923 c7bd a70c efbd 9f38 fcbc 8844 b13d
00000070: 902e e7bb b418 673f c516 73bf a3f4 0c3d
00000080: a38f e5bc 6e38 c2ba 43e7 073d da82 0cbf
00000090: 6f84 63bd f977 213d c49b 9bbd 53f7 94bc
000000a0: 25c7 ba3d 0fcb 48bd e569 b0bb d88e f03c
000000b0: 491e e3bd 913d 6e3d 06a2 b5ba b81c 213f
000000c0: ca53 d03b 0525 54be 879d 3abf f29c 68bc
000000d0: e185 873d 3ee4 19bd 135f 083e fd60 89bb
000000e0: 975b 78bf 62c3 0c3f 27ef 1dbd ba88 583d
000000f0: 02d4 e3bd 8523 a3bf d850 7d3d 1b28 46bd
00000100: ee0d 1b3d fac3 54be 9911 9bbd 3c67 cc3c
00000110: 2268 0ebd 49e4 4a3f ae3f 00bd c62b 143f
00000120: 1ca1 843d 96c7 5a3d 5cd0 c43e eef0 bebc
00000130: 08fd 03bd 38e8 303d 87da 34bf a2b0 96bd
00000140: a01c ccbd 89b5 c6be e3e8 2fbd f321 3d3c
00000150: 3d8a bf3e 5599 0ebe 812f 353d ed35 213d
00000160: 884a c43d 5414 6e3e 92ad e13c b746 093d
00000170: e359 6cbf 8d94 063c 2d22 b33c 14f0 77bd
00000180: 07c3 54bf 00ad ae3d 7d32 f0bc fd8f fdbc
00000190: 4c51 303d 0d17 753e 8512 b83b 28a1 2fba
000001a0: bca6 9b3f a950 5d3d d740 acbd 6fff d03c
000001b0: 4397 9d3f 3ba6 a7bb ad0b 16be b771 a53f
000001c0: 19cf 9bbe c4f9 c2bd d840 05be ddcc cf3e
000001d0: 185e 35bf 1125 90bd aa0e aabd 2833 7a3d
000001e0: 6a3f 70bd fccc 42bd 8c63 5a3b ca76 8f3f
000001f0: e445 9f3b 5bb8 5fbe 741c 9e3d fa90 1f3d
00000200: 174f 17bd b194 f6bc d3ab b9bd fed1 483d
00000210: 4501 923f 26a6 81bd a3df 25bd 29f8 25be
00000220: 49e6 b03d 35fb b8bb 376c 9b3c 87eb 673c
00000230: 89bb 58bd ac3d 3e3d 733d 59be e46b e0bb
00000240: 667e e73c 3426 d53c f88a 89bd 8978 38bd
00000250: 11f0 95bd b22b 1f3f 33d0 563e 3988 45bc
00000260: a3c3 28bd f03a a13f ee8b 97be 167e 71bc
00000270: 15cc a1bd 746b 1dbd 1ab8 963f d482 84bd
00000280: 8bbf d7be 96a5 6ebd 7bd6 adbd 57cc 463f
00000290: 197e e9bc b805 80bd 1d63 2dbe 3bdb 3e3d
000002a0: 3398 963f a426 b23c 5355 b4bc 61df eabc
000002b0: bdc6 03bd f186 893a 75b6 cdbd e04d 6c3f
000002c0: 842a aebd c08a 0ebe 49dc d8bd 5673 e6be
000002d0: d9d9 57bd 74aa a93e f9e8 033d 68ab 05be
000002e0: 0d7c 1bbf 83f4 c13e a699 873c 354c a1bd
000002f0: ae8d 2ebd b663 21be 6424 b9bc eb38 bcbb
00000300: 5d60 6fbe 97da 473b 0bd8 a4bc 99e5 8f3d
00000310: 6532 60be 5c3b a4bd 4fd6 523c eef9 983d
00000320: 4af3 de3c 707c 41be 2467 82bf 89df 0dbf
00000330: 77a9 1dbd 3a16 7fbd b12b 9d3d d6e7 713d
00000340: 694a 25bd a4cf 23bc 3ded 3cbf a60b 46bd
00000350: 156f 7dbf 2476 803e bffc f23c 7127 293d
00000360: 0021 143e e0b1 693e 474a 943d ab7c 36bd
00000370: 6fac 893f ffa1 173d 162e 913d 8c5d 4dbd
00000380: b287 623d 0b09 f5bb 1280 863d 1acd 62bf
00000390: f5c1 1c3d 599a c03c 2d22 29bf 3120 2b3b
000003a0: 8442 4ebd 6a3c 153e a2da 7d3d ed48 ac3d
000003b0: 323b 8c3d dfec 6b3c 2ca9 823c 7a75 6f3d
000003c0: 119c a7bf b93e a73d f42d 403d 6f5a 6abf
000003d0: d165 513d eaea 9a3d cf0c c6be ae97 80bd
000003e0: 12fa e0bb 8850 57bd 5203 843b 5ecf 35bd
000003f0: 4b98 873d 6eca 18bd 3f7e 333e 120a 96bf
-0.0027400649 -0.06273268 -0.09831564 -0.88077676 -0.0071769566 0.07894797 0.0058841407 0.0037583353
-0.02252045 9.720718e-05 0.052535973 -0.042871904 0.15298277 0.043505568 0.096534625 -0.5075312
-0.096692696 -0.019661702 0.014310485 -0.026501372 -0.031296823 -0.02894145 -0.6153022 -0.041707598
-0.09723658 -0.11672335 -0.030788718 0.086556494 -0.007055111 0.9027207 -0.9495662 0.03441299
-0.028022593 -0.0014817843 0.033179533 -0.54887164 -0.05554622 0.039421055 -0.07598069 -0.01818434
0.09120015 -0.049021777 -0.0053837174 0.029364988 -0.11089761 0.058164183 -0.0013857491 0.62934446
0.0063576447 -0.20717247 -0.7289662 -0.014197575 0.06617332 -0.037571184 0.13317518 -0.00419247
-0.97014755 0.5498563 -0.03855815 0.052864768 -0.11124422 -1.2745215 0.061844677 -0.04837809
0.03785508 -0.20777884 -0.07571716 0.02495157 -0.034767278 0.79254586 -0.03131073 0.5787929
0.06476042 0.053412996 0.38440216 -0.023308244 -0.03222373 0.04319021 -0.70645946 -0.07357909
-0.09966397 -0.38810375 -0.042946707 0.011543739 0.37410155 -0.13925679 0.044234756 0.03935807
0.09584528 0.23249942 0.027548585 0.033514705 -0.92324656 0.008214128 0.021866882 -0.06053169
-0.8311009 0.08529091 -0.02932095 -0.030952448 0.04304628 0.23934574 0.005617442 -0.00066997344
1.2160258 0.054032 -0.08410805 0.025512425 1.2311786 -0.0051162518 -0.14652891 1.2925328
-0.3043144 -0.09520295 -0.13013017 0.40585986 -0.708467 -0.0703832 -0.08303578 0.061083943
-0.058654226 -0.04755877 0.0033323495 1.1208127 0.0048606265 -0.2184767 0.07720271 0.03895662
-0.03694066 -0.030100198 -0.09065976 0.04902839 1.1406637 -0.063305184 -0.04049648 -0.16207947
0.086376734 -0.0056451806 0.0189725 0.014155275 -0.052913222 0.046445534 -0.21214847 -0.006848799
0.028258514 0.026019193 -0.06715959 -0.045036826 -0.0732118 0.6217605 0.20977859 -0.012056404
-0.0412022 1.2596111 -0.29598945 -0.014739534 -0.07900254 -0.038432553 1.1774933 -0.06470266
-0.42138323 -0.058263384 -0.084881745 0.7765555 -0.02850251 -0.06251091 -0.1693234 0.046595793
1.1765198 0.02174694 -0.022013342 -0.028670968 -0.032171953 0.0010492486 -0.100445665 0.9230633
-0.08504203 -0.13920116 -0.10588891 -0.4500987 -0.05269799 0.33137858 0.032204602 -0.13053668
-0.6073616 0.3788186 0.016552757 -0.078758635 -0.042615585 -0.15760693 -0.02260036 -0.00574409
-0.23376603 0.003049528 -0.020122549 0.07026214 -0.21894224 -0.080191344 0.012868478 0.07469545
0.027215619 -0.18895125 -1.0187726 -0.5541921 -0.038491692 -0.062277056 0.07674349 0.059058987
-0.040354166 -0.009998236 -0.73799497 -0.048350953 -0.9899762 0.25090134 0.029661534 0.04129738
0.14465714 0.2282176 0.0724073 -0.044552486 1.0755748 0.037019726 0.07088868 -0.05013804
0.05530519 -0.0074778846 0.06567396 -0.8859421 0.03827091 0.023511099 -0.66067773 0.0026111717
-0.050356403 0.14573827 0.061976083 0.08412347 0.06847228 0.014399736 0.015949808 0.058461644
-1.3094503 0.0816626 0.046918824 -0.9154424 0.05112249 0.075643376 -0.38681647 -0.062789306
-0.006865748 -0.052567035 0.004028716 -0.044387214 0.066208445 -0.037302427 0.17528628 -1.1721823

linear_last.bias f4 [5]
00000000: 5734 61be 00da 043e e8e7 1fbe ecd4 15bf
00000010: 3fe4 c5be
-0.21992622 0.12973785 -0.15615809 -0.5852802 -0.386507
