trained_models/cnn_100_200_[100]_7_[3]_Access Type_zeros_60-20-20_polisis_attr_state.pt (torch_old, 733426 bytes, 7 tensors)

embedding.weight f4 [1020, 100]
000000 00 00 00 00 00 00 00 00 00 00 00 00 00 00 00 00
       0.0 0.0 0.0 0.0
000010 00 00 00 00 00 00 00 00 00 00 00 00 00 00 00 00
       0.0 0.0 0.0 0.0
000020 00 00 00 00 00 00 00 00 00 00 00 00 00 00 00 00
       0.0 0.0 0.0 0.0
000030 00 00 00 00 00 00 00 00 00 00 00 00 00 00 00 00
       0.0 0.0 0.0 0.0
000040 00 00 00 00 00 00 00 00 00 00 00 00 00 00 00 00
       0.0 0.0 0.0 0.0
000050 00 00 00 00 00 00 00 00 00 00 00 00 00 00 00 00
       0.0 0.0 0.0 0.0
000060 00 00 00 00 00 00 00 00 00 00 00 00 00 00 00 00
       0.0 0.0 0.0 0.0
000070 00 00 00 00 00 00 00 00 00 00 00 00 00 00 00 00
       0.0 0.0 0.0 0.0
000080 00 00 00 00 00 00 00 00 00 00 00 00 00 00 00 00
       0.0 0.0 0.0 0.0
000090 00 00 00 00 00 00 00 00 00 00 00 00 00 00 00 00
       0.0 0.0 0.0 0.0
0000a0 00 00 00 00 00 00 00 00 00 00 00 00 00 00 00 00
       0.0 0.0 0.0 0.0
0000b0 00 00 00 00 00 00 00 00 00 00 00 00 00 00 00 00
       0.0 0.0 0.0 0.0
0000c0 00 00 00 00 00 00 00 00 00 00 00 00 00 00 00 00
       0.0 0.0 0.0 0.0
0000d0 00 00 00 00 00 00 00 00 00 00 00 00 00 00 00 00
       0.0 0.0 0.0 0.0
0000e0 00 00 00 00 00 00 00 00 00 00 00 00 00 00 00 00
       0.0 0.0 0.0 0.0
0000f0 00 00 00 00 00 00 00 00 00 00 00 00 00 00 00 00
       0.0 0.0 0.0 0.0
000100 00 00 00 00 00 00 00 00 00 00 00 00 00 00 00 00
       0.0 0.0 0.0 0.0
000110 00 00 00 00 00 00 00 00 00 00 00 00 00 00 00 00
       0.0 0.0 0.0 0.0
000120 00 00 00 00 00 00 00 00 00 00 00 00 00 00 00 00
       0.0 0.0 0.0 0.0
000130 00 00 00 00 00 00 00 00 00 00 00 00 00 00 00 00
       0.0 0.0 0.0 0.0
000140 00 00 00 00 00 00 00 00 00 00 00 00 00 00 00 00
       0.0 0.0 0.0 0.0
000150 00 00 00 00 00 00 00 00 00 00 00 00 00 00 00 00
       0.0 0.0 0.0 0.0
000160 00 00 00 00 00 00 00 00 00 00 00 00 00 00 00 00
       0.0 0.0 0.0 0.0
000170 00 00 00 00 00 00 00 00 00 00 00 00 00 00 00 00
       0.0 0.0 0.0 0.0
000180 00 00 00 00 00 00 00 00 00 00 00 00 00 00 00 00
       0.0 0.0 0.0 0.0
000190 00 00 00 00 00 00 00 00 00 00 00 00 00 00 00 00
       0.0 0.0 0.0 0.0
0001a0 00 00 00 00 00 00 00 00 00 00 00 00 00 00 00 00
       0.0 0.0 0.0 0.0
0001b0 00 00 00 00 00 00 00 00 00 00 00 00 00 00 00 00
       0.0 0.0 0.0 0.0
0001c0 00 00 00 00 00 00 00 00 00 00 00 00 00 00 00 00
       0.0 0.0 0.0 0.0
0001d0 00 00 00 00 00 00 00 00 00 00 00 00 00 00 00 00
       0.0 0.0 0.0 0.0
0001e0 00 00 00 00 00 00 00 00 00 00 00 00 00 00 00 00
       0.0 0.0 0.0 0.0
0001f0 00 00 00 00 00 00 00 00 00 00 00 00 00 00 00 00
       0.0 0.0 0.0 0.0
000200 00 00 00 00 00 00 00 00 00 00 00 00 00 00 00 00
       0.0 0.0 0.0 0.0
000210 00 00 00 00 00 00 00 00 00 00 00 00 00 00 00 00
       0.0 0.0 0.0 0.0
000220 00 00 00 00 00 00 00 00 00 00 00 00 00 00 00 00
       0.0 0.0 0.0 0.0
000230 00 00 00 00 00 00 00 00 00 00 00 00 00 00 00 00
       0.0 0.0 0.0 0.0
000240 00 00 00 00 00 00 00 00 00 00 00 00 00 00 00 00
       0.0 0.0 0.0 0.0
000250 00 00 00 00 00 00 00 00 00 00 00 00 00 00 00 00
       0.0 0.0 0.0 0.0
000260 00 00 00 00 00 00 00 00 00 00 00 00 00 00 00 00
       0.0 0.0 0.0 0.0
000270 00 00 00 00 00 00 00 00 00 00 00 00 00 00 00 00
       0.0 0.0 0.0 0.0
000280 00 00 00 00 00 00 00 00 00 00 00 00 00 00 00 00
       0.0 0.0 0.0 0.0
000290 00 00 00 00 00 00 00 00 00 00 00 00 00 00 00 00
       0.0 0.0 0.0 0.0
0002a0 00 00 00 00 00 00 00 00 00 00 00 00 00 00 00 00
       0.0 0.0 0.0 0.0
0002b0 00 00 00 00 00 00 00 00 00 00 00 00 00 00 00 00
       0.0 0.0 0.0 0.0
0002c0 00 00 00 00 00 00 00 00 00 00 00 00 00 00 00 00
       0.0 0.0 0.0 0.0
0002d0 00 00 00 00 00 00 00 00 00 00 00 00 00 00 00 00
       0.0 0.0 0.0 0.0
0002e0 00 00 00 00 00 00 00 00 00 00 00 00 00 00 00 00
       0.0 0.0 0.0 0.0
0002f0 00 00 00 00 00 00 00 00 00 00 00 00 00 00 00 00
       0.0 0.0 0.0 0.0
000300 00 00 00 00 00 00 00 00 00 00 00 00 00 00 00 00
       0.0 0.0 0.0 0.0
000310 00 00 00 00 00 00 00 00 00 00 00 00 00 00 00 00
       0.0 0.0 0.0 0.0
000320 00 00 00 00 00 00 00 00 00 00 00 00 00 00 00 00
       0.0 0.0 0.0 0.0
000330 00 00 00 00 00 00 00 00 00 00 00 00 00 00 00 00
       0.0 0.0 0.0 0.0
000340 00 00 00 00 00 00 00 00 00 00 00 00 00 00 00 00
       0.0 0.0 0.0 0.0
000350 00 00 00 00 00 00 00 00 00 00 00 00 00 00 00 00
       0.0 0.0 0.0 0.0
000360 00 00 00 00 00 00 00 00 00 00 00 00 00 00 00 00
       0.0 0.0 0.0 0.0
000370 00 00 00 00 00 00 00 00 00 00 00 00 00 00 00 00
       0.0 0.0 0.0 0.0
000380 00 00 00 00 00 00 00 00 00 00 00 00 00 00 00 00
       0.0 0.0 0.0 0.0
000390 00 00 00 00 00 00 00 00 00 00 00 00 00 00 00 00
       0.0 0.0 0.0 0.0
0003a0 00 00 00 00 00 00 00 00 00 00 00 00 00 00 00 00
       0.0 0.0 0.0 0.0
0003b0 00 00 00 00 00 00 00 00 00 00 00 00 00 00 00 00
       0.0 0.0 0.0 0.0
0003c0 00 00 00 00 00 00 00 00 00 00 00 00 00 00 00 00
       0.0 0.0 0.0 0.0
0003d0 00 00 00 00 00 00 00 00 00 00 00 00 00 00 00 00
       0.0 0.0 0.0 0.0
0003e0 00 00 00 00 00 00 00 00 00 00 00 00 00 00 00 00
       0.0 0.0 0.0 0.0
0003f0 00 00 00 00 00 00 00 00 00 00 00 00 00 00 00 00
       0.0 0.0 0.0 0.0

convolutions.0.weight f4 [200, 1, 3, 100]
000000 13 31 80 bd c6 be a6 bd 43 bf 81 bd 7a 95 62 bd
       -0.0625936 -0.08141856 -0.063353084 -0.055318333
000010 ef 5a f5 bc 0e ed 9b 3d 60 87 52 3d 6e c3 43 3d
       -0.029950587 0.07613574 0.051398635 0.0477938
000020 60 db ea 3c c5 2f ab 3d 3a cd 1f be 26 48 c6 bd
       0.02866906 0.08358721 -0.15605631 -0.0968173
000030 62 79 52 3d 06 42 ca 3d da 38 46 bd bb 4d a4 3d
       0.05138529 0.09875874 -0.04839406 0.080226384
000040 05 c2 2e 3e 0c 17 a1 3d 8d 24 2a bc 32 4f 29 bd
       0.170662 0.07865724 -0.010384691 -0.041335292
000050 26 a7 2c 3e 0f 4b 55 bc cd 67 58 3d f8 3f b4 bc
       0.16860637 -0.013018384 0.052833367 -0.022003159
000060 d2 ac d8 bd cd 41 35 3d 79 2a 06 bc 27 66 b9 3d
       -0.10579838 0.044252206 -0.008188837 0.09052687
000070 6f 2f 2f 3e ae 51 bf 3c 35 08 88 bd f3 b3 d3 bd
       0.17107938 0.023354378 -0.0664219 -0.10337057
000080 36 ed d7 bd 63 63 98 bd f6 e4 4b bb ef 5b d3 bd
       -0.10543291 -0.074408315 -0.0031111813 -0.10320269
000090 d2 c3 13 3d 16 f8 7d bd 5c 30 3e 3e 26 25 f3 bd
       0.03607542 -0.06200417 0.18573135 -0.1187232
0000a0 69 57 13 bd 32 a1 83 3b 07 39 d4 3d be 24 c1 bd
       -0.035972033 0.0040170187 0.103624396 -0.09430836
0000b0 50 f4 75 bd 55 d4 83 3d f6 5c 2b bd 49 ee 9a bc
       -0.060047448 0.064369835 -0.0418367 -0.018912451
0000c0 82 bc 46 3d 2b da 7a 3d c2 59 fa 3c 00 9b ae 3e
       0.04851962 0.061243217 0.030560378 0.3410263
0000d0 e0 f9 3e 3d 29 a5 ac bb c9 f4 66 3d 55 19 a0 bc
       0.046625018 -0.005268712 0.05638579 -0.01954333
0000e0 26 ab d9 bc 72 22 74 be fe 01 23 bd 00 2b db 3d
       -0.026570868 -0.23841265 -0.03979682 0.10701561
0000f0 66 a5 22 3e 3d 34 6b be fa 6f e2 bd e6 5e 4d bd
       0.15883407 -0.22969146 -0.11056514 -0.05013933
000100 8f 5e 9f 3c 9c 72 5a bd 01 0a c3 3d ca bd 66 3c
       0.019454269 -0.053331956 0.095233925 0.014083335
000110 c6 dd 01 3d 8f 08 a3 3d 7d c1 32 be 78 39 35 3d
       0.03170564 0.07960617 -0.17456622 0.04424426
000120 c0 e7 7a 3e 1f 76 e5 bb 8b 89 54 be 33 8f c8 3d
       0.24502468 -0.0070026065 -0.20755593 0.09792938
000130 4c 7b 92 3e 03 54 a5 bb 7c f5 43 3e 84 1f a6 3c
       0.28609693 -0.0050454154 0.19136614 0.0202787
000140 0d cf 3d 3d eb e9 1c 3e 99 41 a5 bd 24 d2 f0 3a
       0.046340037 0.15323608 -0.080691524 0.0018373174
000150 a6 e4 e6 bb 33 a8 83 bd c6 49 34 bd 3d f6 1c be
       -0.0070463 -0.06428566 -0.04401567 -0.15328307
000160 d9 b4 98 3d 81 c9 64 bd cb 10 fa bd a2 d4 9f bc
       0.07456369 -0.05585623 -0.12210234 -0.01951057
000170 15 4d 5c 3c f5 10 81 3c d7 9e 15 be f9 02 0e bc
       0.013446112 0.015755156 -0.14611374 -0.008667701
000180 f1 e4 35 3d 2c 78 86 bd 5b 97 b0 3d f9 0b f0 bd
       0.04440779 -0.0656589 0.08622619 -0.117210336
000190 02 5d 0a 3e 03 95 77 bc 27 92 cd bc 0f 64 a2 3d
       0.13512042 -0.015111211 -0.025094105 0.07929241
0001a0 fc 30 aa 3d 57 d3 58 be d6 ed fe 3d d5 09 ba bd
       0.08310124 -0.2117437 0.12447707 -0.090839066
0001b0 3b ce 99 bc 75 4c 14 be bc fb 9c bd 88 e9 80 bc
       -0.018775096 -0.14482291 -0.07665202 -0.015736356
0001c0 f9 70 f2 bd fc 20 85 3e 3a 93 a1 3b 72 44 01 3b
       -0.11837954 0.26001728 0.004930881 0.0019724634
0001d0 bc d7 53 bd 3e ba dc bc c3 af 96 bd 62 cc 2f 3d
       -0.051719412 -0.026944276 -0.07357743 0.042919524
0001e0 aa 40 a4 bd 20 71 a6 3d b6 1c 42 bd 0b aa 43 3e
       -0.08020146 0.08127046 -0.047390662 0.19107835
0001f0 d4 46 37 3d c3 ac 0a be 74 a0 00 be 11 38 86 bc
       0.04474528 -0.13542466 -0.12561208 -0.016384156
000200 4a 6c 1f bd 9e ad b5 3d 23 6f d1 3c c4 df dd bd
       -0.038921632 0.088710055 0.02556569 -0.108336955
000210 df 77 07 3e 4d 46 76 3d db 39 03 3c 61 c8 15 3d
       0.13229321 0.060125638 0.008009399 0.03656805
000220 5a e4 88 3c 10 0a 0d be 8c 42 49 bd fe 96 1d 3e
       0.016710449 -0.1377337 -0.04913573 0.1538963
000230 92 eb ae 3b 0e 9f 38 3d b1 5d b9 3d 66 47 16 bd
       0.0053381408 0.04507356 0.09051073 -0.036689185
000240 25 52 82 3b 22 25 33 3d 43 20 07 3d 8f 30 7d bd
       0.0039770775 0.043736584 0.03298975 -0.061813887
000250 0d 69 db 3d 08 b2 92 3c 1c a8 b2 3c 3d 47 19 3e
       0.10713396 0.017907158 0.021808676 0.14968581
000260 6d 3f 88 bd 7d 07 3f 3e 5a 3c d9 3c c8 1e 34 3d
       -0.066527225 0.186552 0.026518036 0.043974668
000270 41 74 e0 3b a6 5e 3e be 22 82 0d 3e 05 96 d5 bd
       0.006849796 -0.18590793 0.13819173 -0.104290046
000280 3f e8 e9 3d 10 10 85 bd 27 61 18 3e fc 70 da bc
       0.114212506 -0.06497204 0.1488081 -0.026665203
000290 20 66 05 bd 79 c2 0d bc a5 ab ff 3c de bb 8c bc
       -0.032568097 -0.008652323 0.031209776 -0.017179426
0002a0 33 61 92 bd 8b db 2f be 7e e8 fb 3d 03 20 d7 bd
       -0.071474455 -0.17173593 0.12300204 -0.105041526
0002b0 d7 f7 0e 3e 30 94 09 3d e8 41 9e 3a c3 bc 54 bc
       0.13961731 0.03358859 0.0012074085 -0.012984457
0002c0 0e 10 2a 3c c4 30 88 bd 9f 4d 08 be 8b 5b d6 3d
       0.010379804 -0.06649926 -0.1331086 0.10466679
0002d0 8a 8e 8f bd c6 05 ad bd ac b0 fb 3c c6 bc c6 bd
       -0.07009609 -0.08448367 0.030723892 -0.097039744
0002e0 ea a5 27 bd fb 4f 04 3d e6 b3 01 3e e0 bb 37 bd
       -0.040929712 0.032302838 0.12666282 -0.044856906
0002f0 f2 be 86 3d 94 74 fb 3d 30 61 19 be 5b bf c7 bb
       0.06579389 0.12278095 -0.1497848 -0.0060958094
000300 c6 07 2a be 89 1d 3e bc 47 33 c6 bd 7f d3 0e 3d
       -0.16604528 -0.011603721 -0.09677749 0.034869667
000310 fd fa 8c 3c 7c c2 ac bd 75 87 c8 3d 57 f4 5e bc
       0.017209524 -0.084355325 0.097914614 -0.01360806
000320 4c f3 d1 3c 4a 0d fe bd 82 6b 2c 3d 84 42 52 3d
       0.025628708 -0.124048784 0.042094715 0.051332965
000330 68 3f 05 3d ca 80 9e 3c 7d c9 ba bd 41 13 3b 3e
       0.032531172 0.01934852 -0.09120462 0.18269064
000340 c4 d6 88 bd fd 08 6d 3c 31 60 48 bd b2 f9 26 bc
       -0.06681588 0.014467475 -0.04891986 -0.010191368
000350 78 5b 3f 3d 1a a2 b3 3c ee f7 7a bd 4a fe 09 bd
       0.04671809 0.021927882 -0.0612716 -0.033689775
000360 8d 74 c0 3d 41 9f cf 3d d3 4d ee bc 93 13 0c bd
       0.0939723 0.10137797 -0.029089844 -0.034198355
000370 85 0a 03 3c 30 8a 5c 3a 59 2b a9 3e f1 2f a4 3d
       0.0079981135 0.00084129255 0.33040884 0.080169566
000380 80 29 33 bd e8 5e 5d 3c 5a 9c 7a bc e6 65 51 bc
       -0.04374075 0.013511397 -0.015296066 -0.012780642
000390 c6 82 2a 3c 35 ec 20 be df d5 be 3d a5 2c 81 3c
       0.010407155 -0.15715106 0.093181364 0.015768358
0003a0 83 cc b4 bd 32 97 2b 3e 68 e8 7b bd 1a 6e af bc
       -0.0882807 0.16756895 -0.061500937 -0.021414805
0003b0 41 68 ab 3d 20 52 05 bd d1 70 5f 3d fa 67 5d bb
       0.08369494 -0.032549024 0.05455095 -0.0033783899
0003c0 0b b3 8b 3d f2 e6 cf bd 89 2a 12 3e 12 a5 6e bc
       0.06821259 -0.10151471 0.14274038 -0.014565723
0003d0 81 e0 c5 3d 2c 4f e9 bc 02 8c df 3b c4 c5 dc 3d
       0.09661961 -0.028480135 0.00682211 0.10779908
0003e0 98 00 19 3e a6 ba 8a bd 4c 05 c1 3c 59 32 39 3d
       0.14941633 -0.067738816 0.023562096 0.04521403
0003f0 94 87 82 3d 9c 7b 54 3e 00 2c fc bd e3 58 53 bb
       0.06373516 0.20750278 -0.1231308 -0.0032249026

convolutions.0.bias f4 [200]
000000 f3 56 57 bd 88 c2 12 3c 08 97 db 3c 38 6d 82 bc
       -0.052573156 0.008957513 0.026805416 -0.01592122
000010 72 08 0a bd 9e 08 ef 3d 38 6e 83 bb 17 b8 c1 bd
       -0.03369946 0.116715655 -0.004010942 -0.094589405
000020 99 f2 8b 3d a2 4a 11 3c 87 0c 41 bb 39 bd 56 bd
       0.06833381 0.0088678915 -0.002945693 -0.05242655
000030 ae 89 81 bd d3 95 67 3d b9 d7 d1 bb 96 6e d5 3d
       -0.063250884 0.056539368 -0.00640389 0.10421483
000040 1c 7e 02 bd d4 db ba bb 6d 81 64 3c 38 d4 db bd
       -0.03185855 -0.005702475 0.013946873 -0.10733837
000050 f0 18 02 bd c3 8f 02 bc 93 a7 b2 3c f4 f4 41 bd
       -0.031762064 -0.007968846 0.021808421 -0.047352746
000060 a4 d5 11 3a 75 24 49 bd c6 d6 ac bd 41 60 12 bb
       0.0005563146 -0.049107034 -0.08439402 -0.0022335204
000070 ca e6 2c bc 73 e4 6a bd f3 35 a6 bd 49 f9 50 bd
       -0.010553071 -0.057346772 -0.08115759 -0.051018987
000080 cf fb 7a bc ec cd a5 bd 1d 8a 1a bd 1c 37 3e bd
       -0.015318825 -0.08095917 -0.03772937 -0.046439275
000090 e0 47 a4 bd 30 80 a1 bd 2a b7 6d bc 7a 77 ab ba
       -0.080215216 -0.07885778 -0.014509002 -0.0013081871
0000a0 2a be 9a 3c b5 33 94 bb 67 95 1b 3d 0d 06 e6 bc
       0.018889505 -0.0045227655 0.037984278 -0.028079057
0000b0 58 32 f8 ba ee 14 87 bb d7 74 09 3e 92 bf 18 bb
       -0.0018935902 -0.004122368 0.13423477 -0.0023307544
0000c0 8f a3 eb 3c d1 48 c3 3d 53 d3 3f bd 39 d9 6a bd
       0.028764514 0.09535373 -0.046832394 -0.057336066
0000d0 84 1b 10 3e b8 bb b4 bd 6d b3 00 bb 70 67 28 bd
       0.14072996 -0.08824867 -0.0019638196 -0.04111427
0000e0 74 e6 75 bb a5 f8 69 bd 9f a7 30 ba cc c5 0b 3e
       -0.0037521394 -0.05712189 -0.00067388447 0.13649672
0000f0 5d a7 a7 3d 1c 3f ba 3d 72 88 de bb a6 1b 85 3d
       0.08186219 0.090940684 -0.006791168 0.06499414
000100 c8 02 ca bc ed 7d e0 bc 4e 10 dc 3c 38 3a 03 3d
       -0.02465953 -0.027403796 0.026863243 0.032037944
000110 40 64 45 bc fb 4f 4f bd 92 fa 5d bc ca 44 aa bd
       -0.012047827 -0.050613385 -0.01354851 -0.08313902
000120 0b 0d 6b 3d b1 cc 19 bc dc d4 a0 bc 99 e8 52 bc
       0.057385486 -0.009387181 -0.01963275 -0.012872838
000130 23 53 7a bb 37 4a fa 3c 74 15 86 ba ce f2 f9 bd
       -0.0038196526 0.030552967 -0.0010229782 -0.122045144
000140 2d 25 8d 3d 8c a6 3f bb 29 52 11 bb 71 cb a6 bc
       0.06891856 -0.0029243557 -0.0022174215 -0.02036068
000150 23 e0 bc bb 47 fe 4b bd 7b a5 78 ba b2 02 a2 bc
       -0.005764024 -0.049803045 -0.0009485108 -0.019776676
000160 c8 29 7f bd e0 ee 17 3c 12 f6 9b 3c c8 2d 5e bd
       -0.062295705 0.009273261 0.019038234 -0.05424288
000170 c6 e4 24 bd d0 b5 cf 3d c7 af c7 bc c7 33 82 3d
       -0.040257238 0.101421 -0.02437581 0.06357532
000180 57 7c f1 bd f3 35 aa bd 46 8d b5 3d af db 12 bd
       -0.11791294 -0.08311071 0.088648364 -0.035854038
000190 71 d2 d0 bb cf 38 8c bc 8d ae 85 3d 9f ac 64 3d
       -0.006372743 -0.017116932 0.065274335 0.055828687
0001a0 b6 8a 2b bd 7e f2 a7 bc 45 98 34 bc 59 75 e4 3c
       -0.041880332 -0.020501371 -0.011022632 0.027887987
0001b0 f6 f1 f2 3c 65 3e 82 bc c7 95 f7 3d 74 93 6b 3d
       0.029656392 -0.015898893 0.12089115 0.05751367
0001c0 d3 1f c5 bc 8f d8 7a bc 5c 87 bd 39 49 e7 58 bd
       -0.024063027 -0.015310421 0.0003614974 -0.052954946
0001d0 66 d9 ee bc ae 19 72 3c 24 37 6e bc f6 9a 0b bd
       -0.029156398 0.01477663 -0.014539514 -0.03408333
0001e0 0f 8b 8b ba 08 e7 a1 bd f1 91 98 bc 16 2f 7b 3d
       -0.0010646301 -0.07905394 -0.018624278 0.0613242
0001f0 fb 36 c9 bc 97 b5 b4 bc 51 c3 19 3d 11 c9 a1 3c
       -0.02456235 -0.022059245 0.037539784 0.019749196
000200 f9 83 37 3e 26 dc e5 3d c9 1c 21 3d 69 c6 88 bb
       0.17921437 0.112236306 0.039334092 -0.004174043
000210 47 c8 ff bb c5 26 ae bd 71 1e fa 3d c9 f6 08 bc
       -0.0078058573 -0.085034885 0.122128375 -0.008359619
000220 25 32 74 bc 04 9e 77 bc 63 e8 9e bd cd ad 48 bd
       -0.0149045335 -0.015113357 -0.07759168 -0.048993874
000230 87 f7 43 bd 69 1a 99 bc bc c2 16 bd 0c 0d 1d 3c
       -0.047843482 -0.018689351 -0.036806807 0.00958563
000240 4c c9 84 3b 7c 78 21 3d 34 ac 28 bd 6c 5f 10 bd
       0.004052317 0.039421543 -0.04117985 -0.03524725
000250 ed 3c 9a bd b6 9f 58 bd 84 4a 65 bb 38 b2 d5 37
       -0.07531152 -0.052886687 -0.0034987042 2.5474568e-05
000260 d9 79 2a 3e 86 b8 c7 3d a7 4e c8 3b 7c 88 cf 3d
       0.16648044 0.09751992 0.0061128917 0.10133454
000270 15 34 52 3d 60 d6 ba bd bd 76 df bd 6f f1 ad 3d
       0.0513192 -0.0912292 -0.109113194 0.084933154
000280 0b ec a6 bc 01 9b 1c 3e 6a 05 28 bd e9 05 83 bd
       -0.020376226 0.15293504 -0.04102079 -0.06397612
000290 a9 af 49 3e d9 e8 4b bb 7a 89 33 3d b2 c2 e0 3c
       0.19695915 -0.003111413 0.04383228 0.027436588
0002a0 ce b0 5b bd 49 7d d9 3d 01 b2 29 bb d4 06 8c bd
       -0.05363541 0.10619599 -0.0025893452 -0.0683724
0002b0 13 b6 70 ba 9b 23 02 bd 98 33 5e bd 91 c8 ef bb
       -0.00091824046 -0.031772237 -0.054248422 -0.0073176106
0002c0 f5 71 47 bd e4 bf 1b bc 06 b4 bc 3c b7 5e 6c bb
       -0.048692662 -0.0095061995 0.02303506 -0.0036067197
0002d0 b3 9a 77 bc 15 f0 d7 bb 18 70 16 3e e2 22 07 bd
       -0.015112567 -0.0065898993 0.14691198 -0.03299225
0002e0 6b dc d5 bc 88 22 93 3a 76 01 1b 3d 73 ac 54 bc
       -0.02610608 0.0011225501 0.03784319 -0.012980568
0002f0 41 cd 03 bd a7 e6 f6 3c cc bb e7 bd db 71 6b bb
       -0.032178167 0.03013928 -0.11315116 -0.0035926017
000300 e9 fa ed 3c d1 f5 b6 3b e1 de 92 3c 34 5d e1 b8
       0.029050307 0.005583503 0.017928543 -0.000107461965
000310 db e1 9d bc 96 4e b7 bd 6c 4d ef ba ea 4c 9c 3c
       -0.019272735 -0.08950536 -0.0018257326 0.019079644

linear_layers.0.weight f4 [100, 200]
000000 88 89 bb 3c f6 fa 61 bc f8 9f cc bc ea 70 85 bc
       0.022892728 -0.013792744 -0.024978623 -0.016289193
000010 92 ec 65 bd d6 6c 0c bd 73 99 ad bc 6a ee ee bb
       -0.056133814 -0.03428348 -0.021191334 -0.0072916048
000020 0e 86 b8 bd 0c 60 a9 bd 7b fb b2 bc 90 1f 20 3c
       -0.09009944 -0.082702726 -0.02184843 0.00977315
000030 c8 42 60 bc 4e ca 8a bd b8 f6 59 bd 44 33 3c bb
       -0.013687797 -0.06776868 -0.053213805 -0.002871708
000040 40 b6 20 bb 00 ba 69 bd 0e 64 bc bd dc d4 dd 3c
       -0.0024522692 -0.05706215 -0.091987714 0.027079038
000050 99 fe 10 bd 91 49 93 3c 87 c2 b4 bb 47 37 66 bb
       -0.035399053 0.017979415 -0.0055163535 -0.0035128163
000060 f5 6b 21 bc 63 87 2e 3c ed c0 f5 3b b3 1d bf bc
       -0.009852399 0.010652396 0.007499805 -0.023329591
000070 42 33 86 bd b1 6a 17 bc a8 51 10 3c b8 de 2d bc
       -0.065527454 -0.009241746 0.008808531 -0.010612182
000080 3b b3 10 3c b4 b5 ea bc 9b db 7a 3d 28 eb f5 ba
       0.008831794 -0.028651096 0.06124459 -0.0018762099
000090 26 6e 6a 3d 80 6c 80 3a a9 30 38 3d 5b 20 9a bd
       0.057233952 0.000979796 0.04496828 -0.075257026
0000a0 2e 96 12 3d a3 7a 8a 3d 35 d2 90 3c ee a1 98 3c
       0.035787754 0.06761672 0.01767836 0.018631902
0000b0 3e 3f a3 bd 1e aa 16 3d 3d c9 43 bd f8 a7 90 bd
       -0.07971047 0.03678333 -0.047799338 -0.070632875
0000c0 a6 32 e7 bc dd b0 9b bd d2 6b e2 bc cb b4 33 3d
       -0.028222393 -0.07602093 -0.027639303 0.04387359
0000d0 c5 ae 17 3d 0c fb 97 bd 64 a7 6d bd 6d d6 99 bd
       0.037031908 -0.0742093 -0.058020964 -0.075116016
0000e0 f9 87 32 3d d6 84 a5 3c 0d 14 e5 bc a0 81 19 3d
       0.043586705 0.020204943 -0.027963663 0.037477136
0000f0 41 dd 21 3d 5c 4e 08 bd 16 ad 5a bd 99 be 4b bd
       0.039517645 -0.033277854 -0.053387724 -0.049742315
000100 f6 a8 0e bd 68 07 26 bd 24 d2 06 3d 1d dd 7a 3c
       -0.034829102 -0.040534407 0.03291525 0.015311507
000110 c6 cc 17 3d 57 92 3d 3d 61 46 42 bc 01 d7 7e bd
       0.03706052 0.04628214 -0.0118576 -0.062216762
000120 cf 72 95 bd e8 fc 36 3d 5f ca 39 3d 98 f8 41 3d
       -0.072972886 0.044674784 0.04535901 0.047356218
000130 50 2f 3e bd 73 44 4b bd ce 87 25 3d a5 32 52 3d
       -0.04643184 -0.049625825 0.040412717 0.05131783
000140 af 42 5a 3d bb 9e 27 bd fd 9e 70 3d d2 27 50 bd
       0.05328625 -0.04092286 0.058745373 -0.050819226
000150 9e f8 02 ba 7f c5 ba 3b d0 20 25 3c 09 1f 8d bd
       -0.00049961533 0.005699813 0.010078624 -0.06890685
000160 85 73 0b bd 55 f0 f7 3c 74 ed 9d bd 5f 80 58 bd
       -0.034045715 0.030265966 -0.07711306 -0.0528568
000170 20 80 0d 3b da 3f 4c bd 62 65 35 3d 56 0e 27 3c
       0.002159126 -0.04986558 0.04428614 0.010196289
000180 4e 89 6b 3d 0d 0d 2a 3c 10 b7 de 3b a9 0a 59 3d
       0.05750399 0.010379088 0.006796725 0.052988682
000190 cb dc 0c bd 72 80 89 bd 9e 89 1b bb 83 7f 73 bd
       -0.034390252 -0.06713952 -0.002373315 -0.059447777
0001a0 b4 a1 04 bd 27 de ac 3c 0b cd 74 bd d1 9c aa 3c
       -0.032380775 0.021102024 -0.059765857 0.020826729
0001b0 82 06 85 bd 19 96 82 3d 40 0f 40 3d 40 c2 98 bd
       -0.06495382 0.06376285 0.046889544 -0.07458925
0001c0 bd d0 1d 3c cc 1b 74 bc 4f 4b 2e bd 73 fd 36 3d
       0.009632287 -0.014899205 -0.04255229 0.0446753
0001d0 50 03 3b 3d ab 6e 02 bc 80 b7 08 3b 60 d0 a0 bc
       0.045657456 -0.007960956 0.0020861328 -0.019630611
0001e0 23 1a 58 bd 30 05 8e bd f8 e7 1a bd 54 bb ef 3b
       -0.0527593 -0.06934583 -0.03781888 0.0073160324
0001f0 c8 ce 43 bd 6f e9 9c bc 67 2c 63 bd 93 4a 9d bd
       -0.047804624 -0.019154279 -0.055462267 -0.076802395
000200 1c 0f 9c bd c0 39 54 bb 3f 21 91 bd 2d e2 31 bd
       -0.076200694 -0.0032383054 -0.07086419 -0.04342859
000210 bb 89 0b bc ac 18 0f 3d 2c b9 1c 3d 05 f7 87 bb
       -0.008516724 0.03493564 0.03826253 -0.00414932
000220 ac fa a8 bd 47 f2 ad bc 38 76 81 bd 8c 4f 25 bc
       -0.08250937 -0.02123369 -0.063213766 -0.010089766
000230 27 22 d0 bc cf d8 19 bc 08 1b ab bd f9 ca a6 bd
       -0.02540691 -0.00939007 -0.08354765 -0.08144183
000240 46 4e 26 bd 3f 56 2c 3b 7c e1 76 3d c6 cd 5f bd
       -0.04060199 0.0026296524 0.060273632 -0.0546396
000250 e5 ef e0 bc 76 da 0b bd 00 4c 69 bc 0c b6 3b 3c
       -0.02745814 -0.034143887 -0.014239311 0.011456978
000260 58 88 b9 bc ac 85 1d 3d c1 48 3a 3c a1 8b 97 bd
       -0.022648022 0.038457558 0.011369885 -0.07399679
000270 8d 3a 90 bd 39 d9 11 bd ea 87 ba 3b ea f8 9c bd
       -0.07042418 -0.03560755 0.0056924718 -0.07664664
000280 de 02 f3 bc 4c 6f ee bc 32 46 f3 3c e9 4f 11 bd
       -0.029664453 -0.029105805 0.029696558 -0.0354766
000290 88 d5 20 3d f0 aa ff bc cb 39 41 3d 44 88 dd bc
       0.03926614 -0.031209439 0.047174256 -0.027042516
0002a0 2f fa cc 3c 56 39 3c 3d a0 d8 a9 bc 1f 6f 86 bd
       0.02502164 0.045953117 -0.020733178 -0.065641634
0002b0 81 82 bf bb a6 a8 8c 3b 92 74 8d bd 1f 40 8c bd
       -0.0058444147 0.0042925654 -0.06907 -0.06848168
0002c0 a6 b8 1b bd f0 9c b3 3b a1 e9 ce bc 13 d1 ba 3a
       -0.03801789 0.005481355 -0.025257887 0.0014252983
0002d0 d6 ed f7 3c 6a a6 da 3c af 4c 88 bd 81 6b 1e 3d
       0.030264776 0.02669068 -0.06655251 0.038676742
0002e0 2e da 66 3d 23 0f 6f bc 2f ec 56 3d c9 c0 30 bd
       0.056360416 -0.014591011 0.052471336 -0.043152604
0002f0 71 4e 0e 3d d5 1a aa bd 78 de cc bc 13 b2 c6 bc
       0.034742776 -0.08305899 -0.025008425 -0.024254834
000300 28 94 59 3c 4a 04 b3 bc ca f7 a4 3c fc 02 c2 bc
       0.013279952 -0.021852631 0.020137686 -0.023683064
000310 0c a8 53 3d 07 c4 86 bd 6b dd 3b 3b 33 02 07 3b
       0.051673934 -0.06580358 0.002866591 0.0020600676
000320 50 d5 8b bd ce 35 77 3c 7c 27 98 bc d8 e5 b1 3c
       -0.068277955 0.015088512 -0.018573515 0.021716043
000330 a6 23 cc bd ea e1 68 3d 1f 24 9e bd fd 6d c5 bd
       -0.09967737 0.056856073 -0.07721733 -0.09640119
000340 b3 35 12 3e 42 de 6d 3d 4f 1e 2e bc ca 59 5c 3b
       0.14278297 0.05807329 -0.010627343 0.0033622854
000350 d5 7c d4 bc 3f 9f cb 3c be ee 1f bb 6a 43 7c 3d
       -0.02593843 0.024856208 -0.0024403776 0.06158773
000360 10 b4 05 be e5 4b 32 3d 02 1c 2c bd 5a 34 b7 bd
       -0.1305697 0.04352941 -0.042018898 -0.08945532
000370 1d db f0 bb 13 6d ba bd 71 5f 94 3b 9a 74 b8 bc
       -0.007350339 -0.091028355 0.004527979 -0.022516537
000380 92 09 cf bc 06 f2 0e be 30 a9 06 bd 35 8a ed bd
       -0.025273118 -0.13959512 -0.032876194 -0.115986265
000390 fe fe f2 bd 79 7a 8e bd 1a 9e 7f bd ad 8a cb bb
       -0.11865042 -0.069569536 -0.062406637 -0.0062116
0003a0 df ca 2c 3c 32 4b ec bd 37 72 ce bd d6 22 a0 bd
       0.010546415 -0.1153778 -0.100803785 -0.078191444
0003b0 06 c9 2c bd 53 16 dc bd 05 af 02 be 40 fe 9e bd
       -0.0421839 -0.107464455 -0.12762077 -0.07763338
0003c0 d3 9b c9 3d 64 ab fd bd 9c 06 ad 3c c3 f6 22 bd
       0.09844174 -0.12386206 0.021121316 -0.03978611
0003d0 3a 74 56 bd 50 93 f4 bc 36 fe 40 3e d7 97 f7 bd
       -0.052356936 -0.0298554 0.18846974 -0.12089508
0003e0 3a 0b 34 bd 56 54 5d 3e 16 67 bd bd 53 f0 ad 3c
       -0.04395602 0.21614203 -0.09248178 0.02123276
0003f0 d1 2b 59 3e fa 13 1a bd 4b 86 e5 bc d2 ea 5f 3c
       0.21208121 -0.037616707 -0.028018137 0.013666825

linear_layers.0.bias f4 [100]
000000 1d 79 0e 3d a3 8c ec 3e da 07 5a bd a7 00 76 bd
       0.03478347 0.46201047 -0.053230144 -0.060059216
000010 91 8a 21 3b 29 9a a8 bc 41 d4 a7 3e 32 b6 94 3c
       0.0024649242 -0.020581322 0.32779124 0.018153284
000020 e4 bb a4 3c d3 2f a7 3d ec 8e df bb 5a 0c 53 3d
       0.020109124 0.081634186 -0.0068224575 0.05152545
000030 df 76 20 3d 8f d4 13 3e 96 72 11 bd b5 df 56 bd
       0.039175864 0.14436553 -0.03550967 -0.052459437
000040 dd d6 84 bc 28 19 13 bd c7 50 b2 3d fc 1a 5b bc
       -0.016215736 -0.035912663 0.08706813 -0.013373133
000050 fd 00 d9 bc 47 34 13 bd d0 fa e1 bb ad 0c d9 bc
       -0.026489729 -0.035938527 -0.0068963543 -0.026495302
000060 e0 33 f9 bb d3 4f a3 bd 8d 07 0e 3d b6 41 25 3d
       -0.007605061 -0.0797421 0.03467517 0.04034587
000070 9d f5 9e 3d ca fa cd bc 44 2c 4e bd fa 9f 90 3c
       0.07761691 -0.025144 -0.050335184 0.017654408
000080 2a 39 db 3c 5d 00 a3 3e 55 e0 44 3d 83 f2 b1 bc
       0.026760656 0.31836215 0.048065502 -0.021722084
000090 50 ea 4d 3d e1 c4 21 3d 17 7d 9c 3d a0 3d 31 3d
       0.050272286 0.0394944 0.076410465 0.04327166
0000a0 b6 30 6f bd 9f 7c 8a 3d 3b 0f 14 3c ce ae 1a bb
       -0.058396064 0.06762051 0.009036834 -0.0023602727
0000b0 b4 98 13 3d 90 3b 86 3c 34 3a e8 bc a9 8c 55 bc
       0.0360343 0.016385823 -0.028348066 -0.013034024
0000c0 1f a3 d1 3d 4b 8a ba bc 69 4d 02 3d 87 18 85 bc
       0.10236191 -0.022771021 0.031812105 -0.016247047
0000d0 80 fb 09 3e a5 bc cd 3c 8e f5 7e 3c ab a3 e8 bc
       0.13474846 0.025114367 0.0155614745 -0.028398355
0000e0 c2 40 d8 3c ba bc 86 bd 48 37 89 bd 03 a2 3e bd
       0.026398066 -0.065789655 -0.06699997 -0.046541225
0000f0 e1 21 8b 3d 0b 55 4e 3e e9 82 de bb 62 75 62 3c
       0.06793571 0.20149629 -0.006790508 0.013821932
000100 ff 45 85 3d ce c0 a3 3e 48 bc 85 bd 81 ef cf bc
       0.06507491 0.31983036 -0.065300524 -0.025382759
000110 b3 04 41 bd 22 3b 2d bd e6 36 34 3c ac 09 53 3c
       -0.047123622 -0.04229272 0.010999417 0.012880724
000120 f4 84 0a bd be 40 22 bd 68 8e 5b 3c df 61 8d 3d
       -0.0338182 -0.039612524 0.0134006515 0.06903433
000130 00 6e af bb 10 42 96 bc 8f 23 8f bd d5 7a a2 bb
       -0.005353689 -0.018342048 -0.06989204 -0.0049584904
000140 49 3d 82 3c 81 49 9f 3d 0a a0 b9 bc 11 f8 02 3f
       0.015898364 0.07777692 -0.02265932 0.5115977
000150 68 ad 84 3d 6a be f8 ba 46 a5 a3 ba 70 90 24 3b
       0.06478387 -0.0018977646 -0.0012485168 0.0025110506
000160 0f f8 5f 3d 0e 95 68 3d 56 82 06 3b a5 5f 2a bd
       0.054679926 0.056782775 0.0020524464 -0.04159512
000170 e0 64 4c bb 02 07 91 bd 9f 3d 0a 3f 9e 6b 80 bd
       -0.0031188056 -0.07081415 0.54000276 -0.06270526
000180 26 85 8d 3d 2e 95 05 3d 26 5e 6c ba f9 38 13 3d
       0.06910162 0.032612972 -0.0009016715 0.035943005

linear_last.weight f4 [7, 100]
000000 df 23 c1 bd 05 42 a8 3c 41 a4 cd 3b e1 08 22 bd
       -0.0943067 0.020539293 0.006275684 -0.03955925
000010 06 48 88 bd 1d 25 bb bb 5b eb 3e 3d a6 0e e7 bb
       -0.066543624 -0.0057112114 0.04661117 -0.007051307
000020 fb ea d4 bd 22 ee ae be b9 0a 00 3e e6 12 e4 be
       -0.103963815 -0.34166056 0.1250409 -0.44545668
000030 48 8f 06 bc 4b 9f 30 be c6 2a 94 3d 0e df db bd
       -0.008212872 -0.17248265 0.07234721 -0.10735904
000040 47 f7 01 be ff d8 09 be 14 77 c5 be 69 bd 5a be
       -0.12691985 -0.13461684 -0.38567412 -0.21361317
000050 ef 02 70 bd ef 94 58 bc fc 2a b3 3c cf d8 06 3e
       -0.058596548 -0.013219102 0.021871082 0.13168643
000060 56 aa 56 3d 20 99 83 be fe 8f 41 bc ca f8 18 bd
       0.05240854 -0.25702763 -0.011814116 -0.03734664
000070 3e 73 4f bc 2f a7 a8 3e 40 3e bb bc 35 38 dd be
       -0.012661753 0.3294005 -0.022856832 -0.43206945
000080 4c 99 ac bd 01 82 ee 3d 26 05 2c 3d af 98 0e 3d
       -0.084276766 0.1164589 0.041997097 0.03481358
000090 fa 00 90 3c 87 b2 74 3e c4 7a 09 3e 5f 46 3d 3d
       0.01757859 0.23896228 0.13425738 0.04620969
0000a0 8b 04 a4 bb 7a ff c9 bd 5e 96 cc bc 29 d2 42 be
       -0.0050054244 -0.098631814 -0.024974044 -0.19025482
0000b0 9c 58 75 bd cb e7 2b bc 37 e6 3b be c4 f7 94 bd
       -0.059898958 -0.0104922755 -0.18349539 -0.0727382
0000c0 d6 55 b2 be 7d 7d 73 bc 7c f3 97 be ec 55 20 3d
       -0.34831113 -0.014861462 -0.2967795 0.03914444
0000d0 2a ce d2 3d e6 df 0f bd 98 1e 0b bd 3b 20 f7 bc
       0.10293229 -0.035125636 -0.033964723 -0.030166736
0000e0 b6 0e 88 3c 33 32 89 3d af 0b 86 3c 8b 52 b4 3c
       0.016608577 0.06699028 0.016362993 0.022012016
0000f0 5e e8 79 be 9a 1c 05 3e 0f fc 87 3d 23 69 89 bd
       -0.24405047 0.12999192 0.06639873 -0.06709506
000100 03 2c 82 be f7 8f 80 3d 00 7b 84 bd ec c6 99 bd
       -0.25424203 0.06277459 -0.06468773 -0.075086445
000110 d2 23 4e be 35 e2 24 be ff ab b2 bd 3d 45 84 3d
       -0.20130852 -0.16101916 -0.08724212 0.06458519
000120 e2 73 2f bd 3c 76 0f be 20 99 5c 3e 8e db e6 be
       -0.042835124 -0.14009947 0.21542788 -0.45089382
000130 47 cd 5d bd bd 24 96 3d 0c 1e 7b 3d 2b b0 88 be
       -0.054150846 0.07331226 0.06130795 -0.26696905
000140 81 14 b4 3e 82 cb 9c 3d e7 1e 18 bf 2f d7 ce 3d
       0.35171893 0.076560035 -0.59422153 0.10099637
000150 17 4a 54 3b 50 74 c0 3d 6f 23 84 3d 77 c1 b3 bc
       0.0032392794 0.09397185 0.06452071 -0.021942837
000160 a5 1f 76 be d9 45 ae 3d 9d 51 d1 be 6b ca 95 be
       -0.24035509 0.08509416 -0.40882578 -0.29255995
000170 9b 3d cc be 4c 2e 99 3d e4 83 3c 3e 74 bc ad bd
       -0.3989075 0.074795336 0.18409687 -0.0848321
000180 97 19 ce bd 13 13 58 be a7 e9 92 bd 1c 20 a8 bc
       -0.100634746 -0.21101026 -0.07173472 -0.020523123
000190 c9 8c 57 3d 02 1f 93 3d e0 28 94 ba fc d8 44 be
       0.052624498 0.07183649 -0.0011303686 -0.19223398
0001a0 91 3b b9 bd b2 0e 45 3b 33 03 45 bc 0b a5 23 bd
       -0.090445645 0.0030068574 -0.012024689 -0.03995232
0001b0 cd ee 1b be 1b 89 d4 3d 6b d2 f6 bd 13 2b 96 3c
       -0.15227814 0.10377713 -0.12051853 0.018331086
0001c0 72 4d 92 3b 39 a8 a8 3d 1c 95 c8 bc 27 d9 2e bb
       0.0044647986 0.08235211 -0.024485163 -0.0026679726
0001d0 4c ac 45 bd f1 99 06 bf f2 7e 10 3e 54 c7 b6 be
       -0.04826002 -0.52578646 0.14110926 -0.3569895
0001e0 62 f7 3a 3d e9 99 1c bd 59 80 a1 3d d8 bd 46 3d
       0.04564608 -0.038232718 0.078858085 0.048520893
0001f0 fe e9 a1 3d d1 64 78 bd d7 66 86 bc 5e fc 68 3d
       0.079059586 -0.06064302 -0.01640646 0.0568813
000200 66 a0 86 3e af d1 34 3e d2 52 b8 bd db 21 10 3d
       0.2629425 0.17658113 -0.09000172 0.035188537
000210 31 b2 46 3d 58 23 65 3d 5a d8 02 bf 02 9f 6e 3d
       0.04850978 0.05594191 -0.51111376 0.05825711
000220 df c6 4c 3d dd a5 6d 3e e4 9a 9e be 83 41 af bd
       0.049994346 0.23207803 -0.30977547 -0.08557417
000230 5f ee 82 3d 43 36 2a 3e 85 e8 a8 bd 26 db c2 3d
       0.06393122 0.16622262 -0.082474746 0.095144555
000240 a4 81 b9 be 70 61 b8 3d dc 20 85 be ea 79 44 bb
       -0.3623172 0.0900296 -0.26001632 -0.0029979893
000250 d4 43 8b be a8 80 46 bd 64 d8 aa be 03 40 f9 bc
       -0.27200186 -0.04846254 -0.33368218 -0.030426031
000260 ab b1 92 3b 82 eb eb bb 89 48 d0 bc f8 4a a1 3d
       0.004476746 -0.0071997056 -0.025425212 0.07875627
000270 29 f7 bc bb b2 9d ee bc 27 86 a4 bd 48 69 36 3c
       -0.0057667685 -0.02912793 -0.080334 0.011133499
000280 4d de a7 bc e1 74 40 be 01 e5 c3 bd 8b 44 dc 3c
       -0.020491743 -0.18794586 -0.095651634 0.026888153
000290 94 2e 00 3e 54 89 a2 3d 56 2e 17 bd 18 77 0b be
       0.12517768 0.079363495 -0.036909424 -0.1361965
0002a0 5b 56 3f 3e fb 7b c9 bc c3 c0 70 bd 2f 24 6c be
       0.18685286 -0.024595251 -0.058777582 -0.23060678
0002b0 66 a5 13 3d cb a1 34 be 9c 81 ea 3d bd ad a4 be
       0.036046408 -0.17639844 0.11450502 -0.32163802
0002c0 64 f7 f6 3c a0 31 4f bd d4 90 03 bf 8d af ac be
       0.030147262 -0.050584435 -0.51392865 -0.33727685
0002d0 ed 87 a9 3d 30 11 d4 be e3 bf ed 3d 7c 33 ca 3d
       0.08277879 -0.41419363 0.11608865 0.09873101
0002e0 04 b9 1d bc 65 9f 10 be c9 6a 36 3c 88 95 c1 bd
       -0.009626631 -0.14123304 0.011133858 -0.09452349
0002f0 9a e0 cf bd 39 15 e6 3d 4b 0e ac be 93 61 d6 3d
       -0.10150261 0.11234517 -0.33604655 0.104678296
000300 6c 03 0d be c6 92 46 bd 3c 9f 06 3e e5 2e c2 3d
       -0.13770837 -0.048479818 0.1314668 0.09481601
000310 1f 0a 06 bc 55 2d a6 be 7f 6c 81 bc cd d3 71 3d
       -0.008181124 -0.3245646 -0.015798805 0.05903988
000320 da 5d f7 3c e6 9a 0e 3f f9 b5 6e bc c9 99 28 3d
       0.03019612 0.55705106 -0.014569753 0.041162286
000330 97 be 85 bd cd 8d 76 bd d7 18 1a 3e 83 22 4f bd
       -0.06530493 -0.060193826 0.15048538 -0.050570022
000340 e3 22 fe be 33 a7 0a 3e 65 89 48 bb ac 90 dc bc
       -0.4963599 0.13540344 -0.0030599472 -0.026924454
000350 58 e5 bd bb d7 04 d3 bd d3 a7 28 3d 71 30 3a 3d
       -0.005795162 -0.103036575 0.041175675 0.045456354
000360 13 ce df 3e 2f de 8f 3e f3 6f 40 bd ee 83 7b 3e
       0.4371191 0.280992 -0.046981763 0.24562046
000370 75 fd 73 3c b8 f0 9b 3d 74 05 db bd d0 3f b4 bc
       0.014891972 0.07614273 -0.106943995 -0.022003084
000380 2d 78 3f be 9a 91 c0 be 97 29 2f bd d5 02 62 bd
       -0.18698187 -0.37611085 -0.042764273 -0.055178482
000390 b9 60 fe 3d f9 6a b8 be 76 75 66 3d 4e 03 a9 be
       0.12420792 -0.36019114 0.056264363 -0.33010334
0003a0 95 0f 56 bd 58 50 ce 3e ff e5 a3 be b1 6a 25 3d
       -0.052260954 0.40295672 -0.3201141 0.040384952
0003b0 12 c6 a7 3d cc c8 92 3c ea 24 ce bd 4b 30 38 bd
       0.08192076 0.017918013 -0.100656345 -0.04496793
0003c0 5c 05 a6 3d c4 c8 e2 3e c8 de 45 3d 03 de 52 be
       0.08106491 0.44293797 0.048308164 -0.20592503
0003d0 28 2c 9b be 49 ab 82 bc 19 37 a6 3d 20 c9 86 bc
       -0.30307126 -0.015950816 0.08115978 -0.016453326
0003e0 f6 9f cf 3d 1a 53 be 3c 70 bd 6d bd 3b 32 2b bf
       0.10137932 0.023232985 -0.05804199 -0.6687352
0003f0 07 51 3d 3c d5 b0 ae 3b 59 c7 69 3b f2 15 9b bd
       0.011554963 0.0053311386 0.00356718 -0.07572545

linear_last.bias f4 [7]
000000 d4 38 d9 bd 5f 17 06 be 6e 70 c8 3b ce 9f b4 3c
       -0.10606542 -0.13094853 0.0061169183 0.022048857
000010 7d 09 80 3c d7 46 33 be 9a 28 09 bc
       0.015629524 -0.17507492 -0.008371497
