trained_models/cnn_100_200_[100]_4_[3]_Change Type_zeros_60-20-20_polisis_attr_state.pt (torch_old, 582212 bytes, 7 tensors)

embedding.weight f4 [645, 100]
0.0 0.0 0.0 0.0 0.0 0.0 0.0 0.0
0.0 0.0 0.0 0.0 0.0 0.0 0.0 0.0
0.0 0.0 0.0 0.0 0.0 0.0 0.0 0.0
0.0 0.0 0.0 0.0 0.0 0.0 0.0 0.0
0.0 0.0 0.0 0.0 0.0 0.0 0.0 0.0
0.0 0.0 0.0 0.0 0.0 0.0 0.0 0.0
0.0 0.0 0.0 0.0 0.0 0.0 0.0 0.0
0.0 0.0 0.0 0.0 0.0 0.0 0.0 0.0
0.0 0.0 0.0 0.0 0.0 0.0 0.0 0.0
0.0 0.0 0.0 0.0 0.0 0.0 0.0 0.0
0.0 0.0 0.0 0.0 0.0 0.0 0.0 0.0
0.0 0.0 0.0 0.0 0.0 0.0 0.0 0.0
0.0 0.0 0.0 0.0 0.0 0.0 0.0 0.0
0.0 0.0 0.0 0.0 0.0 0.0 0.0 0.0
0.0 0.0 0.0 0.0 0.0 0.0 0.0 0.0
0.0 0.0 0.0 0.0 0.0 0.0 0.0 0.0
0.0 0.0 0.0 0.0 0.0 0.0 0.0 0.0
0.0 0.0 0.0 0.0 0.0 0.0 0.0 0.0
0.0 0.0 0.0 0.0 0.0 0.0 0.0 0.0
0.0 0.0 0.0 0.0 0.0 0.0 0.0 0.0
0.0 0.0 0.0 0.0 0.0 0.0 0.0 0.0
0.0 0.0 0.0 0.0 0.0 0.0 0.0 0.0
0.0 0.0 0.0 0.0 0.0 0.0 0.0 0.0
0.0 0.0 0.0 0.0 0.0 0.0 0.0 0.0
0.0 0.0 0.0 0.0 0.0 0.0 0.0 0.0
0.0 0.0 0.0 0.0 0.0 0.0 0.0 0.0
0.0 0.0 0.0 0.0 0.0 0.0 0.0 0.0
0.0 0.0 0.0 0.0 0.0 0.0 0.0 0.0
0.0 0.0 0.0 0.0 0.0 0.0 0.0 0.0
0.0 0.0 0.0 0.0 0.0 0.0 0.0 0.0
0.0 0.0 0.0 0.0 0.0 0.0 0.0 0.0
0.0 0.0 0.0 0.0 0.0 0.0 0.0 0.0
00000000: 0000 0000 0000 0000 0000 0000 0000 0000
00000010: 0000 0000 0000 0000 0000 0000 0000 0000
00000020: 0000 0000 0000 0000 0000 0000 0000 0000
00000030: 0000 0000 0000 0000 0000 0000 0000 0000
00000040: 0000 0000 0000 0000 0000 0000 0000 0000
00000050: 0000 0000 0000 0000 0000 0000 0000 0000
00000060: 0000 0000 0000 0000 0000 0000 0000 0000
00000070: 0000 0000 0000 0000 0000 0000 0000 0000
00000080: 0000 0000 0000 0000 0000 0000 0000 0000
00000090: 0000 0000 0000 0000 0000 0000 0000 0000
000000a0: 0000 0000 0000 0000 0000 0000 0000 0000
000000b0: 0000 0000 0000 0000 0000 0000 0000 0000
000000c0: 0000 0000 0000 0000 0000 0000 0000 0000
000000d0: 0000 0000 0000 0000 0000 0000 0000 0000
000000e0: 0000 0000 0000 0000 0000 0000 0000 0000
000000f0: 0000 0000 0000 0000 0000 0000 0000 0000
00000100: 0000 0000 0000 0000 0000 0000 0000 0000
00000110: 0000 0000 0000 0000 0000 0000 0000 0000
00000120: 0000 0000 0000 0000 0000 0000 0000 0000
00000130: 0000 0000 0000 0000 0000 0000 0000 0000
00000140: 0000 0000 0000 0000 0000 0000 0000 0000
00000150: 0000 0000 0000 0000 0000 0000 0000 0000
00000160: 0000 0000 0000 0000 0000 0000 0000 0000
00000170: 0000 0000 0000 0000 0000 0000 0000 0000
00000180: 0000 0000 0000 0000 0000 0000 0000 0000
00000190: 0000 0000 0000 0000 0000 0000 0000 0000
000001a0: 0000 0000 0000 0000 0000 0000 0000 0000
000001b0: 0000 0000 0000 0000 0000 0000 0000 0000
000001c0: 0000 0000 0000 0000 0000 0000 0000 0000
000001d0: 0000 0000 0000 0000 0000 0000 0000 0000
000001e0: 0000 0000 0000 0000 0000 0000 0000 0000
000001f0: 0000 0000 0000 0000 0000 0000 0000 0000
00000200: 0000 0000 0000 0000 0000 0000 0000 0000
00000210: 0000 0000 0000 0000 0000 0000 0000 0000
00000220: 0000 0000 0000 0000 0000 0000 0000 0000
00000230: 0000 0000 0000 0000 0000 0000 0000 0000
00000240: 0000 0000 0000 0000 0000 0000 0000 0000
00000250: 0000 0000 0000 0000 0000 0000 0000 0000
00000260: 0000 0000 0000 0000 0000 0000 0000 0000
00000270: 0000 0000 0000 0000 0000 0000 0000 0000
00000280: 0000 0000 0000 0000 0000 0000 0000 0000
00000290: 0000 0000 0000 0000 0000 0000 0000 0000
000002a0: 0000 0000 0000 0000 0000 0000 0000 0000
000002b0: 0000 0000 0000 0000 0000 0000 0000 0000
000002c0: 0000 0000 0000 0000 0000 0000 0000 0000
000002d0: 0000 0000 0000 0000 0000 0000 0000 0000
000002e0: 0000 0000 0000 0000 0000 0000 0000 0000
000002f0: 0000 0000 0000 0000 0000 0000 0000 0000
00000300: 0000 0000 0000 0000 0000 0000 0000 0000
00000310: 0000 0000 0000 0000 0000 0000 0000 0000
00000320: 0000 0000 0000 0000 0000 0000 0000 0000
00000330: 0000 0000 0000 0000 0000 0000 0000 0000
00000340: 0000 0000 0000 0000 0000 0000 0000 0000
00000350: 0000 0000 0000 0000 0000 0000 0000 0000
00000360: 0000 0000 0000 0000 0000 0000 0000 0000
00000370: 0000 0000 0000 0000 0000 0000 0000 0000
00000380: 0000 0000 0000 0000 0000 0000 0000 0000
00000390: 0000 0000 0000 0000 0000 0000 0000 0000
000003a0: 0000 0000 0000 0000 0000 0000 0000 0000
000003b0: 0000 0000 0000 0000 0000 0000 0000 0000
000003c0: 0000 0000 0000 0000 0000 0000 0000 0000
000003d0: 0000 0000 0000 0000 0000 0000 0000 0000
000003e0: 0000 0000 0000 0000 0000 0000 0000 0000
000003f0: 0000 0000 0000 0000 0000 0000 0000 0000

convolutions.0.weight f4 [200, 1, 3, 100]
-0.124114536 -0.123897254 -0.038646802 -0.21764836 0.045644574 -0.09130627 0.27185532 0.012515981
-0.27345598 0.11169341 0.048986807 0.036396332 0.014395009 -0.05710818 0.18924388 -0.022754261
0.049763706 -0.093880035 -0.05714234 0.18856287 0.067943946 -0.14609069 -0.07338053 0.059607975
0.007774913 0.088970535 0.0027850694 -0.095231935 -0.013495595 -0.09330734 -0.022365524 0.192119
-0.06521259 0.18043941 -0.03724582 -0.13873693 0.03738308 -0.0269385 0.100848265 -0.07384006
0.0018375649 0.0149135785 0.07559093 -0.049514893 -0.006005997 -0.10059323 -0.16963466 0.0056632566
0.05642432 -0.0421201 -0.078867085 -0.05474845 0.2168593 0.028807128 -0.09357208 0.0036489454
-0.040843837 0.008509779 -0.04668664 0.090875156 -0.11178291 0.06696632 0.0065868427 -0.0017220001
0.009594462 -0.08174906 0.1365696 0.0042993003 0.19325027 0.07159731 -0.08901007 -0.117206566
-0.015118026 0.01842237 -0.028335437 -0.017879782 -0.08091887 0.1050252 -0.05180202 0.050669286
0.06759583 0.08372729 0.037088543 0.056886725 0.12833524 0.05082554 -0.08086557 -0.0046910257
-0.113411725 0.04689788 -0.2119932 0.039382525 -0.040045008 -0.04292582 0.12641443 0.005122476
0.005316109 -0.06636345 -0.02662883 0.017992793 -0.10082826 -0.054495156 -0.05421391 -0.008261981
0.019453375 -0.0645849 -0.09149144 -0.012984836 0.07878128 0.10316052 0.03340942 0.0846382
0.016450716 -0.01921319 0.107613176 -0.069217764 0.07486333 0.012884306 -0.008950278 -0.049836602
0.08517753 -0.007920669 0.06299825 0.013465342 -0.036024082 -0.022201233 -0.006849159 0.02514082
0.0051368154 -0.053367678 0.031965833 0.118310794 -0.12800342 0.14282478 -0.093398765 -0.13503607
-0.08381329 0.012010499 0.14187835 -0.016885823 -0.13160665 0.06947506 0.11246172 0.07539742
0.078176394 0.088282906 -0.028627077 -0.0028564653 -0.026698342 -0.02950385 -0.049455438 -0.0347001
-0.09522467 0.03152076 -0.018908698 -0.024701992 0.0062176045 0.13178399 0.14055409 0.005359747
-0.037996083 0.104656816 0.059254613 0.13829026 0.025455348 -0.024091512 -0.15562515 0.08478375
0.032238465 0.021704134 0.04545303 0.08889877 0.038317088 -0.07054889 0.10431969 -0.07418498
0.0042320867 0.06623367 -0.05569199 -0.04434834 -0.034307633 0.079461806 -0.006887119 0.004762779
0.14802466 -0.10017984 0.096394874 -0.081678376 -0.07604781 0.12334082 0.18308131 0.09707433
0.043205827 -0.11317849 -0.028165031 -0.1317948 -0.022735639 -0.03285739 0.041531276 0.08571363
-0.060755238 0.04021265 0.11134594 -0.009479713 0.05417938 0.059690755 0.026477655 0.043055084
0.113726124 0.034034457 0.035090443 0.076144375 -0.041234072 -0.07844982 -0.046605602 -0.06466399
-0.019518565 -0.015369253 0.058358416 -0.07986096 0.043678787 0.15040329 -0.06867234 0.037315197
0.10175259 -0.01913554 0.05509796 -0.037076354 -0.11955079 -0.031099522 -0.02178196 0.04275941
-0.14321436 -0.023574889 0.06800819 -0.06138212 0.036152415 -0.051177382 0.1218214 0.037616458
-0.093485214 0.04885148 -0.08218537 0.020312848 -0.01637029 0.036368426 -0.013447921 -0.076431006
-0.05783438 -0.1044842 0.21365064 0.055195913 -0.027600925 -0.03209414 0.014746964 -0.050166167
00000000: c32f febd d8bd fdbd 1c4c 1ebd 36df 5ebe
00000010: cef5 3a3d c8fe babd 9f30 8b3e d40f 4d3c
00000020: 6c02 8cbe 84bf e43d 64a6 483d 5214 153d
00000030: 0bd9 6b3c 44ea 69bd 26c9 413e 2567 babc
00000040: 07d5 4b3d 2d44 c0bd 160e 6abd a016 413e
00000050: 3226 8b3d cc98 15be 8848 96bd 7e27 743d
00000060: b3c4 fe3b 2f36 b63d b685 363b f608 c3bd
00000070: a11c 5dbc eb17 bfbd e737 b7bc d8ba 443e
00000080: 2e8e 85bd 1cc5 383e 138f 18bd 0e11 0ebe
00000090: 001f 193d 21ae dcbc 8989 ce3d 7539 97bd
000000a0: 72da f03a 1558 743c 6bcf 9a3d 21d0 4abd
000000b0: f4cd c4bb d303 cebd b5b4 2dbe d792 b93b
000000c0: 301d 673d 2086 2cbd 1185 a1bd e93f 60bd
000000d0: 5d10 5e3e edfc eb3c b8a2 bfbd 2523 6f3b
000000e0: de4b 27bd 9a6c 0b3c 7d3a 3fbd c11c ba3d
000000f0: 70ee e4bd a325 893d 71d6 d73b bcb4 e1ba
00000100: 1732 1d3c 0d6c a7bd e7d8 0b3e 25e1 8c3b
00000110: 66e3 453e 9ca1 923d e94a b6bd ff09 f0bd
00000120: 99b1 77bc 83ea 963c b81f e8bc 9f78 92bc
00000130: cbb8 a5bd 7417 d73d 5b2e 54bd 998a 4f3d
00000140: af6f 8a3d 3779 ab3d 28ea 173d 0e02 693d
00000150: 506a 033e 712e 503d d99c a5bd 2db7 99bb
00000160: 6844 e8bd fe17 403d bf14 59be 924f 213d
00000170: 3c06 24bd fcd2 2fbd c972 013e 71da a73b
00000180: c132 ae3b 8fe9 87bd b424 dabc 9f65 933c
00000190: 0c7f cebd 5036 5fbd 680f 5ebd 435d 07bc
000001a0: af5c 9f3c 1745 84bd dd5f bbbd 59be 54bc
000001b0: 1458 a13d d345 d33d 51d8 083d cb56 ad3d
000001c0: a7c3 863c fb64 9dbc 4c64 dc3d 0bc2 8dbd
000001d0: f251 993d b218 533c 30a4 12bc 7721 4cbd
000001e0: 8f71 ae3d b2c5 01bc 3a05 813d bd9d 5c3c
000001f0: fd8d 13bd 5cdf b5bc e96e e0bb 1ff4 cd3c
00000200: bb52 a83b 1198 5abd 9bee 023d ee4c f23d
00000210: 5413 03be a940 123e da47 bfbd e546 0abe
00000220: 4da6 abbd afc7 443c 8f48 113e 2354 8abc
00000230: e5c3 06be f148 8e3d 5552 e63d f669 9a3d
00000240: f21a a03d abcd b43d 5583 eabc 8933 3bbb
00000250: 7bb6 dabc 0fb2 f1bc c991 4abd b121 0ebd
00000260: 2705 c3bd ea1b 013d 6ae6 9abc d55b cabc
00000270: 0cbd cb3b 62f2 063e 69ed 0f3e d1a0 af3b
00000280: c8a1 1bbd 5056 d63d f7b4 723d f69b 0d3e
00000290: bc87 d03c 905b c5bc 335c 1fbe 1aa3 ad3d
000002a0: 7b0c 043d decc b13c f52c 3a3d 8f10 b63d
000002b0: 61f2 1c3d f07b 90bd 90a5 d53d 4bee 97bd
000002c0: 51ad 8a3b 85a5 873d 491d 64bd 9ba6 35bd
000002d0: 2986 0cbd dfbc a23d 57ad e1bb 1611 9c3b
000002e0: c793 173e 172b cdbd ad6a c53d fe46 a7bd
000002f0: f4be 9bbd 1d9a fc3d ab79 3b3e e8ce c63d
00000300: 98f8 303d 20ca e7bd 5aba e6bc 37f5 06be
00000310: 1740 babc 7895 06bd b31c 2a3d a18a af3d
00000320: 7cda 78bd 05b6 243d 5709 e43d cc50 1bbc
00000330: 33eb 5d3d 4b7e 743d abe7 d83c 875a 303d
00000340: 3ee9 e83d b767 0b3d ffba 0f3d 95f1 9b3d
00000350: 0fe5 28bd 4daa a0bd 84e5 3ebd 8e6e 84bd
00000360: 66e5 9fbc 52cf 7bbc 3c09 6f3d 258e a3bd
00000370: 87e8 323d 5203 1a3e 15a4 8cbd d2d7 183d
00000380: a963 d03d 23c2 9cbc 66ae 613d 60dd 17bd
00000390: 0bd7 f4bd 6dc4 febc 1570 b2bc 7e24 2f3d
000003a0: c9a6 12be 2020 c1bc e147 8b3d d16b 7bbd
000003b0: 8e14 143d 609f 51bd 807d f93d b713 1a3d
000003c0: 2d75 bfbd 7d18 483d ce50 a8bd 2167 a63c
000003d0: fd1a 86bc 0ff7 143d ab54 5cbc dc87 9cbd
000003e0: bee3 6cbd d0fb d5bd 3cc7 5a3e 1c15 623d
000003f0: 561b e2bc 2575 03bd 409d 713c 0a7b 4dbd

convolutions.0.bias f4 [200]
-0.06278733 -0.031430174 0.00833636 -0.023065966 -0.0006206174 -0.026586039 -0.04028574 -0.022508023
-0.08279418 -0.0026567667 0.013219611 0.04496227 0.025244338 0.025061773 0.015010667 -0.0362859
-0.003487923 0.061206464 -0.09550572 -0.011482363 0.022710858 -0.010454977 -0.046682894 0.029940004
-0.023439249 0.03148773 0.0374871 0.019728862 0.0045232256 0.0058760485 0.028732033 -0.017166724
0.044482484 -0.020578358 0.0012123309 -0.019666258 0.051880527 0.0050677946 -0.014358579 -0.0063927756
0.016357291 0.015346537 0.03166869 -0.0037508975 0.023712367 -0.05541136 0.016794613 -0.00931013
-0.026000245 -0.069904566 -0.033036757 0.03848551 -0.05185342 0.00021299307 0.0010289152 0.0055887243
0.019106226 -0.032463223 -0.040151604 -0.0020128873 0.031886965 0.019365082 -0.09035376 0.033364404
-0.0026196844 -0.011880915 0.035415158 0.0021054386 -0.06836302 -0.023880517 0.031888817 -0.043197285
0.022560788 -0.10279744 0.010548303 -0.003753647 0.004881851 0.019026345 0.0046277028 -0.00887491
-0.008789703 -0.036642183 -0.051927075 0.0030186453 -0.04977725 -0.02290905 -0.019733382 0.0131053
-0.04078632 -0.017321726 -0.03733554 -0.006762636 0.0013624058 -0.017864715 0.002400563 0.016793612
0.0028050481 -0.015093631 -0.022158055 -0.02114457 0.01916117 -0.0012327532 -0.080552466 0.0003512561
-0.061738342 -0.024388134 0.0147471605 -0.0014434396 -0.034639858 -0.09028953 -0.0074578174 0.040181633
-0.01375765 -0.0005089653 -0.041652963 -0.036990494 -0.003348816 0.020744877 0.050275166 -0.036124106
0.0053461236 -0.027448688 0.050724626 0.026350308 0.019615335 -0.06467881 -0.009152337 -0.021316243
0.022293855 0.026081495 -0.03330196 -0.021903692 -0.00034571558 -0.03730177 -0.0032477556 0.0019504172
-0.057533633 -0.0052639456 -0.032351438 -0.0022270347 -0.0020390346 0.00032505832 -0.04469868 -0.002768288
-0.036842115 -0.04520512 -0.05452279 0.024624243 0.046151355 0.021222584 0.046357125 0.024999205
-0.001997078 0.027393006 0.027851421 -0.029789582 -0.028426632 0.021060314 -0.0020712179 -0.023143258
0.047684897 0.031887997 -0.0058056857 -0.026927862 -0.011403869 0.0006293703 -0.0011418046 -0.0043588835
-0.0027505117 -0.00040297926 -0.0024498634 -0.0025367958 -0.004000421 0.04839949 0.020582888 0.021129824
-0.025599584 0.0037448236 0.057372846 -0.030494347 0.0078893015 -0.005933499 -0.08237726 0.015795652
0.017314162 -0.042772926 0.0076507507 -0.006441945 -0.03947355 0.06293878 -0.044263117 -0.0010417933
-0.003813759 0.025688201 -0.013172147 -0.06568429 0.02534846 -0.03083192 0.019386394 0.02906073
00000000: a596 80bd edbc 00bd 3a95 083c d6f4 bcbc
00000010: eeb0 22ba f7ca d9bc a902 25bd bf62 b8bc
00000020: ff8f a9bd 261d 2ebb 1197 583c 5b2a 383d
00000030: 37cd ce3c 594e cd3c 4def 753c 86a0 14bd
00000040: a395 64bb a1b3 7a3d 8198 c3bd 8520 3cbc
00000050: 1f0c ba3c 5a4b 2bbc 9036 3fbd bd44 f53c
00000060: ab03 c0bc 47f9 003d 138c 193d 6c9e a13c
00000070: 9137 943b de8b c03b 715f eb3c 3ba1 8cbc
00000080: 4433 363d f293 a8bc 13e7 9e3a 221b a1bc
00000090: ad80 543d be0f a63b 3f40 6bbc 7d7a d1bb
000000a0: baff 853c 0b70 7b3c 07b7 013d 9ed1 75bb
000000b0: 7040 c23c 06f7 62bd db94 893c 8489 18bc
000000c0: 77fe d4bc 202a 8fbd 8d51 07bd fba2 1d3d
000000d0: 4064 54bd e456 5f39 aadc 863a 9e21 b73b
000000e0: a984 9c3c 28f8 04bd 0276 24bd a5ea 03bb
000000f0: e89b 023d 85a3 9e3c 640b b9bd 1da9 083d
00000100: 03af 2bbb 2ba8 42bc 7c0f 113d 66fb 093b
00000110: e901 8cbd 13a1 c3bc d99d 023d a3ef 30bd
00000120: 67d1 b83c 7787 d2bd cad2 2c3c bfff 75bb
00000130: eff7 9f3b 23dd 9b3c fca3 973b 1268 11bc
00000140: b002 10bc 1d16 16bd 7cb1 54bd 77d4 453b
00000150: 3be3 4bbd c3ab bbbc e7a7 a1bc 9db7 563c
00000160: 8e0f 27bd 4be6 8dbc 27ed 18bd 1a99 ddbb
00000170: c192 b23a 0659 92bc c452 1d3b c292 893c
00000180: e6d4 373b 474b 77bc cf84 b5bc 6137 adbc
00000190: e3f7 9c3c 5594 a1ba b1f8 a4bd cc28 b839
000001a0: 58e1 7cbd a0c9 c7bc 139e 713c cc31 bdba
000001b0: 86e2 0dbd b8e9 b8bd b560 f4bb 7f95 243d
000001c0: c467 61bc 156c 05ba 4c9c 2abd 5883 17bd
000001d0: cf77 5bbb 29f1 a93c 55ed 4d3d dff6 13bd
000001e0: 892e af3b 12dc e0bc a0c4 4f3d 9adc d73c
000001f0: 57b0 a03c 5376 84bd aff3 15bc 679f aebc
00000200: 9aa1 b63c dca8 d53c a367 08bd 5f6f b3bc
00000210: 2941 b5b9 bec9 18bd 4cd8 54bb 24a5 ff3a
00000220: 63a8 6bbd 2d7d acbb f182 04bd 71f3 11bb
00000230: 53a1 05bb 976c aa39 f715 37bd 2a6c 35bb
00000240: c2e7 16bd 0129 39bd 4a53 5fbd c8b8 c93c
00000250: 3409 3d3d fcda ad3c f8e0 3d3d 22cb cc3c
00000260: 69e1 02bb 4c67 e03c aa28 e43c 4809 f4bc
00000270: f8de e8bc ae86 ac3c 45bd 07bb ee96 bdbc
00000280: 3d51 433d fd9c 023d 9f3d bebb d297 dcbc
00000290: 4bd7 3abc 53fc 243a 9ba8 95ba f7d4 8ebb
000002a0: ee41 34bb f646 d3b9 e38d 20bb 5f40 26bb
000002b0: f715 83bb 8b3e 463d 729d a83c 7418 ad3c
000002c0: 38b6 d1bc b76b 753b caff 6a3d 48cf f9bc
000002d0: 2142 013c cc6d c2bb 69b5 a8bd e265 813c
000002e0: 6ed6 8d3c aa32 2fbd 26b3 fa3b f416 d3bb
000002f0: 04af 21bd 0ce6 803d 3e4d 35bd c88c 88ba
00000300: 42f0 79bb 1070 d23c fdcf 57bc 7c85 86bd
00000310: 93a7 cf3c 3993 fcbc 37d0 9e3c c510 ee3c

linear_layers.0.weight f4 [100, 200]
-0.017443089 -0.019967116 -0.0008377099 -0.01840179 -0.0032995448 0.03075243 0.02940377 -0.059576567
-0.013937592 0.05602907 0.041825682 -0.023610199 0.024738617 0.03228928 -0.07152603 0.04010443
0.04014827 -0.046253074 -0.06426558 -0.037337925 -0.062437993 -0.060174577 -0.05401841 -0.0012317466
-0.060481906 -0.054206815 0.046872173 -0.067455925 0.019640213 -0.030465562 0.0407452 0.0155172
-0.050582185 -0.012259654 0.03557458 0.021675877 -0.066624366 0.050942417 0.05238483 0.032762356
-0.002606372 0.03592846 -0.05776746 -0.061731067 -0.022599308 0.06655533 -0.043488067 0.0008044787
0.01205813 0.052225612 -0.036650095 0.011925193 -0.03639927 0.053660937 0.030197155 0.06381675
-0.015642066 -0.055611834 0.060098518 -0.021134876 -0.06943683 -0.059744287 -0.0024381694 -0.050784852
-0.029679798 0.013946515 0.021336598 0.052748434 0.00024178087 0.036224328 0.06720799 0.061156623
0.04232205 0.046455495 0.036344714 -0.07598749 -0.06943257 -0.051582657 0.05449051 0.016375076
0.03717478 -0.015636012 -0.027016267 -0.0025800976 0.04605779 -0.018447952 0.04592644 -0.057817362
-0.055639546 -0.025924431 0.0061778347 0.037436165 -0.035297923 -0.03342735 -0.049604375 0.010805852
0.038926866 -0.033070646 -0.06764237 0.009245381 -0.045569774 -0.053067196 -0.05020249 -0.06507437
0.039705694 0.03444731 0.054533143 -0.042108055 0.0600103 0.03679717 0.0057000895 -0.03783458
-0.031563427 -0.02362895 0.05290063 0.011020288 -0.04697821 0.011877949 0.043456472 0.043589137
-0.0042602075 0.0531303 0.045175273 -0.017309533 0.035383213 -0.030776186 0.0390526 -0.0022548125
-0.01959858 -0.05765106 0.059760094 0.03713874 -0.022692855 -0.032017726 0.02581752 -0.0144151235
0.04394442 -0.036006734 -0.04306497 -0.027764037 0.0071327854 0.016385982 0.050206702 -0.0031553316
-0.04188327 -0.056921374 0.035323903 -0.008402717 -0.021808082 -0.00721066 0.025586318 0.0006022047
0.06434184 -0.01994648 0.0010960476 -0.012602603 0.05785287 0.041006345 0.028284565 -0.043707896
0.0031158829 -0.003978008 -0.07580619 -0.006609375 -0.024916012 -0.0614425 -0.0032264374 0.04178985
0.036143344 0.05735017 -0.015763905 -0.04912897 0.01986059 -0.016711036 0.050497834 -0.070589125
-0.06827634 -0.016436372 -0.0642409 0.047645506 0.020386333 -0.041820996 -0.026552906 -0.049681004
-0.028588545 -0.06881302 -0.0055914656 0.049011018 0.05245094 0.008384624 -0.0060994625 -0.051984113
-0.06822258 0.012298491 0.054996308 -0.013545615 0.012721623 -0.06798389 -0.042998444 -0.065383665
0.028554693 0.029778905 0.012356125 0.014621392 -0.06718145 -0.05009427 -0.039861195 -0.05325671
-0.066458054 0.002654165 -0.02295503 -0.051427 0.066516645 0.037244625 -0.020977695 -0.036738113
-0.052523945 -0.00391376 0.009332709 -0.02902618 -0.015396051 -0.0042294934 0.0135438815 0.058517314
-0.011994876 0.0642573 0.05766899 0.016255632 0.032094516 -0.063003495 0.020075008 -0.0003524348
0.057089306 -0.03275225 -0.009857491 0.058870398 -0.054301895 0.031979732 0.020089492 -0.0434333
-0.057367243 0.0070663467 -0.035640035 -0.056015044 0.012056492 -0.027476646 0.046489798 -0.019452982
0.009415865 0.0067179278 0.042286776 -0.026838835 -0.032347582 0.066224255 -0.064603 -0.01828263
00000000: cfe4 8ebc 1492 a3bc c299 5bba 5abf 96bc
00000010: 2d3d 58bb 85ec fb3c 2de0 f03c 8f06 74bd
00000020: 7f5a 64bc bd7e 653d 6851 2b3d 2d6a c1bc
00000030: a4a8 ca3c c441 043d 3d7c 92bd 8b44 243d
00000040: 8372 243d dd73 3dbd ac9d 83bd a7ef 18bd
00000050: fbbe 7fbd 9e79 76bd 6942 5dbd 8f72 a1ba
00000060: e0bb 77bd f707 5ebd 09fd 3f3d 5526 8abd
00000070: 83e4 a03c ea92 f9bc 70e4 263d db3b 7e3c
00000080: 442f 4fbd b7dc 48bc a7b6 113d 9c91 b13c
00000090: 5b72 88bd ffa8 503d 7a91 563d d231 063d
000000a0: abcf 2abb b929 133d 929d 6cbd b7d9 7cbd
000000b0: 2f22 b9bc 294e 883d 8b20 32bd a7e3 523a
000000c0: 778f 453c 86ea 553d 691e 16bd e261 433c
000000d0: 6717 15bd 92cb 5b3d 0660 f73c 5bb2 823d
000000e0: ca23 80bc 3cc9 63bd dd29 763d 0c23 adbc
000000f0: e634 8ebd 6db6 74bd b2c9 1fbb c703 50bd
00000100: 0c23 f3bc ec7f 643c 17ca ae3c be0e 583d
00000110: 8f86 7d39 f65f 143d 58a4 893d 5e7f 7a3d
00000120: e359 2d3d 1e48 3e3d 32de 143d 549f 9bbd
00000130: aa32 8ebd 5648 53bd 7131 5f3d 0625 863c
00000140: 9544 183d 1817 80bc 3851 ddbc db16 29bb
00000150: 18a7 3c3d 2920 97bc 5d1d 3c3d e6d1 6cbd
00000160: 4be6 63bd 795f d4bc 6f6f ca3b aa56 193d
00000170: 8e94 10bd 1eeb 08bd f52d 4bbd 070b 313c
00000180: c771 1f3d 1675 07bd 1588 8abd f079 173c
00000190: 5fa7 3abd fd5c 59bd 20a1 4dbd b645 85bd
000001a0: 70a2 223d 9f18 0d3d 255e 5f3d 7f79 2cbd
000001b0: 5ccd 753d a1b8 163d d1c7 ba3b 6ff8 1abd
000001c0: a748 01bd 8091 c1bc 55ae 583d 708e 343c
000001d0: 396c 40bd bb9b 423c 6aff 313d 868a 323d
000001e0: 3699 8bbb 289f 593d b509 393d b9cc 8dbc
000001f0: fded 103d 571e fcbc 9ef5 1f3d 7ac5 13bb
00000200: 348d a0bc 8523 6cbd 00c7 743d cb1e 183d
00000210: 5ee6 b9bc 0525 03bd 447f d33c 692d 6cbc
00000220: 10ff 333d cc7b 13bd e564 30bd 6871 e3bc
00000230: 24ba e93b e53b 863c 8ba5 4d3d aec9 4ebb
00000240: cb8d 2bbd 6326 69bd ccaf 103d 8dab 09bc
00000250: dda6 b2bc 6647 ecbb 669a d13c 46dd 1d3a
00000260: a8c5 833d cd66 a3bc 41a9 8f3a 267b 4ebc
00000270: 22f7 6c3d 45f6 273d 08b5 e73c 0d07 33bd
00000280: d733 4c3b f359 82bb 4740 9bbd 7593 d8bb
00000290: aa1c ccbc 22ab 7bbd a372 53bb d52b 2b3d
000002a0: 0b0b 143d 03e8 6a3d 4e23 81bc 753b 49bd
000002b0: adb2 a23c 95e5 88bc d1d6 4e3d 0891 90bd
000002c0: 77d4 8bbd 92a5 86bc bc90 83bd ef27 433d
000002d0: 3d01 a73c 7e4c 2bbd 7b85 d9bc 4f7e 4bbd
000002e0: 8632 eabc d7ed 8cbd 9d38 b7bb c7bf 483d
000002f0: ccd6 563d a95f 093c 00de c7bb 4bed 54bd
00000300: 48b8 8bbd 9c7f 493c cf43 613d 6dee 5dbc
00000310: 5b6e 503c 233b 8bbd 231f 30bd dfe7 85bd
00000320: 88eb e93c e4f2 f33c 5871 4a3c 908e 6f3c
00000330: 6e96 89bd a62f 4dbd 7e45 23bd b523 5abd
00000340: 291b 88bd 80f1 2d3b 300c bcbc 1ea5 52bd
00000350: e139 883d d28d 183d 6ad9 abbc b47a 16bd
00000360: 5923 57bd 003f 80bb 38e8 183c 50c8 edbc
00000370: b83f 7cbc 9097 8abb 28e7 5d3c daaf 6f3d
00000380: 2886 44bc 5599 833d 5236 6c3d 882a 853c
00000390: 8a75 033d fa07 81bd 5874 a43c 00c7 b8b9
000003a0: 7ad6 693d 3927 06bd 5081 21bc 1622 713d
000003b0: aa6b 5ebd 2efd 023d b892 a43c 1ee7 31bd
000003c0: eaf9 6abd d08c e73b 49fb 11bd 0870 65bd
000003d0: 9888 453c b416 e1bc 166c 3e3d dc5b 9fbc
000003e0: 0045 1a3c 1022 dc3b e634 2d3d 1edd dbbc
000003f0: e67e 04bd 95a0 873d 944e 84bd 74c5 95bc

linear_layers.0.bias f4 [100]
-0.04225695 -0.0076560676 -0.023841154 -0.078294024 0.017097384 0.017877081 -0.07169604 0.059647013
0.021539668 -0.024514815 -0.017411066 0.0317007 -0.0460045 0.03236191 -0.048715122 -0.04304057
-0.049366213 0.054718766 -0.012435494 0.08234811 -0.006969359 -0.05120146 0.040778466 -0.06650407
-0.02801597 -0.017940206 0.009983584 0.042032775 -0.03454657 0.041797277 -0.060885206 0.031364724
-0.0030841825 -0.023604998 -0.0026159652 0.013399349 0.0040921834 0.004892364 0.006217757 -0.016768893
0.0011228945 0.07732853 -0.0674148 0.008458192 -0.007272967 -0.0550178 0.011327597 0.040846147
-0.029741103 -0.0047496175 0.022083214 0.056669313 -0.016596207 0.032699272 -0.06121524 -0.043307215
0.034734562 -0.008363836 -0.05313623 0.02208675 -0.038433634 -0.030359462 0.055423256 0.05733855
-0.042576216 -0.03630764 -0.07219734 0.047746703 -0.036589794 -0.01678272 -0.011790063 -0.0090501495
0.0277841 0.0376479 0.036341902 0.06898517 -0.05328625 -0.051064547 -0.03794856 0.04641415
0.07896967 0.0074650445 -0.021033203 0.0017823924 -0.07729891 -0.049142584 0.024508968 -0.02142956
-0.068663776 0.08248369 -0.040786553 -0.06352599 -0.068227164 0.048668798 -0.013491229 -0.036182027
0.03400884 -0.055456065 0.03896592 -0.02780796
00000000: a015 2dbd c0df fabb 864e c3bc 9e58 a0bd
00000010: d00f 8c3c f572 923c 60d5 92bd 6d50 743d
00000020: f573 b03c 4bd3 c8bc a7a1 8ebc 98d8 013d
00000030: 376f 3cbd ec8d 043d 8289 47bd 4f4b 30bd
00000040: 3a34 4abd c920 603d 3ebe 4bbc 20a6 a83d
00000050: 385f e4bb 9fb8 51bd 5207 273d 4933 88bd
00000060: bf81 e5bc 57f7 92bc 3092 233c 8f2a 2c3d
00000070: b480 0dbd 9f33 2b3d c462 79bd 4c78 003d
00000080: ff1f 4abb 455f c1bc 9d70 2bbb f188 5b3c
00000090: b917 863b 2050 a03b 53be cb3b eb5e 89bc
000000a0: 162e 933a 6c5e 9e3d c510 8abd 3b94 0a3c
000000b0: 1252 eebb 585a 61bd 6397 393c 4a4e 273d
000000c0: 9da3 f3bc aea2 9bbb dbe7 b43c 151e 683d
000000d0: c5f4 87bc acef 053d d5bc 7abd e862 31bd
000000e0: d445 0e3d 7908 09bc 60a5 59bd 46ef b43c
000000f0: 966c 1dbd 68b4 f8bc 7f03 633d d4db 6a3d
00000100: 6664 2ebd 52b7 14bd 33dc 93bd 0c92 433d
00000110: 2edf 15bd ea7b 89bc 1c2b 41bc 1447 14bc
00000120: 7b9b e33c af34 1a3d 3fdb 143d 1948 8d3d
00000130: af42 5abd 0f29 51bd f36f 1bbd c41c 3e3d
00000140: daba a13d 559d f43b d34d acbc 2a9f e93a
00000150: e44e 9ebd bc49 49bd 08c7 c83c 0b8d afbc
00000160: 989f 8cbd 35ed a83d cd0f 27bd ea19 82bd
00000170: afba 8bbd ef58 473d 510a 5dbc 9b33 14bd
00000180: da4c 0b3d e625 63bd bb9a 1f3d 85cd e3bc

linear_last.weight f4 [4, 100]
-0.08891292 0.0021590143 0.054901365 -0.008775944 -0.085385524 0.02567064 0.054467075 -0.23876566
-0.013417049 -0.35682744 0.06666369 0.022150738 -0.0059840363 0.056278497 0.089753285 -0.12296372
-0.06065364 -0.034061685 -0.14258271 -0.21330616 0.08398237 -0.039912257 -0.24435958 -0.16884734
0.055765003 0.0735748 0.06346952 0.08609338 -0.17916194 -0.07811487 -0.2550428 -0.31385127
-0.14427428 -0.22774258 0.032328695 -0.31154984 -0.293843 -0.26295036 0.08550297 0.08581396
0.07920812 -0.24506508 0.08242497 -0.10182126 0.06319318 -0.03148429 -0.14232321 0.015890902
0.005517964 0.06418192 -0.007506196 -0.28024206 0.049558025 -0.21203068 -0.006664607 0.07556533
-0.009121405 0.13824287 0.057820506 0.043563925 -0.00081132737 -0.055461127 -0.23808046 -0.25391507
-0.036230907 -0.0036361406 0.008649203 0.059506413 0.089026034 -0.25939825 0.1801505 -0.35248116
-0.31225264 0.07468497 0.052652128 0.11739561 0.10582882 0.049230024 -0.041903567 -0.20731637
-0.33268172 0.06838345 -0.24430336 -0.21836305 -0.079294994 -0.059391644 0.06884524 0.04290487
-0.0076317387 -0.24715012 0.046664514 0.04678524 -0.09271366 -0.23057711 0.0856519 0.083281346
0.0376096 0.00081128004 -0.06323992 0.08875425 0.065276854 0.05603031 -0.03309142 -0.0022698308
0.06753651 0.08971163 -0.0070949546 0.04148962 0.07938672 -0.2939908 0.10179928 0.0810456
0.034713358 -0.107978925 -0.055960696 0.046933264 0.03614994 0.038475208 -0.20169818 0.024809796
-0.044520188 0.024570948 -0.32698083 0.08719898 -0.08355723 0.09121166 -0.09623774 -0.012755289
0.044846024 0.04316627 -0.25482604 0.1854916 0.1142883 0.10857406 0.06335159 -0.19334652
0.018706035 -0.14546035 0.086014375 0.011943611 -0.102400325 -0.09769469 -0.037235066 0.09522026
-0.036084134 0.07941646 -0.24284863 0.01590282 -0.008025875 0.065110706 0.065621026 -0.23390628
-0.020283412 -0.018578386 0.082002066 -0.011015338 -0.06871904 -0.056642354 -0.08066707 -0.010353389
0.03674112 0.071229 -0.08377952 -0.0036712065 0.07755483 0.069670215 0.049207207 -0.06835721
-0.05075173 -0.15953246 -0.12136281 0.097707994 0.22935899 -0.028078146 -0.084648214 -0.45163155
-0.4430458 1.8863813e-05 -0.08847024 0.04173288 0.08682116 -0.07310918 -0.24377207 0.092732996
0.06530588 0.0033258349 -0.09747201 -0.05109318 -0.019339152 0.0012378477 0.023978585 -0.04463082
0.069964625 -0.31882954 -0.081986405 0.07444868 -0.1734328 -0.43095884 -0.3564421 -0.39643735
0.014056232 0.095892794 0.09473833 -0.023072317 -0.09098046 0.0012279577 -0.0053172456 0.33569786
0.017422598 -0.016147962 -0.013989198 -0.054080293 0.51794934 0.08449646 -0.5076604 0.41081005
-0.051692106 0.054393977 0.26092696 -0.07202262 0.07321346 -0.009446764 -0.10893051 0.48583907
-0.0033753286 -0.06612631 0.06396461 0.04208118 -0.101276755 -0.052356113 0.13509257 -0.082803935
0.48689938 -0.08742006 0.03671758 0.03140068 0.060468446 -0.10121072 0.07884722 0.060493987
0.04447247 0.22945927 0.06293059 0.5227316 0.04901479 -0.047821175 0.22766738 0.06440424
-0.01372936 -0.04179298 -0.06685361 -0.04697896 -0.02638941 -0.028929155 0.01928821 0.104878396
00000000: fa17 b6bd 407e 0d3b 41e0 603d fac8 0fbc
00000010: 9bde aebd 3c4b d23c de18 5f3d fc7e 74be
00000020: 2fd3 5bbc 16b2 b6be f986 883d 7775 b53c
00000030: bc15 c4bb 4884 663d 92d0 b73d 67d4 fbbd
00000040: f46f 78bd 4484 0bbd 3401 12be ee6c 5abe
00000050: f3fe ab3d 097b 23bd 6639 7abe 51e6 2cbe
00000060: d869 643d 62ae 963d 4ffc 813d ba51 b03d
00000070: 3a76 37be b0fa 9fbd f894 82be 1db1 a0be
00000080: a3bc 13be 5a35 69be 186b 043d 7683 9fbe
00000090: 9772 96be 6ea1 86be 2e1c af3d 3bbf af3d
000000a0: de37 a23d 57f2 7abe 6cce a83d aa87 d0bd
000000b0: 6d6b 813d acf5 00bd 2dbd 11be a32d 823c
000000c0: 09d0 b43b cf71 833d 89f6 f5bb e37b 8fbe
000000d0: 5bfd 4a3d 921e 59be c762 dabb ffc1 9a3d
000000e0: f271 15bc 8a8f 0d3e 32d5 6c3d 1670 323d
000000f0: 42af 54ba 352b 63bd 5dcb 73be 2801 82be
00000100: dc66 14bd 514c 6ebb 63b5 0d3c ffbc 733d
00000110: 4853 b63d d9cf 84be 5f79 383e 6978 b4be
00000120: 94df 9fbe 6ff4 983d c2a9 573d 1c6d f03d
00000130: c8bc d83d 6ca5 493d 13a3 2bbd be4a 54be
00000140: 4255 aabe 9f0c 8c3d a92a 7abe 909a 5fbe
00000150: 6a65 a2bd a744 73bd bcfe 8c3d 04bd 2f3d
00000160: aa13 fabb ec14 7dbe 4a23 3f3d e1a1 3f3d
00000170: a9e0 bdbd 681c 6cbe 436a af3d 698f aa3d
00000180: 860c 1a3d 15ac 543a ee83 81bd cac4 b53d
00000190: dfaf 853d 0a80 653d de8a 07bd 71c1 14bb
000001a0: 9550 8a3d bbba b73d cb7c e8bb 05f1 293d
000001b0: 8195 a23d f685 96be 247c d03d 3cfb a53d
000001c0: 982f 0e3d 0e24 ddbd 0b37 65bd 183d 403d
000001d0: f611 143d 2e98 1d3d f889 4ebe ea3d cb3c
000001e0: cd5a 36bd 0349 c93c 086a a7be 6195 b23d
000001f0: 0e20 abbd 2ecd ba3d 4b18 c5bd 8ffb 50bc
00000200: 77b0 373d 1dcf 303d 8f78 82be 83f1 3d3e
00000210: fc0f ea3d 145c de3d 7abe 813d a1fc 45be
00000220: 663d 993c 8ff3 14be 4e28 b03d 23af 433c
00000230: 43b7 d1bd 2714 c8bd cc83 18bd d702 c33d
00000240: f5cc 13bd 19a5 a23d 50ad 78be a146 823c
00000250: f67e 03bc c358 853d 5164 863d 2185 6fbe
00000260: 6629 a6bc b331 98bc b3f0 a73d ad79 34bc
00000270: 91bc 8cbd d001 68bd c734 a5bd 43a1 29bc
00000280: db7d 163d 83e0 913d 9994 abbd a098 70bb
00000290: 11d5 9e3d 42af 8e3d 7f8d 493d ddfe 8bbd
000002a0: 0ce1 4fbd 7a5c 23be 118d f8bd 211b c83d
000002b0: 15dd 6a3e 2404 e6bc 0b5c adbd 403c e7be
000002c0: e6d6 e2be bb3d 9e37 e32f b5bd 19f0 2a3d
000002d0: 4bcf b13d 44ba 95bd 639f 79be ccea bd3d
000002e0: 17bf 853d 40f6 593b 689f c7bd 1547 51bd
000002f0: 246d 9ebc 473f a23a bd6e c43c cfce 36bd
00000300: 9d49 8f3d a03d a3be 7de8 a7bd 8d78 983d
00000310: 5e98 31be a3a6 dcbe 947f b6be d6f9 cabe
00000320: 1c4c 663c 7163 c43d 2b06 c23d 2802 bdbc
00000330: f753 babd 6cf3 a03a 4a3c aebb 97e0 ab3e
00000340: d6b9 8e3c bb48 84bc f332 65bc 4c83 5dbd
00000350: 5498 043f 7b0c ad3d 08f6 01bf b255 d23e
00000360: 1abb 53bd 38cc 5e3d 3898 853e 9880 93bd
00000370: f0f0 953d 9ac6 1abc f616 dfbd e6bf f83e
00000380: 9e34 5dbb 3b6d 87bd e1ff 823d 515d 2c3d
00000390: 306a cfbd 5d73 56bd b555 0a3e 1c95 a9bd
000003a0: e04a f93e 4a09 b3bd 2c65 163d 009e 003d
000003b0: c3ad 773d 9147 cfbd a77a a13d 8bc8 773d
000003c0: c428 363d 5ff7 6a3e c1e1 803d bdd1 053f
000003d0: bcc3 483d 23e0 43bd a321 693e 5fe6 833d
000003e0: 1cf1 60bc 1e2f 2bbd 8cea 88bd 036d 40bd
000003f0: 9b2e d8bc d6fc ecbc 4f02 9e3c 7cca d63d

linear_last.bias f4 [4]
-0.06771518 0.03145282 0.07739365 0.048852377
00000000: 42ae 8abd acd4 003d 9080 9e3d 6e19 483d
