trained_models/cnn_100_200_[100]_5_[3]_Access Scope_zeros_60-20-20_polisis_attr_state.pt (torch_old, 635818 bytes, 7 tensors)

embedding.weight f4 [778, 100]
0	0x00000000	0.0
1	0x00000000	0.0
2	0x00000000	0.0
3	0x00000000	0.0
4	0x00000000	0.0
5	0x00000000	0.0
6	0x00000000	0.0
7	0x00000000	0.0
8	0x00000000	0.0
9	0x00000000	0.0
10	0x00000000	0.0
11	0x00000000	0.0
12	0x00000000	0.0
13	0x00000000	0.0
14	0x00000000	0.0
15	0x00000000	0.0
16	0x00000000	0.0
17	0x00000000	0.0
18	0x00000000	0.0
19	0x00000000	0.0
20	0x00000000	0.0
21	0x00000000	0.0
22	0x00000000	0.0
23	0x00000000	0.0
24	0x00000000	0.0
25	0x00000000	0.0
26	0x00000000	0.0
27	0x00000000	0.0
28	0x00000000	0.0
29	0x00000000	0.0
30	0x00000000	0.0
31	0x00000000	0.0
32	0x00000000	0.0
33	0x00000000	0.0
34	0x00000000	0.0
35	0x00000000	0.0
36	0x00000000	0.0
37	0x00000000	0.0
38	0x00000000	0.0
39	0x00000000	0.0
40	0x00000000	0.0
41	0x00000000	0.0
42	0x00000000	0.0
43	0x00000000	0.0
44	0x00000000	0.0
45	0x00000000	0.0
46	0x00000000	0.0
47	0x00000000	0.0
48	0x00000000	0.0
49	0x00000000	0.0
50	0x00000000	0.0
51	0x00000000	0.0
52	0x00000000	0.0
53	0x00000000	0.0
54	0x00000000	0.0
55	0x00000000	0.0
56	0x00000000	0.0
57	0x00000000	0.0
58	0x00000000	0.0
59	0x00000000	0.0
60	0x00000000	0.0
61	0x00000000	0.0
62	0x00000000	0.0
63	0x00000000	0.0
64	0x00000000	0.0
65	0x00000000	0.0
66	0x00000000	0.0
67	0x00000000	0.0
68	0x00000000	0.0
69	0x00000000	0.0
70	0x00000000	0.0
71	0x00000000	0.0
72	0x00000000	0.0
73	0x00000000	0.0
74	0x00000000	0.0
75	0x00000000	0.0
76	0x00000000	0.0
77	0x00000000	0.0
78	0x00000000	0.0
79	0x00000000	0.0
80	0x00000000	0.0
81	0x00000000	0.0
82	0x00000000	0.0
83	0x00000000	0.0
84	0x00000000	0.0
85	0x00000000	0.0
86	0x00000000	0.0
87	0x00000000	0.0
88	0x00000000	0.0
89	0x00000000	0.0
90	0x00000000	0.0
91	0x00000000	0.0
92	0x00000000	0.0
93	0x00000000	0.0
94	0x00000000	0.0
95	0x00000000	0.0
96	0x00000000	0.0
97	0x00000000	0.0
98	0x00000000	0.0
99	0x00000000	0.0
100	0x00000000	0.0
101	0x00000000	0.0
102	0x00000000	0.0
103	0x00000000	0.0
104	0x00000000	0.0
105	0x00000000	0.0
106	0x00000000	0.0
107	0x00000000	0.0
108	0x00000000	0.0
109	0x00000000	0.0
110	0x00000000	0.0
111	0x00000000	0.0
112	0x00000000	0.0
113	0x00000000	0.0
114	0x00000000	0.0
115	0x00000000	0.0
116	0x00000000	0.0
117	0x00000000	0.0
118	0x00000000	0.0
119	0x00000000	0.0
120	0x00000000	0.0
121	0x00000000	0.0
122	0x00000000	0.0
123	0x00000000	0.0
124	0x00000000	0.0
125	0x00000000	0.0
126	0x00000000	0.0
127	0x00000000	0.0
128	0x00000000	0.0
129	0x00000000	0.0
130	0x00000000	0.0
131	0x00000000	0.0
132	0x00000000	0.0
133	0x00000000	0.0
134	0x00000000	0.0
135	0x00000000	0.0
136	0x00000000	0.0
137	0x00000000	0.0
138	0x00000000	0.0
139	0x00000000	0.0
140	0x00000000	0.0
141	0x00000000	0.0
142	0x00000000	0.0
143	0x00000000	0.0
144	0x00000000	0.0
145	0x00000000	0.0
146	0x00000000	0.0
147	0x00000000	0.0
148	0x00000000	0.0
149	0x00000000	0.0
150	0x00000000	0.0
151	0x00000000	0.0
152	0x00000000	0.0
153	0x00000000	0.0
154	0x00000000	0.0
155	0x00000000	0.0
156	0x00000000	0.0
157	0x00000000	0.0
158	0x00000000	0.0
159	0x00000000	0.0
160	0x00000000	0.0
161	0x00000000	0.0
162	0x00000000	0.0
163	0x00000000	0.0
164	0x00000000	0.0
165	0x00000000	0.0
166	0x00000000	0.0
167	0x00000000	0.0
168	0x00000000	0.0
169	0x00000000	0.0
170	0x00000000	0.0
171	0x00000000	0.0
172	0x00000000	0.0
173	0x00000000	0.0
174	0x00000000	0.0
175	0x00000000	0.0
176	0x00000000	0.0
177	0x00000000	0.0
178	0x00000000	0.0
179	0x00000000	0.0
180	0x00000000	0.0
181	0x00000000	0.0
182	0x00000000	0.0
183	0x00000000	0.0
184	0x00000000	0.0
185	0x00000000	0.0
186	0x00000000	0.0
187	0x00000000	0.0
188	0x00000000	0.0
189	0x00000000	0.0
190	0x00000000	0.0
191	0x00000000	0.0
192	0x00000000	0.0
193	0x00000000	0.0
194	0x00000000	0.0
195	0x00000000	0.0
196	0x00000000	0.0
197	0x00000000	0.0
198	0x00000000	0.0
199	0x00000000	0.0
200	0x00000000	0.0
201	0x00000000	0.0
202	0x00000000	0.0
203	0x00000000	0.0
204	0x00000000	0.0
205	0x00000000	0.0
206	0x00000000	0.0
207	0x00000000	0.0
208	0x00000000	0.0
209	0x00000000	0.0
210	0x00000000	0.0
211	0x00000000	0.0
212	0x00000000	0.0
213	0x00000000	0.0
214	0x00000000	0.0
215	0x00000000	0.0
216	0x00000000	0.0
217	0x00000000	0.0
218	0x00000000	0.0
219	0x00000000	0.0
220	0x00000000	0.0
221	0x00000000	0.0
222	0x00000000	0.0
223	0x00000000	0.0
224	0x00000000	0.0
225	0x00000000	0.0
226	0x00000000	0.0
227	0x00000000	0.0
228	0x00000000	0.0
229	0x00000000	0.0
230	0x00000000	0.0
231	0x00000000	0.0
232	0x00000000	0.0
233	0x00000000	0.0
234	0x00000000	0.0
235	0x00000000	0.0
236	0x00000000	0.0
237	0x00000000	0.0
238	0x00000000	0.0
239	0x00000000	0.0
240	0x00000000	0.0
241	0x00000000	0.0
242	0x00000000	0.0
243	0x00000000	0.0
244	0x00000000	0.0
245	0x00000000	0.0
246	0x00000000	0.0
247	0x00000000	0.0
248	0x00000000	0.0
249	0x00000000	0.0
250	0x00000000	0.0
251	0x00000000	0.0
252	0x00000000	0.0
253	0x00000000	0.0
254	0x00000000	0.0
255	0x00000000	0.0

convolutions.0.weight f4 [200, 1, 3, 100]
0	0xbad1dd91	-0.0016011467
1	0xbc13e056	-0.009025654
2	0x3cf93438	0.030420408
3	0xbdc6660c	-0.09687433
4	0xbd20a363	-0.039218318
5	0x3d083a69	0.03325883
6	0xbbe54003	-0.006996156
7	0xbde331e9	-0.11093504
8	0xbc9e5474	-0.01932738
9	0x3e0d8400	0.13819885
10	0xbbce24a3	-0.0062909885
11	0x3d8bb67b	0.06821915
12	0x3bd18898	0.006394457
13	0xbe0f56d2	-0.13997963
14	0x3c0f7976	0.008756986
15	0x3c5b4e34	0.013385344
16	0x3d0ba018	0.034088224
17	0x3da7dc84	0.08196357
18	0x3d4a5822	0.049400456
19	0x3ba144b6	0.004921521
20	0x3ca15450	0.019693524
21	0xbdab68a5	-0.08369569
22	0x3d89e6a1	0.06733442
23	0xbe41e212	-0.18933895
24	0x3d3e72d7	0.04649624
25	0x3d808c66	0.06276779
26	0x3d5f4d2e	0.054516964
27	0xbd74764e	-0.059683137
28	0xbc86b95c	-0.016445808
29	0xbceec427	-0.029146267
30	0x3e0bc677	0.13649927
31	0x3df836a5	0.121197976
32	0xbc2218d5	-0.009893616
33	0xbccd1250	-0.025033146
34	0xbca54746	-0.020175587
35	0xbc94c0c9	-0.018158333
36	0xbd023fc3	-0.03179909
37	0xbb23c8ec	-0.0024991585
38	0x3c018615	0.007905503
39	0xbdaeecdf	-0.08541273
40	0xbc328993	-0.010897058
41	0x3b952355	0.004551331
42	0x3c9a1d81	0.018812897
43	0xbd313eef	-0.04327291
44	0x3d1e4cdc	0.038647518
45	0xbe2333d7	-0.15937744
46	0x3d74ef97	0.059798803
47	0xbbc30eb8	-0.0059526823
48	0xbd8e0a25	-0.06935529
49	0xbd176b3c	-0.0369675
50	0x3bbe9d62	0.0058171013
51	0xbd3292a8	-0.043596894
52	0x3d37322c	0.044725582
53	0x3dc445e6	0.095836446
54	0xbdc52fbe	-0.09628247
55	0x3d1358a6	0.035973214
56	0xbcf95e2b	-0.03044041
57	0xbd2636eb	-0.040579718
58	0x3cc4e4aa	0.024034817
59	0xbd9aa8e6	-0.07551746
60	0x3c2ed9b1	0.010672019
61	0xb9c3a799	-0.00037318168
62	0x3dbf049f	0.09327053
63	0xbdaafd05	-0.08349041
64	0xbb6c6350	-0.0036069937
65	0xbd68a772	-0.056800313
66	0x3dd09881	0.10185338
67	0x3d171e1b	0.036893945
68	0xbd814907	-0.06312757
69	0x3cbb0127	0.022827698
70	0x3c25a34e	0.010109736
71	0xbca13e2d	-0.019682968
72	0xbcc6f4e4	-0.024286695
73	0xbc6ebb55	-0.014571031
74	0xba8ed550	-0.0010897312
75	0x3dac674b	0.08418139
76	0x3cdf6ae2	0.027272645
77	0x3d7f897e	0.062386982
78	0x3dae896b	0.08522304
79	0x3a1a30e7	0.0005881921
80	0x3d653cf1	0.05596632
81	0x3df76526	0.120798394
82	0xbd820771	-0.063490756
83	0xbc1dc787	-0.009630091
84	0x3e03634a	0.12830845
85	0x3dc718a1	0.097214945
86	0xbd4e6a77	-0.0503945
87	0x3cbc671b	0.022998383
88	0x3dcb6e4c	0.09933147
89	0xbd26c940	-0.04071927
90	0xbc6dfe82	-0.014526011
91	0x3c3b0fc4	0.011417333
92	0x3d0347a7	0.032050755
93	0xbca2c32f	-0.019868461
94	0x3da46f23	0.0802901
95	0xbd799245	-0.06093051
96	0x3d4ce66b	0.05002443
97	0x3d7fd245	0.062456388
98	0x3c9cc0cc	0.019134901
99	0x3d14daa0	0.03634131
100	0xbd2894e7	-0.04115763
101	0xbb64347d	-0.0034821325
102	0xbd54df8e	-0.05197101
103	0x3df3422a	0.11877854
104	0xbd9d4f8e	-0.076811895
105	0x3dbc57bb	0.09196421
106	0xbd481611	-0.04884917
107	0x3ddf243d	0.10895584
108	0x3e033e57	0.1281675
109	0xbdac8146	-0.084230945
110	0x3da9172b	0.08256372
111	0xbce278dc	-0.02764552
112	0xbd238bf6	-0.0399284
113	0xbe1289a1	-0.14310314
114	0x3d092e1d	0.033491243
115	0xbe3a6d1b	-0.18205683
116	0x39fb1f15	0.0004789761
117	0xbd47ad75	-0.048749406
118	0x391aa1ab	0.0001474681
119	0xbd904370	-0.07044113
120	0xbdbe1729	-0.09281761
121	0x3dd8e0ce	0.10589753
122	0xbcd3768d	-0.025813365
123	0x3d1e33c8	0.0386236
124	0xbe2ba5bb	-0.1676244
125	0x3da52715	0.08064095
126	0x3b3b0f63	0.0028543107
127	0xbe211445	-0.15730388
128	0xbcce3f4a	-0.025176663
129	0x3d367eb8	0.044554442
130	0xbd089f3c	-0.033354983
131	0x3d763f65	0.06011905
132	0x3e0b3d78	0.13597667
133	0xbc25e05e	-0.010124294
134	0x3d869873	0.06572046
135	0x3bf86c0d	0.00758124
136	0x3d96ffc7	0.073730044
137	0xbc789859	-0.015173041
138	0x3d82e2bc	0.063909024
139	0x3d869bcc	0.06572685
140	0xbc8880f1	-0.016663047
141	0xbd85c36d	-0.06531415
142	0x3e27cb8f	0.16386245
143	0xbc95c510	-0.018282443
144	0x3d9dfb0f	0.07713901
145	0xbd3e46f8	-0.0464544
146	0x3d1906fa	0.03736017
147	0x3d84f932	0.06492843
148	0xbe158a59	-0.14603557
149	0xbc4b2f4e	-0.012401415
150	0x3dda1783	0.10649016
151	0x3ae4a4a8	0.0017444091
152	0xbba05cbc	-0.0048938673
153	0xbcec5f38	-0.028853998
154	0x3ccf0d76	0.025274973
155	0xba39c2e0	-0.00070862286
156	0xb7e096f6	-2.6773178e-05
157	0xbc1bf9fa	-0.009520048
158	0xbd9ba637	-0.07600062
159	0x3c258d21	0.010104449
160	0xbd40ea87	-0.047098663
161	0xbba1d61e	-0.004938855
162	0xbe1400cc	-0.14453429
163	0xbd436095	-0.04769953
164	0x3c9c63c2	0.019090537
165	0xbc5d3aa2	-0.013502749
166	0xbe11ba61	-0.14231254
167	0xbdc0ab38	-0.094076574
168	0x3d356fcf	0.044296082
169	0x3d92195c	0.07133743
170	0xbd455ee1	-0.048186187
171	0xbc028af9	-0.007967704
172	0xbd5910b5	-0.05299445
173	0xbce0f083	-0.027458435
174	0xbdec2bc4	-0.11531785
175	0xbca4746a	-0.020075042
176	0x3d122bc8	0.035686284
177	0xbdd0c4bd	-0.10193775
178	0xbcc81306	-0.024423134
179	0x3cdf8e08	0.027289405
180	0x3c80e497	0.015734
181	0x3d58d6ed	0.052939344
182	0xbd586d00	-0.052838326
183	0x3d3df151	0.046372715
184	0xbd645a3d	-0.05575012
185	0xbd70ceb4	-0.058790877
186	0x3ce5ba71	0.028043004
187	0xbd93ed64	-0.07223013
188	0xbdc2a911	-0.09504903
189	0x3dc3c421	0.09558893
190	0x3d8a2393	0.067450665
191	0xbc7c68a6	-0.0154058095
192	0xbdd2fafb	-0.10301777
193	0xbdb94d11	-0.090479024
194	0x3d0d6eaf	0.034529384
195	0x3dce0246	0.100590274
196	0xbdc588fd	-0.09645269
197	0x3d50686a	0.050880827
198	0x3e07a1b2	0.13245276
199	0x3d89a045	0.06720022
200	0x3ddceb64	0.10787085
201	0xbca716ca	-0.020396609
202	0x3ca866d2	0.020556841
203	0xbd29e11b	-0.041474443
204	0x3d291d5f	0.041287776
205	0xbc537a55	-0.012907584
206	0x3dd057d5	0.10173003
207	0xbd981623	-0.07426097
208	0xbd67c91c	-0.056588277
209	0x3d1d10b7	0.03834602
210	0x3d05c30b	0.03265671
211	0xbcf3a6fc	-0.02974271
212	0x3c12db58	0.008963428
213	0x3d6b46ab	0.05744044
214	0x3d139335	0.03602906
215	0xbde0b32e	-0.10971676
216	0xba551042	-0.0008127728
217	0xbcedf7e2	-0.029048864
218	0xbe065f8b	-0.13122384
219	0x3c93cc3e	0.018041726
220	0x3d5eeb68	0.05442372
221	0xbd38984d	-0.04506712
222	0x3d9091b2	0.07059039
223	0x3d947118	0.072481334
224	0xbce2375a	-0.027614284
225	0x3cd661a8	0.026169613
226	0x3da84b07	0.08217435
227	0xbcf96a42	-0.030446175
228	0x3e397337	0.18110357
229	0xbc4ac4cf	-0.012376024
230	0x3e131b27	0.14365827
231	0x3de50520	0.11182618
232	0x3d175471	0.036945764
233	0xbca3acce	-0.01997986
234	0x3d677c51	0.05651504
235	0xbd740acb	-0.059580605
236	0x3dba46f6	0.09095566
237	0x3d1b5c36	0.037929736
238	0xbc202bc5	-0.0097760605
239	0x3dc687db	0.09693881
240	0xbccec74f	-0.025241522
241	0x3c9bd2e8	0.019021466
242	0xbd6327b0	-0.05545777
243	0xbc788c97	-0.015170238
244	0xbb96c746	-0.004601392
245	0x3cfe93fc	0.031076424
246	0xbda91498	-0.08255881
247	0xbdb2d3f8	-0.08731836
248	0xbdc774f5	-0.09739105
249	0x3db43057	0.087982826
250	0xbd7c52bc	-0.06160234
251	0xbd6e49d2	-0.05817587
252	0x3dac123c	0.084019154
253	0x3c715b18	0.014731191
254	0xbd6ba24d	-0.05752783
255	0xbd30b187	-0.043138053

convolutions.0.bias f4 [200]
0	0xba12a04a	-0.0005593343
1	0xbd82c12c	-0.06384501
2	0xbcee871e	-0.029117163
3	0xbda2813a	-0.07934804
4	0xbc19a8f8	-0.009378664
5	0xbc9793c5	-0.01850308
6	0x3afe7af6	0.0019415307
7	0x3c95cd4e	0.018286373
8	0x3b8ae255	0.0042384067
9	0xbd63bff1	-0.05560297
10	0x3cdfc466	0.02731533
11	0xbb2cd3df	-0.0026371402
12	0xbca2cecd	-0.019874
13	0xba716cb4	-0.00092096184
14	0xbca23e73	-0.019805169
15	0xbd0819cb	-0.033227723
16	0xbc3648d9	-0.011125767
17	0xbcb9ef10	-0.022697002
18	0x3d1ee1fd	0.038789738
19	0x3c56999a	0.013098145
20	0xbbe6a60f	-0.0070388387
21	0x3d4fc2cf	0.050722893
22	0xbc89ef79	-0.016837822
23	0xbd8b4ddd	-0.068019606
24	0x3cf4c8df	0.029880939
25	0xbc07fd2a	-0.008300105
26	0x3c29ec8a	0.010371337
27	0x3c3a0124	0.011352811
28	0xbbf096b6	-0.007342185
29	0xbafa9587	-0.0019118049
30	0xbc32317a	-0.010876054
31	0xb96690d9	-0.00021988469
32	0xbce441c6	-0.027863394
33	0x3b08d9d2	0.0020881784
34	0x3ca092fd	0.01960134
35	0xbd295bce	-0.041347317
36	0x3c4baa47	0.012430734
37	0xbd15b168	-0.03654614
38	0x3affee5e	0.0019525995
39	0x397615a3	0.00023468448
40	0xbcd077aa	-0.025447685
41	0x3cc7f1eb	0.024407348
42	0x3c3c3001	0.011486054
43	0xbd9e17d3	-0.07719388
44	0x3c686ff4	0.014186848
45	0xbd09cfe8	-0.03364554
46	0x3a3c8f85	0.0007193017
47	0xbd578d58	-0.05262503
48	0xbc2ff6d1	-0.010739998
49	0x3c98003e	0.018554803
50	0xbc6a4685	-0.01429904
51	0xbcd819b5	-0.026379446
52	0xbc11b8bc	-0.008894142
53	0xbd8e4c3b	-0.069481336
54	0xbd40aaad	-0.04703777
55	0xbc00abf7	-0.0078535
56	0xbbd3cd59	-0.0064636883
57	0xbd9f8bae	-0.07790314
58	0x3cf2a7e0	0.029621065
59	0x3d302a79	0.043009255
60	0x3c2265a3	0.009911927
61	0xbc7a4960	-0.015276283
62	0xbd09d9f7	-0.033655133
63	0xbca7ce51	-0.020484122
64	0x3b992720	0.0046738535
65	0xbd97d99e	-0.07414554
66	0xbd0406f4	-0.032233194
67	0x3c9c011a	0.019043494
68	0x3b4fbcd9	0.0031698255
69	0xbc1d9ed8	-0.009620391
70	0xbca51857	-0.020153208
71	0xbd47b73a	-0.048758723
72	0x3be51e01	0.006992102
73	0xbd49a9ea	-0.04923431
74	0x3c385bb3	0.011252332
75	0xbc940e43	-0.018073207
76	0xbd8b02df	-0.06787657
77	0xbd78c1f7	-0.060731854
78	0xbd42798d	-0.0474792
79	0x3cd2fcaa	0.025755245
80	0xbbc9971b	-0.0061520464
81	0xbc1f08c2	-0.009706678
82	0x3c9db9d2	0.019253645
83	0x3ce7fd5d	0.028319055
84	0x3d3ab825	0.04558577
85	0x3d27cc0b	0.040966075
86	0x3aa4e323	0.0012579899
87	0xbccf33b7	-0.025293214
88	0x3d20e8a1	0.039284352
89	0x3b9152dc	0.0044349264
90	0xbd0b7257	-0.03404459
91	0x3a7cbd10	0.00096412096
92	0xbbe9b932	-0.0071326727
93	0xbd97e715	-0.07417122
94	0x3c4a4302	0.0123450775
95	0x3c1ca24e	0.009560181
96	0xbc7e19e0	-0.015509099
97	0xbd3ba5df	-0.045812484
98	0x3c9c9874	0.019115664
99	0xbb0b9b1e	-0.0021302174
100	0xbd294a0d	-0.041330386
101	0xbd673baa	-0.056453384
102	0xbdaf237e	-0.085516915
103	0xbd346bfd	-0.0440483
104	0x3ce8db57	0.028424902
105	0xbc814220	-0.015778601
106	0x3cf16761	0.02946824
107	0xbd77a241	-0.06045747
108	0xbadc072e	-0.0016786808
109	0xbb48e286	-0.0030652597
110	0xbda77c08	-0.08177954
111	0xbaf26edf	-0.0018496177
112	0x3d7f8183	0.06237937
113	0xbcf6a612	-0.030108485
114	0xbd7ae67b	-0.06125496
115	0x3d0a5000	0.0337677
116	0xbc9cd57d	-0.019144768
117	0xbb9d8e0a	-0.004808192
118	0xbd6e009c	-0.05810605
119	0xbd1dd866	-0.03853645
120	0xbcbf014b	-0.023316046
121	0x3d1f49f0	0.03888887
122	0xbc7f12b6	-0.015568426
123	0xbcddc359	-0.027070688
124	0x3c2e02a1	0.010620744
125	0xbd5d6803	-0.05405427
126	0x3cfa7b55	0.030576387
127	0xbd85637f	-0.06513118
128	0xbd5267c6	-0.051368497
129	0x3c67f3d9	0.014157259
130	0xbd883813	-0.0665132
131	0x3c7bcff5	0.015369405
132	0xbd17a6ea	-0.037024416
133	0xbbf5742c	-0.0074906554
134	0x3d1446c6	0.036200307
135	0x3c8ddf87	0.0173185
136	0xbc742687	-0.014901764
137	0x3b073468	0.0020630602
138	0xbd7d4349	-0.061831746
139	0xbc841b0c	-0.016126178
140	0x3c87028c	0.016480707
141	0x3ce180ad	0.027527178
142	0xbd41c555	-0.04730733
143	0xbd03b2f7	-0.032153096
144	0xbc0bdce0	-0.008536547
145	0xbd1e69c3	-0.03867508
146	0xbb5a8f88	-0.0033349711
147	0xbd6b6b7c	-0.057475552
148	0x3cc07426	0.023492884
149	0xbb76b350	-0.00376435
150	0xbd601f28	-0.054717213
151	0xbc90b1ec	-0.017662965
152	0xbd693254	-0.056932762
153	0xbda64db6	-0.08120291
154	0xbcf3c006	-0.02975465
155	0x3ce7b692	0.028285298
156	0xbc8d59c8	-0.017254725
157	0xbbd5bcfb	-0.0065227724
158	0xbc1503ce	-0.009095145
159	0xbd82979c	-0.063765734
160	0xbd289514	-0.041157797
161	0xbba72013	-0.005100259
162	0xbc412257	-0.011787972
163	0x3cbe6f0d	0.023246313
164	0xbd2298f2	-0.03969664
165	0x3cb0314b	0.02150788
166	0xbc9fa97e	-0.01949
167	0xbb380629	-0.0028079844
168	0xbc37fe75	-0.011230101
169	0xbb0001e4	-0.0019532377
170	0xbd26b76b	-0.040702265
171	0x3aafc6f1	0.001341073
172	0x3b0f32c8	0.0021850336
173	0x3cfe4a65	0.031041333
174	0x3d2053cc	0.039142415
175	0xbce30424	-0.027711935
176	0xbc06761a	-0.008206869
177	0xbc2e6a30	-0.010645434
178	0x3ca6720d	0.020318056
179	0xbcc91c2b	-0.024549564
180	0x3d02254b	0.031773847
181	0x3bf2ef0a	0.0074137496
182	0x3c47519a	0.012165451
183	0xbb6234df	-0.0034516377
184	0xbcc2c002	-0.023773197
185	0x3c1771f6	0.009243479
186	0x3a653fd3	0.0008745167
187	0xbd08fc83	-0.03344394
188	0x3bde21b1	0.0067789187
189	0xbca97f57	-0.020690603
190	0xbb8de0be	-0.00432977
191	0xbb3b19e0	-0.0028549358
192	0x3bccbc02	0.006247998
193	0x3a74a59c	0.0009332539
194	0xbc36d559	-0.0111592645
195	0xbd33bc64	-0.043880835
196	0xbbb03537	-0.0053774375
197	0x3a219570	0.00061639305
198	0x3cbf979d	0.023387725
199	0xbd401cf8	-0.046902627

linear_layers.0.weight f4 [100, 200]
0	0x3be7e800	0.007077217
1	0x3cb2cc7e	0.021826025
2	0x3ae9d824	0.0017840904
3	0xbdb90842	-0.09034778
4	0x3d05c81d	0.032661546
5	0xbd37412f	-0.0447399
6	0x3c8eb144	0.017418511
7	0xbd72b2d7	-0.059252586
8	0xbd612ea6	-0.054976128
9	0xbd91a369	-0.07111246
10	0x3b7d31e2	0.0038634469
11	0xbd84a0ef	-0.06476008
12	0xbd71083e	-0.05884575
13	0xbdaa3ebe	-0.083127484
14	0xbd10fa3a	-0.035394885
15	0xbd135957	-0.035973873
16	0x39237408	0.00015588116
17	0x3b94a9ea	0.004536857
18	0x3ce12f7e	0.027488466
19	0xbda6c1f9	-0.08142466
20	0xbc1c1d28	-0.009528436
21	0x3d30d2b6	0.0431697
22	0x3d3bf3ac	0.04588668
23	0xbc813a37	-0.01577483
24	0xbc704992	-0.014665978
25	0xbd61e545	-0.05515029
26	0xbbe7f5cc	-0.007078862
27	0xbd759b04	-0.059962288
28	0xbcd944d3	-0.026522076
29	0xbdb809c6	-0.08986239
30	0x3ce9612d	0.02848872
31	0xbc4e6ff0	-0.01259993
32	0xbd869c2f	-0.065727584
33	0xbd56e967	-0.052468684
34	0x3c8627c4	0.016376384
35	0xbd49a4a9	-0.049229298
36	0xbd9321e4	-0.071841985
37	0x3b7a396c	0.0038181199
38	0x3bbef544	0.005827578
39	0x3d218914	0.03943737
40	0xbd898511	-0.067148335
41	0x3d0bfed6	0.034178577
42	0xbcd1c798	-0.025607869
43	0xbda6325b	-0.08115073
44	0xbd977b6f	-0.0739659
45	0xbc898279	-0.016785847
46	0x3d2e49b8	0.042550772
47	0xbc5e7249	-0.013577052
48	0x3d383c00	0.044979095
49	0xbc910eab	-0.01770719
50	0xbcd60ace	-0.026128199
51	0x3d067a7a	0.032831647
52	0x3d3fcbc6	0.046825193
53	0xbd8d0b5b	-0.068869315
54	0x3d0b4ab1	0.03400678
55	0xbd7e63ef	-0.062107023
56	0x3d0313ae	0.03200119
57	0xbceb5402	-0.028726581
58	0xbd4fda1e	-0.050745122
59	0xbcec7c98	-0.028868005
60	0xbd861197	-0.06546324
61	0xbcd572ee	-0.02605578
62	0x3c271182	0.010197045
63	0x3d582ba4	0.052775994
64	0xbd8793ae	-0.066199645
65	0x3cf1e414	0.029527701
66	0x3d4a38ce	0.04937058
67	0xbd9e3abc	-0.077260464
68	0xbd40b14b	-0.04704408
69	0xbd1c64d9	-0.038182113
70	0xbda30e6a	-0.07961734
71	0xbd29722e	-0.041368656
72	0xbd76d39e	-0.060260408
73	0xbd94f95a	-0.072741225
74	0xbdadbe3c	-0.0848355
75	0xbd802637	-0.06257289
76	0xbcf38d7d	-0.029730553
77	0xbd867415	-0.0656511
78	0xbd4f666c	-0.050634786
79	0xbd57176e	-0.05251258
80	0xbd8a79f5	-0.06761543
81	0x3cc0207d	0.023452992
82	0x3cfc7de3	0.030821746
83	0xbd8b5939	-0.06804127
84	0xbd82ebb1	-0.06392611
85	0xbd6accf9	-0.057324383
86	0x3d123b15	0.035700876
87	0xbd93c427	-0.072151475
88	0x3c95a115	0.018265286
89	0x3c6eae2f	0.014567896
90	0xbb692440	-0.0035574585
91	0xbdb18c8b	-0.086693846
92	0x3bb17047	0.005414996
93	0xbda3576d	-0.079756595
94	0xbd51f63b	-0.051260214
95	0x3cb29f54	0.02180449
96	0xbd3794dd	-0.0448197
97	0x3d0e8022	0.034790166
98	0xbda9d372	-0.08292283
99	0x3d0e5c34	0.0347559
100	0x3c0bd0d4	0.008533675
101	0xbd411b04	-0.047144905
102	0x3d11ca91	0.035593573
103	0xbdb7f09d	-0.0898144
104	0x3b4f117d	0.0031596117
105	0xbd9805e7	-0.07423001
106	0xbc8e2194	-0.017349996
107	0xbd1438d3	-0.036187004
108	0xbd8b0457	-0.06787937
109	0xbda690ce	-0.08133088
110	0xbd817dce	-0.063228235
111	0x3cd848d3	0.026401913
112	0xbd418a4c	-0.04725103
113	0xbda82836	-0.08210795
114	0xbbeda0b7	-0.0072518247
115	0xbdb7e84d	-0.08979855
116	0xbd942b52	-0.07234825
117	0xbd60b4ea	-0.054860033
118	0xbd54ac9b	-0.051922422
119	0xbd7b5d11	-0.061368052
120	0xbd5263b8	-0.05136463
121	0xbdb54726	-0.08851461
122	0xbd01bb3d	-0.031672705
123	0x3bad1b36	0.005282785
124	0xbd866e63	-0.06564023
125	0xbce20033	-0.027587986
126	0x3cb8f7ac	0.022579037
127	0x3d22386a	0.039604582
128	0xbd2a5149	-0.041581426
129	0xbd8e8d38	-0.06960529
130	0xbd346407	-0.044040706
131	0x3ae73ff2	0.0017642959
132	0xbdb470fd	-0.08810613
133	0xbcb1dc44	-0.021711476
134	0xbd5dc7b8	-0.054145545
135	0xbca0d240	-0.019631505
136	0xbd0408c0	-0.032234907
137	0xbd8b650d	-0.06806383
138	0x3d0d982f	0.03456896
139	0x3d134b06	0.03596022
140	0xbd97ed1c	-0.07418272
141	0x3d30c384	0.04315521
142	0xbc805e1e	-0.015669879
143	0xbd2120e2	-0.039338
144	0x3bec1f82	0.0072059045
145	0x3c963b49	0.018338816
146	0xbdb557a1	-0.088546045
147	0x3d07a444	0.03311564
148	0xbd02f1a9	-0.031968746
149	0xbd2de419	-0.04245386
150	0x3d202d9f	0.039106008
151	0x3d1293aa	0.035785355
152	0xbc8f7713	-0.017512834
153	0x3c237cfe	0.009978531
154	0xbcb5eb06	-0.022206794
155	0xbd8c82b0	-0.06860864
156	0xbc055c43	-0.008139673
157	0x3d473155	0.04863103
158	0xbccdd38b	-0.025125286
159	0x3c5cf847	0.013486928
160	0x3c95a98f	0.018269328
161	0x3d2fd20f	0.042924937
162	0xbd823e01	-0.063594826
163	0x3d157dd9	0.03649697
164	0xbb14b97b	-0.0022693563
165	0xbdb3cc7b	-0.08779236
166	0xbd597082	-0.05308581
167	0xbcf0ad69	-0.029379563
168	0xbd1455d3	-0.03621466
169	0xbd35ee71	-0.04441685
170	0x3b595b6a	0.003316606
171	0x3c76a2be	0.015053449
172	0x3bcbbdb7	0.006217684
173	0xbd0dd785	-0.034629364
174	0xbcd59b56	-0.026075047
175	0x3bf91c71	0.0076022674
176	0xbd46c7f2	-0.048530526
177	0x3d06329e	0.032763116
178	0xbd409210	-0.047014296
179	0xbd97c593	-0.07410731
180	0x3d1ff235	0.039049346
181	0xbcab59da	-0.020916868
182	0x3d082025	0.03323378
183	0x3d360d40	0.04444623
184	0x3cc45770	0.023967475
185	0xbc4f323d	-0.012646255
186	0x3bc0c77e	0.0058831563
187	0xbd320638	-0.043462962
188	0xbd143f93	-0.03619344
189	0xbd0b6d74	-0.03403993
190	0xbc68990d	-0.014196646
191	0x3ca48a4d	0.020085478
192	0xbd43050a	-0.047612227
193	0xbc5e1381	-0.013554455
194	0xbd2cfeaa	-0.042235054
195	0x3d247c6c	0.04015772
196	0xbd274860	-0.040840507
197	0xbd103364	-0.03520526
198	0xbb8a6d89	-0.0042244834
199	0xbd8c24ad	-0.06842933
200	0x3cf3b964	0.029751487
201	0xbd46f699	-0.048575018
202	0x3cb2d356	0.021829288
203	0xbd911b36	-0.07085268
204	0x3d3eecdc	0.046612605
205	0x3bf0c475	0.0073476383
206	0xbd6d24f1	-0.05789656
207	0xbcb0e42f	-0.021593181
208	0xbc8ee921	-0.017445149
209	0xbd874119	-0.06604213
210	0xbc0a8be6	-0.008456206
211	0x3d296ea4	0.04136528
212	0x3c8cc145	0.017182002
213	0xbacc66c4	-0.0015594591
214	0x3d132af1	0.035929624
215	0x3d25208b	0.04031424
216	0x3d4da8cc	0.050209805
217	0xbd880f24	-0.06643513
218	0x3d7b53ae	0.0613591
219	0xbc9fe55a	-0.019518543
220	0xbd668c49	-0.05628613
221	0xbda0fe7e	-0.078610405
222	0x3a18c87f	0.0005828216
223	0xbc37b949	-0.011213609
224	0x39c3519a	0.00037254096
225	0x3d5133a8	0.051074654
226	0xbcbbdf87	-0.022933735
227	0xbc241acf	-0.010016157
228	0x3b1fa51e	0.0024359892
229	0x3cd4967a	0.025950659
230	0xbd1c207b	-0.038116913
231	0xbcd08378	-0.025453314
232	0xbb4db35f	-0.003138743
233	0xbc00d42b	-0.007863085
234	0x3bdadb55	0.0066789784
235	0xbd47c151	-0.048768345
236	0xbd559254	-0.052141502
237	0xbd4e12d5	-0.05031093
238	0x3b520681	0.0032047334
239	0xbad1db24	-0.0016010744
240	0x3d74dec0	0.059782743
241	0xbd02e485	-0.031956214
242	0x3d251b37	0.040309157
243	0x3d086613	0.03330047
244	0xbd2068bf	-0.039162394
245	0xbd818aa9	-0.063252755
246	0xbd1a241a	-0.037632085
247	0xbd453864	-0.04814948
248	0x3d63743f	0.055530783
249	0xbd6f6222	-0.058443196
250	0xbd0fba98	-0.03509006
251	0xbcc45084	-0.023964174
252	0xbd16d82c	-0.03682725
253	0x3d54486b	0.051826876
254	0xbd4dafa5	-0.050216336
255	0xbd2e1545	-0.042500753

linear_layers.0.bias f4 [100]
0	0xbd96d4d6	-0.07364814
1	0xbc8434e0	-0.016138494
2	0x3b83f79e	0.004027321
3	0x3d64bcc5	0.055844087
4	0xbc140f0b	-0.00903679
5	0xbd2b535a	-0.041827537
6	0xbd712160	-0.05886972
7	0x3c92dcd0	0.017927557
8	0x3c12b405	0.008954053
9	0xbc2de197	-0.010612867
10	0x3cd84375	0.026399354
11	0xbcdbb8cc	-0.026821516
12	0xbd101aa9	-0.035181675
13	0xbb8077fe	-0.003920554
14	0x3d338bc5	0.043834466
15	0xbc734342	-0.0148475785
16	0x3c800c72	0.015630934
17	0xbc74bfa6	-0.014938271
18	0x3d4a27f2	0.0493545
19	0x3c412c67	0.0117903715
20	0xbc0f87ac	-0.008760374
21	0xbd2bf8cc	-0.041985318
22	0x3de910e8	0.11380178
23	0x3d2c27bc	0.04203008
24	0xbcda22f8	-0.026628003
25	0x3d9bb2c0	0.07602453
26	0xbc33bf3a	-0.010970885
27	0xbcd35c10	-0.025800735
28	0x3bb83dc1	0.005622596
29	0x3cfe568c	0.031047128
30	0xbd76f5ee	-0.06029313
31	0x3a703900	0.0009163767
32	0xbaa57ea1	-0.0012626239
33	0xbd52d666	-0.051473998
34	0x395a8cb2	0.00020842513
35	0x3d117825	0.03551497
36	0x3d65867f	0.05603647
37	0x3d86a2a1	0.06573988
38	0xba8a2896	-0.001054066
39	0xba3758ba	-0.0006994117
40	0x3cc3dcee	0.023909058
41	0xbc91d50e	-0.017801788
42	0x3d350d2f	0.044202026
43	0xbb7e246f	-0.003877904
44	0x3d114c35	0.035473067
45	0x3ba34c28	0.0049834438
46	0x3d2d4444	0.04230143
47	0x3ca51136	0.020149808
48	0xbc86346a	-0.016382415
49	0xbd53c257	-0.05169901
50	0xbda54b7c	-0.08071038
51	0xbd610289	-0.05493406
52	0xbd5db087	-0.054123428
53	0x3dd22b3a	0.10262151
54	0xbdafbe98	-0.08581275
55	0xbd2b5160	-0.041825652
56	0x3cdafafa	0.026731003
57	0xbd212b6b	-0.039348047
58	0x3ca8bb1f	0.020597039
59	0x3ca9c1b1	0.020722242
60	0x3db8bdec	0.090206
61	0xbd9986f9	-0.07496447
62	0xbd873c23	-0.06603267
63	0xbb31380e	-0.0027041468
64	0x3cac6fe1	0.021049442
65	0xbd59404b	-0.05303983
66	0xbd4b89c0	-0.049691916
67	0x3c501035	0.012699177
68	0x3d5b2aa1	0.05350745
69	0x3d078c8c	0.03309302
70	0x3ccb6a3f	0.024830936
71	0x3d5bd6c3	0.05367161
72	0x3cfde471	0.030992718
73	0x3c76ee93	0.015071529
74	0xbd2e3173	-0.042527627
75	0x3c94247b	0.018083801
76	0x3c9f3a88	0.01943709
77	0xbcca5f4d	-0.024703646
78	0xbd976b15	-0.07393471
79	0xbd6f0b58	-0.058360428
80	0x3b140d3a	0.0022590891
81	0x3c0d2afa	0.008616203
82	0x3c4fcec9	0.012683579
83	0x3d9ecf35	0.07754365
84	0x3c9e89b2	0.019352768
85	0x3bb8f67f	0.005644619
86	0x3d2f48ef	0.042794164
87	0x3ccc7f42	0.024963025
88	0xbcbb5bb2	-0.022870872
89	0xbcb101be	-0.021607276
90	0x3d0f0b1a	0.034922697
91	0xbd47a1a4	-0.048738137
92	0x3cc3079a	0.023807336
93	0x3cba8dd0	0.0227727
94	0x3d342581	0.04398108
95	0x3c05b6b8	0.008161239
96	0xbc9b9bed	-0.01899525
97	0x3d799fd6	0.060943447
98	0xbd9f2bc9	-0.07772023
99	0x3d4a8d5d	0.04945122

linear_last.weight f4 [5, 100]
0	0x3cdc2e9d	0.026877696
1	0x3d99831f	0.074957125
2	0x3e31548c	0.17317408
3	0x3dc5f5dc	0.096660346
4	0xbd806689	-0.06269557
5	0x3e382e98	0.17986524
6	0x3d803258	0.06259602
7	0x3d0b96c2	0.03407932
8	0x3cb62f1e	0.022239264
9	0xbcefe95a	-0.029286075
10	0xbebd2c08	-0.36947656
11	0x3cf6111c	0.030037455
12	0xbd767f19	-0.060179804
13	0xbe3f5b67	-0.18687211
14	0x3cdce59f	0.02696496
15	0xbcdac2c0	-0.026704192
16	0x3d0b5a9c	0.03402196
17	0x3e140151	0.14453627
18	0xbf2963ce	-0.66167915
19	0x3edead91	0.43491796
20	0xbc017010	-0.007900253
21	0x3d82f906	0.06395154
22	0x3cd7aba2	0.026326958
23	0xbde158b9	-0.11003251
24	0x3d959a21	0.073047884
25	0xbe934d5a	-0.28769952
26	0x3e21b6db	0.1579241
27	0xbd414e2d	-0.047193695
28	0x3dbc4937	0.09193652
29	0xbefa7b32	-0.48922116
30	0x3dda3894	0.10655323
31	0x3d81533d	0.063147046
32	0xba428705	-0.0007420632
33	0xbd05ab4e	-0.032634072
34	0x3dbcf6fc	0.09226796
35	0xbebc224f	-0.36744925
36	0x3cc66483	0.02421785
37	0xbeaba309	-0.33522823
38	0xbd055fcd	-0.032562066
39	0x3e001d2a	0.12511125
40	0x3d2ef136	0.042710505
41	0xbd9023cc	-0.07038078
42	0xbdcc472e	-0.09974514
43	0x3d4d820c	0.05017285
44	0xbe031c6a	-0.12803808
45	0xbdfd5bbe	-0.12371014
46	0xbe614684	-0.21999556
47	0x3d09d3ac	0.03364913
48	0x3c8a95a0	0.01691705
49	0xbd9ab306	-0.07553677
50	0x3e38ab28	0.18034041
51	0xbe84b400	-0.2591858
52	0x3d6a89c1	0.05726028
53	0x3d3396be	0.04384493
54	0xbd3f2189	-0.04666284
55	0xbd57c407	-0.05267718
56	0x3c0fbfb7	0.008773736
57	0xbd3e536b	-0.046466272
58	0x3d8002af	0.06250512
59	0x3d9e8658	0.07740468
60	0x3d0da9c4	0.03458573
61	0xbb42b852	-0.0029711914
62	0x3db5b926	0.08873205
63	0x3e1455c1	0.14485838
64	0x3dbb1238	0.09134334
65	0x3c5d0bea	0.01349161
66	0x3a5a88d4	0.0008336429
67	0x3d5b4857	0.053535786
68	0xbe49e105	-0.19714744
69	0x3d9de1be	0.077090725
70	0xbe07744d	-0.13227959
71	0xbdd35e62	-0.103207365
72	0x3d0413f2	0.032245584
73	0xbd4868db	-0.048928123
74	0x3e565e10	0.2093432
75	0x3cbd116d	0.023079598
76	0xbe93ae9d	-0.28844157
77	0xbe8d409b	-0.27588353
78	0x3d77875a	0.060431816
79	0xbd94d36f	-0.0726689
80	0xbd6fd192	-0.05854947
81	0xbcd0ccfb	-0.025488367
82	0x3ddcddd2	0.10784496
83	0xbec6f5be	-0.3885936
84	0xbea3e7f0	-0.32012892
85	0x3d3769fc	0.04477881
86	0xbedfd508	-0.43717217
87	0xbca30448	-0.019899502
88	0x3da0722f	0.07834279
89	0xbd71d515	-0.0590411
90	0xbd8c3987	-0.0684691
91	0x3cdac810	0.026706725
92	0xbf157144	-0.58375955
93	0x3e2eed7d	0.17082782
94	0x3e88b655	0.26701608
95	0x3d55830a	0.05212692
96	0x3dabb313	0.08383765
97	0xbd853520	-0.065042734
98	0xba489f6d	-0.0007653151
99	0xbda1bbb8	-0.07897133
100	0xbdc61e54	-0.096737534
101	0xbc87b492	-0.016565595
102	0xbee82bfd	-0.4534606
103	0x3de8b271	0.1136216
104	0xbee254d1	-0.44205335
105	0xbec9cbe4	-0.3941337
106	0x3d78536b	0.06062643
107	0x3da86e38	0.082241476
108	0xbcd7352c	-0.026270472
109	0x3d23d7d2	0.040000744
110	0xba6b9ff2	-0.0008988372
111	0x3e584257	0.21119057
112	0x3d98f8bb	0.074693166
113	0xbe512dee	-0.20427677
114	0xbd806129	-0.06268532
115	0x3c87d16c	0.016579352
116	0xbcfe6f81	-0.031059029
117	0xbed94ceb	-0.42441496
118	0x3da94928	0.082659066
119	0xbe50eba2	-0.20402387
120	0x3d84206d	0.06451497
121	0x3e04c9a0	0.12967539
122	0xbedd8e6c	-0.43272722
123	0xbee6c8fc	-0.45075214
124	0x3d744bf2	0.05964274
125	0x3dc1bd36	0.09459917
126	0xbd4e030b	-0.05029587
127	0x3d20fee5	0.039305586
128	0x3cc7df17	0.02439837
129	0xbef92586	-0.4866144
130	0xbe0956b3	-0.1341198
131	0x3c20ce70	0.009814844
132	0xbda26e6e	-0.07931219
133	0x3d8d8ce2	0.06911637
134	0xbd11df93	-0.035613608
135	0x3d86c031	0.06579626
136	0x3d3da405	0.046299
137	0xbf00d56c	-0.50325656
138	0xbec4ea3d	-0.3845996
139	0x3d962e2e	0.07333027
140	0xbdaca05a	-0.08429022
141	0x3c839950	0.016064316
142	0x3db731df	0.08945059
143	0x3d320ccd	0.04346924
144	0x3e231724	0.15926796
145	0xbe6721e8	-0.22571528
146	0xbf08ae90	-0.5339136
147	0x3e6772ac	0.22602338
148	0x3c23ad66	0.009990072
149	0xbd37e30d	-0.044894267
150	0xbe0b2cf8	-0.13591373
151	0xbd3ce42c	-0.04611604
152	0xbc8e1658	-0.017344639
153	0xbf1cfd05	-0.6132358
154	0xbdc04cda	-0.09389658
155	0xbd5c49f7	-0.053781476
156	0xbde3aefe	-0.111173615
157	0x3d87da65	0.06633452
158	0x3de692e6	0.112584874
159	0x3d73d2d3	0.05952723
160	0xbf168cde	-0.58808696
161	0x3a36e5d2	0.0006976995
162	0x3dc7a11e	0.097475275
163	0x3e8b5f2a	0.27221042
164	0x3dda0f27	0.10647421
165	0x3d67c56c	0.05658476
166	0xbee9f9b6	-0.45698327
167	0x3ca0ac03	0.019613272
168	0xbf279c30	-0.654727
169	0x3abf5cf2	0.0014599843
170	0xbe9c2038	-0.3049333
171	0xba322547	-0.0006795716
172	0xbefdf033	-0.4959732
173	0x3d08cadb	0.033396583
174	0xbd96dd5d	-0.073664404
175	0xbbc0b16f	-0.0058805267
176	0x3e010005	0.12597664
177	0x3d5ab189	0.053391967
178	0xbc29cdc6	-0.010364002
179	0x3d80751d	0.062723376
180	0x3d3c3cba	0.04595635
181	0xbeca967e	-0.3956794
182	0xbcadc438	-0.021211728
183	0x3dbb6c38	0.091515005
184	0xbf0104db	-0.50398034
185	0xbd485e9e	-0.04891836
186	0xbcb8098c	-0.02246549
187	0x3dc20a5d	0.09474633
188	0x3db6428d	0.08899412
189	0x3d6aafe6	0.057296656
190	0x3d31ba06	0.043390296
191	0xbc3900e9	-0.011291721
192	0x3ccab7e5	0.02474589
193	0xbe0456fc	-0.12923807
194	0x3e52d793	0.20590048
195	0xbdb1d243	-0.08682682
196	0xbda51b4b	-0.08061846
197	0xbdbfbead	-0.093625404
198	0x3da4ea80	0.0805254
199	0x3e2c65b8	0.16835678
200	0x3d8edbbb	0.06975504
201	0xbd91ce16	-0.07119386
202	0x3e3e8fb0	0.186095
203	0x3f139f52	0.5766498
204	0x3e6f0221	0.23340656
205	0xbe7ae2e0	-0.24500608
206	0xbd8cbe9a	-0.06872292
207	0xbcbbfb84	-0.02294708
208	0xbc42acc9	-0.0118820155
209	0xbd527ac9	-0.05138663
210	0x3d4be0af	0.04977482
211	0xbc8dd26a	-0.017312247
212	0x3cf9148a	0.030405302
213	0x3c8b3818	0.016994521
214	0xbda57442	-0.08078815
215	0xbd8af8c9	-0.06785733
216	0xbdc7b1b4	-0.09750691
217	0x3c321df9	0.010871404
218	0xbe075b12	-0.13218334
219	0xbd6c3d8d	-0.057675887
220	0x3ba726e0	0.00510107
221	0x3ec0f414	0.37686217
222	0xbcce83ec	-0.02520939
223	0x3db68b49	0.08913285
224	0x39738a00	0.00023225695
225	0xbd693c02	-0.056941994
226	0xbd182e77	-0.037153687
227	0xbc5bedbe	-0.013423381
228	0xbc0bca5d	-0.008532134
229	0xbd691b78	-0.056910962
230	0x3df115cd	0.11771736
231	0x3d02111a	0.03175459
232	0x3cd8d58a	0.02646901
233	0x3dc716ac	0.09721121
234	0x3dd1efc8	0.10250813
235	0xbd4f5b75	-0.05062433
236	0xbd905f9e	-0.070494875
237	0xbdb3c457	-0.08777683
238	0x3eae8787	0.34087774
239	0x3f488c24	0.7833884
240	0xbe72a111	-0.23694254
241	0xbdb53b32	-0.08849181
242	0xbdaab59b	-0.0833542
243	0xbb7c08cd	-0.0038457394
244	0xbe1a2e7c	-0.15056795
245	0x3e020bb4	0.12699777
246	0xbd8fa17f	-0.07013225
247	0x3db0410c	0.08606157
248	0xbc9c4c02	-0.019079212
249	0x3dd0c016	0.101928875
250	0xbe4878a8	-0.19577277
251	0x3e880dcb	0.26573023
252	0x3b805c95	0.0039172866
253	0xbd13774d	-0.036002446
254	0x3ac2140e	0.0014807002
255	0x3dd3168e	0.10307036

linear_last.bias f4 [5]
0	0x3c557b2f	0.013029858
1	0xbc25df3a	-0.010124022
2	0xbe178dd7	-0.14800201
3	0x3d22091e	0.039559476
4	0x3dba45aa	0.090953186
