trained_models/cnn_100_200_[100]_7_[3]_Retention Purpose_zeros_60-20-20_polisis_attr_state.pt (torch_old, 594626 bytes, 7 tensors)

embedding.weight f4 [673, 100]
000000 00 00 00 00 00 00 00 00 00 00 00 00 00 00 00 00
       0.0 0.0 0.0 0.0
000010 00 00 00 00 00 00 00 00 00 00 00 00 00 00 00 00
       0.0 0.0 0.0 0.0
000020 00 00 00 00 00 00 00 00 00 00 00 00 00 00 00 00
       0.0 0.0 0.0 0.0
000030 00 00 00 00 00 00 00 00 00 00 00 00 00 00 00 00
       0.0 0.0 0.0 0.0
000040 00 00 00 00 00 00 00 00 00 00 00 00 00 00 00 00
       0.0 0.0 0.0 0.0
000050 00 00 00 00 00 00 00 00 00 00 00 00 00 00 00 00
       0.0 0.0 0.0 0.0
000060 00 00 00 00 00 00 00 00 00 00 00 00 00 00 00 00
       0.0 0.0 0.0 0.0
000070 00 00 00 00 00 00 00 00 00 00 00 00 00 00 00 00
       0.0 0.0 0.0 0.0
000080 00 00 00 00 00 00 00 00 00 00 00 00 00 00 00 00
       0.0 0.0 0.0 0.0
000090 00 00 00 00 00 00 00 00 00 00 00 00 00 00 00 00
       0.0 0.0 0.0 0.0
0000a0 00 00 00 00 00 00 00 00 00 00 00 00 00 00 00 00
       0.0 0.0 0.0 0.0
0000b0 00 00 00 00 00 00 00 00 00 00 00 00 00 00 00 00
       0.0 0.0 0.0 0.0
0000c0 00 00 00 00 00 00 00 00 00 00 00 00 00 00 00 00
       0.0 0.0 0.0 0.0
0000d0 00 00 00 00 00 00 00 00 00 00 00 00 00 00 00 00
       0.0 0.0 0.0 0.0
0000e0 00 00 00 00 00 00 00 00 00 00 00 00 00 00 00 00
       0.0 0.0 0.0 0.0
0000f0 00 00 00 00 00 00 00 00 00 00 00 00 00 00 00 00
       0.0 0.0 0.0 0.0
000100 00 00 00 00 00 00 00 00 00 00 00 00 00 00 00 00
       0.0 0.0 0.0 0.0
000110 00 00 00 00 00 00 00 00 00 00 00 00 00 00 00 00
       0.0 0.0 0.0 0.0
000120 00 00 00 00 00 00 00 00 00 00 00 00 00 00 00 00
       0.0 0.0 0.0 0.0
000130 00 00 00 00 00 00 00 00 00 00 00 00 00 00 00 00
       0.0 0.0 0.0 0.0
000140 00 00 00 00 00 00 00 00 00 00 00 00 00 00 00 00
       0.0 0.0 0.0 0.0
000150 00 00 00 00 00 00 00 00 00 00 00 00 00 00 00 00
       0.0 0.0 0.0 0.0
000160 00 00 00 00 00 00 00 00 00 00 00 00 00 00 00 00
       0.0 0.0 0.0 0.0
000170 00 00 00 00 00 00 00 00 00 00 00 00 00 00 00 00
       0.0 0.0 0.0 0.0
000180 00 00 00 00 00 00 00 00 00 00 00 00 00 00 00 00
       0.0 0.0 0.0 0.0
000190 00 00 00 00 00 00 00 00 00 00 00 00 00 00 00 00
       0.0 0.0 0.0 0.0
0001a0 00 00 00 00 00 00 00 00 00 00 00 00 00 00 00 00
       0.0 0.0 0.0 0.0
0001b0 00 00 00 00 00 00 00 00 00 00 00 00 00 00 00 00
       0.0 0.0 0.0 0.0
0001c0 00 00 00 00 00 00 00 00 00 00 00 00 00 00 00 00
       0.0 0.0 0.0 0.0
0001d0 00 00 00 00 00 00 00 00 00 00 00 00 00 00 00 00
       0.0 0.0 0.0 0.0
0001e0 00 00 00 00 00 00 00 00 00 00 00 00 00 00 00 00
       0.0 0.0 0.0 0.0
0001f0 00 00 00 00 00 00 00 00 00 00 00 00 00 00 00 00
       0.0 0.0 0.0 0.0
000200 00 00 00 00 00 00 00 00 00 00 00 00 00 00 00 00
       0.0 0.0 0.0 0.0
000210 00 00 00 00 00 00 00 00 00 00 00 00 00 00 00 00
       0.0 0.0 0.0 0.0
000220 00 00 00 00 00 00 00 00 00 00 00 00 00 00 00 00
       0.0 0.0 0.0 0.0
000230 00 00 00 00 00 00 00 00 00 00 00 00 00 00 00 00
       0.0 0.0 0.0 0.0
000240 00 00 00 00 00 00 00 00 00 00 00 00 00 00 00 00
       0.0 0.0 0.0 0.0
000250 00 00 00 00 00 00 00 00 00 00 00 00 00 00 00 00
       0.0 0.0 0.0 0.0
000260 00 00 00 00 00 00 00 00 00 00 00 00 00 00 00 00
       0.0 0.0 0.0 0.0
000270 00 00 00 00 00 00 00 00 00 00 00 00 00 00 00 00
       0.0 0.0 0.0 0.0
000280 00 00 00 00 00 00 00 00 00 00 00 00 00 00 00 00
       0.0 0.0 0.0 0.0
000290 00 00 00 00 00 00 00 00 00 00 00 00 00 00 00 00
       0.0 0.0 0.0 0.0
0002a0 00 00 00 00 00 00 00 00 00 00 00 00 00 00 00 00
       0.0 0.0 0.0 0.0
0002b0 00 00 00 00 00 00 00 00 00 00 00 00 00 00 00 00
       0.0 0.0 0.0 0.0
0002c0 00 00 00 00 00 00 00 00 00 00 00 00 00 00 00 00
       0.0 0.0 0.0 0.0
0002d0 00 00 00 00 00 00 00 00 00 00 00 00 00 00 00 00
       0.0 0.0 0.0 0.0
0002e0 00 00 00 00 00 00 00 00 00 00 00 00 00 00 00 00
       0.0 0.0 0.0 0.0
0002f0 00 00 00 00 00 00 00 00 00 00 00 00 00 00 00 00
       0.0 0.0 0.0 0.0
000300 00 00 00 00 00 00 00 00 00 00 00 00 00 00 00 00
       0.0 0.0 0.0 0.0
000310 00 00 00 00 00 00 00 00 00 00 00 00 00 00 00 00
       0.0 0.0 0.0 0.0
000320 00 00 00 00 00 00 00 00 00 00 00 00 00 00 00 00
       0.0 0.0 0.0 0.0
000330 00 00 00 00 00 00 00 00 00 00 00 00 00 00 00 00
       0.0 0.0 0.0 0.0
000340 00 00 00 00 00 00 00 00 00 00 00 00 00 00 00 00
       0.0 0.0 0.0 0.0
000350 00 00 00 00 00 00 00 00 00 00 00 00 00 00 00 00
       0.0 0.0 0.0 0.0
000360 00 00 00 00 00 00 00 00 00 00 00 00 00 00 00 00
       0.0 0.0 0.0 0.0
000370 00 00 00 00 00 00 00 00 00 00 00 00 00 00 00 00
       0.0 0.0 0.0 0.0
000380 00 00 00 00 00 00 00 00 00 00 00 00 00 00 00 00
       0.0 0.0 0.0 0.0
000390 00 00 00 00 00 00 00 00 00 00 00 00 00 00 00 00
       0.0 0.0 0.0 0.0
0003a0 00 00 00 00 00 00 00 00 00 00 00 00 00 00 00 00
       0.0 0.0 0.0 0.0
0003b0 00 00 00 00 00 00 00 00 00 00 00 00 00 00 00 00
       0.0 0.0 0.0 0.0
0003c0 00 00 00 00 00 00 00 00 00 00 00 00 00 00 00 00
       0.0 0.0 0.0 0.0
0003d0 00 00 00 00 00 00 00 00 00 00 00 00 00 00 00 00
       0.0 0.0 0.0 0.0
0003e0 00 00 00 00 00 00 00 00 00 00 00 00 00 00 00 00
       0.0 0.0 0.0 0.0
0003f0 00 00 00 00 00 00 00 00 00 00 00 00 00 00 00 00
       0.0 0.0 0.0 0.0

convolutions.0.weight f4 [200, 1, 3, 100]
000000 08 f8 9d bd 87 89 07 3e 1f ed 17 3e a4 bf 0e bd
       -0.07713324 0.13236056 0.14836548 -0.03485073
000010 da ee cf 3d ea d8 4d be 57 cc a7 bd 33 35 3c bd
       0.10152979 -0.20102277 -0.081932716 -0.045949172
000020 d0 a2 ea 3d 73 92 a4 3d 45 81 aa 3d 0d f1 c5 bd
       0.11456835 0.080357455 0.083254375 -0.096651174
000030 0e 89 32 be 9f 9c 7f 3d 6b e5 ce 3d 05 d3 d4 bc
       -0.17435095 0.062405225 0.10102352 -0.025979528
000040 bc 09 0a 3e 5b 35 68 bd da 89 c0 3c c3 88 30 bd
       0.13480276 -0.05669151 0.023503233 -0.043099176
000050 48 4f 50 3e b9 e6 03 3e 30 75 ce 3d e9 15 3a be
       0.20342743 0.12880982 0.100809455 -0.1817242
000060 f0 3a 11 be 96 3d d7 bd 8e 3e 9d 3d b6 0b e5 3d
       -0.14182639 -0.105097935 0.07677947 0.11183874
000070 36 32 18 be f9 d1 97 3d b7 2d 0e bd 27 5c 0d bd
       -0.14862904 0.07413096 -0.034711566 -0.03451171
000080 54 68 e4 bd 56 e1 a5 bc 3c d8 99 3d 06 9a ff 3c
       -0.111527115 -0.02024905 0.075119466 0.031201374
000090 12 48 d5 bd 3f bc 4a 3e 72 1e 41 be 91 fd fc bc
       -0.10414137 0.19798373 -0.1885927 -0.030882629
0000a0 f9 d7 fa 3d 6c b3 29 3e 3e fd e8 bb 3a 82 0e be
       0.12248225 0.1657235 -0.007110267 -0.13916865
0000b0 cd bc d0 bd 0e d0 92 3c c9 2d 95 3c df 51 53 3e
       -0.10192261 0.017921474 0.018210309 0.206367
0000c0 53 53 fc bc 2d 0b 2e 3d c4 3c e6 bb f1 f7 0b 3e
       -0.03080145 0.042491127 -0.007026287 0.13668801
0000d0 79 da a1 3d aa 1e ad 3c 73 9e 5b 3e a4 71 e8 bc
       0.079029985 0.021132786 0.21447162 -0.0283745
0000e0 81 50 76 3c ba b8 40 3e 20 cf f2 bb ec 9a 37 3e
       0.015033842 0.18820468 -0.007409945 0.17930192
0000f0 6d ab 3e 3e 3a 40 d3 3d a2 19 d9 3c 67 42 40 be
       0.18620081 0.103149846 0.02650148 -0.1877533
000100 b0 cd 1e 39 1e 41 cf 3d b2 d8 0a be 6c cb 90 bd
       0.00015144679 0.10119842 -0.13559225 -0.0707005
000110 03 10 36 3d 8d 88 af 3d 60 48 ff 3d 70 e6 5d bc
       0.044448864 0.08570967 0.12464976 -0.01354371
000120 fb 49 01 3e ae 44 1c bd 7d 24 8a bd 52 9f 05 be
       0.12625878 -0.038151436 -0.06745241 -0.13049057
000130 27 61 90 bb f7 5b 8e bc b7 00 31 3e e0 11 76 3e
       -0.0044061127 -0.017377837 0.17285429 0.24030256
000140 39 a2 2f be 9e 72 f0 bd c5 f8 0f be b3 e4 1a 3e
       -0.17151727 -0.117406115 -0.14059742 0.15126304
000150 2b 78 09 bd 41 f5 29 3e 61 56 cd bd 22 97 23 3b
       -0.033561867 0.16597463 -0.10026241 0.0024961908
000160 14 d5 83 3d 2f 88 af bc 54 7e 6b bd cd ab 4c 3c
       0.06437126 -0.021427242 -0.057493523 0.012492132
000170 a4 fb a8 bd 17 4e 1f bc 55 96 36 be 91 bb fa 3d
       -0.08251122 -0.009723208 -0.17830785 0.12242807
000180 1d 80 de bb 1e b3 e1 bc 57 31 d5 3d e9 9a 2f be
       -0.0067901746 -0.02755123 0.104098015 -0.17148937
000190 b7 5d 1d ba 3f 61 b4 bd 77 cc 86 3d 48 1c 17 be
       -0.00060030393 -0.08807611 0.06581967 -0.14756882
0001a0 de 8e d6 bc 4a b9 0a 3b 5b 60 9b 3c 3b 9e ea bd
       -0.026191171 0.002116757 0.018966844 -0.11455961
0001b0 0a 48 fd 3d b0 45 dc 3d 7e fa e8 3b cd b8 76 3d
       0.12367256 0.10755479 0.007109939 0.060234834
0001c0 2f 44 fb 3d cd e0 69 bb 84 ad 50 3d 3a 8f 90 3d
       0.12268864 -0.003568697 0.050946727 0.07058568
0001d0 e3 53 6f 3d 50 e6 8f 3d 3c 38 fe bc cf 50 79 3d
       0.05842961 0.070263505 -0.031032674 0.06086808
0001e0 5f 4d b6 bc 96 9b c2 bc 04 c3 89 bc fa de a2 3d
       -0.02225369 -0.02375583 -0.016816624 0.07952686
0001f0 64 a4 9f bd fa 49 83 bc fe 6b f8 3d 5e 93 bf 3d
       -0.07795027 -0.016026486 0.12129973 0.0935428
000200 b2 17 59 bd 89 a1 00 bd 0a 10 dd bd f6 9a 5e 3c
       -0.053001113 -0.031404052 -0.10794075 0.01358675
000210 46 80 59 3b 11 61 ac bc 4b 14 10 bd f6 57 5e bd
       0.003318803 -0.021042379 -0.035175603 -0.054283105
000220 51 9d 6c 3b 4e 94 a8 3c 16 19 00 3e d3 16 15 3e
       0.003610451 0.02057853 0.1250957 0.14559488
000230 7f 34 9a 3b aa 06 44 3d 1c c0 c4 3d 4e 8d 96 3d
       0.004705965 0.047857918 0.096069545 0.073511705
000240 3d 41 80 3d 68 6e 24 be 93 5f 0a 3d d0 62 9b 3d
       0.06262443 -0.16057742 0.033782553 0.07587206
000250 bb 46 a5 bd 07 1e 2a 3d b8 d3 91 bd 2b c1 10 bd
       -0.080701314 0.041532543 -0.0712046 -0.03534047
000260 9d 96 75 bd cc 92 d9 3c 7f 8e 8a 3d d4 ee 73 bd
       -0.05995809 0.026559256 0.0676546 -0.059553936
000270 cb 3c 02 bd d2 69 f7 3d d7 f0 38 be ed 1f 8e bd
       -0.031796258 0.120807305 -0.18060623 -0.06939683
000280 10 62 7c bc 50 f5 ea bd ca 04 c3 bd c4 3e d9 3d
       -0.015404239 -0.11472571 -0.09522398 0.10607675
000290 05 3c 63 bd 3e 6b d1 3d d7 76 c3 3d 90 46 48 3d
       -0.05547716 0.10225533 0.09544151 0.04889542
0002a0 0b 54 27 3d 32 0c db 3d 7d bc 01 be e7 e5 de bd
       0.040851634 0.106956854 -0.12669559 -0.10883694
0002b0 cc d0 c8 3d 8a f3 96 3d 47 49 f7 3d e5 0c 0a bd
       0.0980545 0.0737067 0.120745234 -0.033703703
0002c0 9b 86 02 3d a0 1e 9f 3d 8f a0 43 3e a2 54 ed bb
       0.03186665 0.07769513 0.19104217 -0.007242755
0002d0 2a ff 02 3d 39 82 5c 3d 73 12 7a 39 bb 0b 07 3d
       0.031981625 0.053835128 0.00023848731 0.03297017
0002e0 f0 61 9e 3d 1d 56 b4 bd 2b 65 b9 bd 1d 92 17 bd
       0.07733524 -0.08805487 -0.090524994 -0.03700458
0002f0 36 e0 e1 3c 13 43 a6 3d c2 da 1c 3d 71 07 84 3b
       0.027572732 0.08118262 0.03829456 0.0040292074
000300 55 b6 11 3e da 4b 00 be d5 55 ec bd b2 ea 12 3d
       0.1422971 -0.12528935 -0.11539809 0.035868354
000310 f4 63 b1 bd 7a 25 b1 bd 10 36 c6 bb cc 24 cd b8
       -0.08661643 -0.08649726 -0.006048925 -9.782016e-05
000320 3a 3d 2f bd ab ff 76 bd 46 39 19 3e 77 be d7 bd
       -0.042783 -0.060302418 0.14963254 -0.10534375
000330 09 89 36 3e e1 76 45 be ee 63 dc 3d 0d ba 93 3d
       0.17825712 -0.1928363 0.107612476 0.07213221
000340 d6 2d 04 be d5 a2 08 be 27 be 13 3d 94 be 73 3e
       -0.1290811 -0.13343365 0.036070015 0.23803169
000350 16 94 0c 3d f0 65 3c bc 50 f8 54 3e a5 be 71 3d
       0.034320913 -0.011498913 0.20797849 0.059019703
000360 41 70 e4 bd 14 8d 36 3b 6d 00 86 3e 42 a4 5e 3c
       -0.11154223 0.0027855085 0.261722 0.013588967
000370 f6 26 97 3d a6 e3 88 3d 79 40 5d 3d c8 06 20 be
       0.07380478 0.066840455 0.054016564 -0.15627587
000380 44 1e d4 3d 82 73 ea bd f6 90 87 bd 1c e2 84 3d
       0.10357335 -0.114478126 -0.06619446 0.064884394
000390 5c 1a 61 ba 9b 01 36 3d 94 e0 b2 3c ea 8a af 3d
       -0.00085869967 0.044435125 0.021835603 0.08571418
0003a0 a5 ba 92 bd ff 91 0c 3d 5f 93 2f 3e 5c 4f 4b 3d
       -0.07164506 0.03431892 0.17146061 0.04963623
0003b0 e8 2c 59 bd a6 73 6b bd 8c 62 46 3d d2 0a 4e 3d
       -0.05302134 -0.057483338 0.048433825 0.050303288
0003c0 99 79 35 3e 91 0e d6 bd e3 95 89 bd 0b b6 3c 3d
       0.17722167 -0.10451997 -0.06718042 0.046072047
0003d0 8b 93 89 3d 72 12 c8 bd 8a b3 d2 bd 11 c5 1d be
       0.06717595 -0.09769143 -0.102881506 -0.15407206
0003e0 23 ba 0a 3e 23 93 cb bd 52 cd d2 bd d7 7c ca bd
       0.13547568 -0.099401735 -0.10293068 -0.098870926
0003f0 da df 94 3c b4 29 fd 3c 25 89 68 bd 3d 7d 50 3d
       0.018173147 0.030903675 -0.056771416 0.050900687

convolutions.0.bias f4 [200]
000000 de 3e 09 bd fd 0e 17 bd 3f 69 a1 bc ec 6e 91 3c
       -0.03350722 -0.03687953 -0.019703506 0.017753087
000010 ba 48 0d bd 9b 9a 0c 3d 65 d2 5d bd cc 0d 6b 3d
       -0.034493186 0.03432713 -0.054155726 0.057386205
000020 b8 18 21 3c f7 d4 42 3a ff b8 81 bb 17 e0 0e 3d
       0.009832554 0.0007432247 -0.003958821 0.034881677
000030 32 c0 f8 b9 0e 7a 1b bd 05 38 0d 3d f6 cc af bc
       -0.00047445443 -0.037958197 0.034477253 -0.021460038
000040 93 d6 c5 bc aa 1b 94 3b ad 1f 5b bd b6 e1 69 ba
       -0.024150169 0.0045198994 -0.053497005 -0.0008921878
000050 ab c9 62 3d 44 03 1a 3d a3 cd 8e 3c c4 41 8c 38
       0.055368107 0.03760077 0.01743204 6.68797e-05
000060 6f 28 b8 bb 7f f1 e7 3c c1 29 16 bd 25 34 12 bd
       -0.0056200544 0.028313396 -0.036660913 -0.03569426
000070 3c 16 3f 3c a8 56 03 bd 4e 98 fd 3b 66 e1 a7 bd
       0.011663016 -0.032065064 0.0077391034 -0.08197288
000080 e5 52 4c bd d1 b1 08 3d b3 74 9d 3c b3 82 24 bd
       -0.049883742 0.033372704 0.019220686 -0.040163707
000090 d4 24 a1 bb ba fb 87 bd 26 67 16 bc d4 dd ad bb
       -0.0049177203 -0.0663981 -0.009179866 -0.005305985
0000a0 79 c3 ba b9 ab b1 c9 bb 86 0c 71 3c 58 f6 f9 bb
       -0.00035622323 -0.006155213 0.0147124585 -0.0076282434
0000b0 44 2d 37 3c c0 11 3b 3a 62 41 a0 39 27 29 3f bb
       0.011180226 0.0007136129 0.00030566292 -0.0029168816
0000c0 06 b1 2b 3c b0 fc 8e 3d 25 51 8f 3c 39 51 5d bc
       0.010479217 0.0698179 0.017494747 -0.0135081345
0000d0 5d 3f 91 3c 71 f5 79 3c 12 f8 62 bd 74 85 ba 3b
       0.01773041 0.015256272 -0.05541236 0.0056921784
0000e0 d2 44 90 bd a8 a6 50 3c 6a db 14 bd e1 6e 2e bb
       -0.070443764 0.012735046 -0.036342062 -0.0026616382
0000f0 ef 69 85 3c 43 4c 57 bb a1 18 ab bd 2b 56 97 3c
       0.016285865 -0.0032851852 -0.08354307 0.018473705
000100 9c 1e 87 ba 91 7f 34 3a 51 8c bc bc 47 1c 07 bd
       -0.0010308805 0.0006885464 -0.023016127 -0.03298595
000110 7c 45 ac bc 44 93 a7 bb d4 c8 92 3b bb 2b 85 3c
       -0.021029226 -0.005113991 0.004479507 0.016256204
000120 8d 79 a3 3b 93 55 45 bb ff c7 2f bc 12 18 b8 39
       0.004988855 -0.003011082 -0.010728835 0.0003511315
000130 d9 be c4 3b 52 74 2e 3d d7 c3 c4 bb e7 67 c9 3c
       0.006004196 0.0425914 -0.0060047912 0.024585677
000140 c2 9a 56 3d fc 20 cc 3c c0 81 a7 3c f1 83 3a 3d
       0.052393682 0.024918072 0.020447612 0.045535985
000150 96 ec ef 3b e3 8b 4e bd cc 28 85 bb bc 88 f7 bc
       0.0073219044 -0.050426375 -0.0040637013 -0.030216567
000160 cc a4 d3 3c 0e 7a ac bd d9 45 17 b9 c1 00 47 bc
       0.025835417 -0.084217176 -0.00014426502 -0.012146176
000170 95 b2 e3 bc dc b9 f5 3b da 83 f3 3b 44 7e f6 3c
       -0.027795115 0.007498963 0.0074314894 0.030089505
000180 14 c1 c5 3c 5c 9f 94 3b a0 8d 29 39 5b ac 00 bc
       0.024139918 0.0045355987 0.00016169855 -0.007853593
000190 de 5f 18 bd f3 29 5a bc 11 7f 7c bc 76 5a 99 3b
       -0.0372008 -0.013315666 -0.015411154 0.0046799732
0001a0 3c 96 26 3d 1b 2c 15 ba e7 1f 89 bc 6e 8b 6d 3c
       0.04067062 -0.0005690471 -0.016738845 0.014498575
0001b0 fc 1a 9e bb a5 8b 9a bc 82 85 05 bc 42 8f 5f bb
       -0.004824994 -0.018865416 -0.0081495065 -0.0034112488
0001c0 f7 20 c4 bc 7c 88 66 3a 32 96 e4 bb 18 55 e8 bb
       -0.0239415 0.00087941415 -0.0069759125 -0.007090222
0001d0 e1 18 10 bc b2 6a 19 bb b0 ca f9 ba 72 c5 e4 3a
       -0.008794994 -0.0023409543 -0.0019057598 0.0017453863
0001e0 16 ef 9b bd 8a ba af 3b 24 eb d4 bb e0 40 27 bd
       -0.076139614 0.0053628134 -0.0064977575 -0.040833354
0001f0 3a ab 3f bd 9f 18 33 3d a8 62 39 3b 9f f4 dd 3a
       -0.046794154 0.043724652 0.0028287563 0.0016933865
000200 3f 14 80 3b 60 3b 99 3a 77 e3 0a bd 45 fb fa bc
       0.0039086635 0.0011690669 -0.033908334 -0.030637393
000210 aa 2f 28 3d b6 7b c0 3c 5e 0d 8c bc 4b 14 4b bd
       0.04106108 0.02349649 -0.017096218 -0.0495799
000220 e5 54 51 bd 3e 6c 15 3a 93 fa 39 bd 0c 8e f9 bb
       -0.051106352 0.0005700028 -0.04540498 -0.0076158103
000230 2a 44 82 3b c6 eb a9 bc d7 1a 39 bd c6 41 4a bc
       0.003975411 -0.020742308 -0.045191612 -0.012344783
000240 74 98 92 b9 97 2f 05 3d 77 80 63 bd 35 72 29 bd
       -0.00027960876 0.03251609 -0.055542435 -0.041368682
000250 f0 5d e1 3b 46 1c 86 ba 9b 92 36 bc 65 8d c2 bc
       0.0068776533 -0.0010231815 -0.011143352 -0.023749063
000260 c4 bb d2 3c 0c 09 ef b9 a9 32 27 bb 75 e6 a6 bc
       0.0257243 -0.00045592373 -0.0025512374 -0.020373562
000270 6b da 65 3c 3d 07 96 bc 8d 35 80 3a 2d 73 86 bc
       0.014029126 -0.018313998 0.0009781584 -0.016412342
000280 a0 b5 8c 3c 76 0a 2e bd 71 0c 6a bd f0 18 e7 bc
       0.01717645 -0.042490445 -0.05714077 -0.028210133
000290 cd 05 ec 3b 08 76 8e ba dc 28 bb 3c 0f 7a 25 3d
       0.00720284 -0.0010868916 0.022846632 0.040399607
0002a0 73 f3 82 bb f4 4a 27 3c c5 d4 11 bd ed 82 35 bb
       -0.0039963066 0.010210741 -0.035603303 -0.0027696446
0002b0 cb 07 cf bc e6 82 27 ba 82 2c ee 3b 85 f7 a6 bd
       -0.02527227 -0.000639005 0.0072684893 -0.08152679
0002c0 35 7d 53 bd 3c f5 d9 bc d9 50 81 bd 49 bc a1 bb
       -0.05163308 -0.026606195 -0.063142486 -0.0049357754
0002d0 b7 98 a0 bb 87 ad 79 ba 5f 90 15 bd 1b df a8 bb
       -0.0049010175 -0.0009524454 -0.036514636 -0.0051535494
0002e0 c9 ec 06 bb 1c de 13 3c ea 8e 6d bd 06 a4 2a 38
       -0.0020587912 0.009025123 -0.05799762 4.0683917e-05
0002f0 12 f7 01 bd 11 1d d5 3b aa 7a d8 bc 3c 49 ee 3a
       -0.031729765 0.006503709 -0.026425678 0.0018179785
000300 be b9 43 bb 71 20 36 bd 72 fd 73 bc 96 d1 8b 3c
       -0.002986535 -0.044464532 -0.014891969 0.017067712
000310 5d c8 d8 3b 8c 8a 60 bc ff af 7c 3c 5e 48 d7 3b
       0.006615682 -0.013704907 0.01542282 0.006569906

linear_layers.0.weight f4 [100, 200]
000000 6b ac 1f 3e a4 29 10 3e 2a f9 f8 3d 1d 07 ce bd
       0.15593116 0.14078385 0.12156899 -0.100599505
000010 04 86 4b 3e 64 19 14 3e 99 3f a3 3d 99 69 c3 3d
       0.19875342 0.14462811 0.07971115 0.095416255
000020 72 24 24 3d f0 32 e5 bb 66 82 76 bd 4c 4c 13 bc
       0.04007382 -0.0069945976 -0.06018295 -0.008990359
000030 8d 6b 86 3c 00 45 04 3e 6d 92 54 bd 1e 6f ba bd
       0.016408706 0.12916946 -0.051897455 -0.09103225
000040 0e 9b ac bd 1d f8 e7 3c 5f 5e b3 3d 6a 60 83 3c
       -0.08428012 0.028316552 0.08758234 0.016037185
000050 25 bf 1f 3e 8a 98 b1 be ff 46 3b bd 7c e2 a4 3c
       0.1560026 -0.3468669 -0.045722004 0.020127527
000060 8b 78 16 bd 3b d8 22 3e f9 b3 bf bd fb be 41 3e
       -0.036736052 0.15902798 -0.09360499 0.1892051
000070 74 f9 53 bc c7 68 73 bd 84 d0 d5 bd 8e 6d 24 3b
       -0.012937892 -0.059426095 -0.10440162 0.0025089714
000080 28 bc 19 be 6d 6a c3 3c 81 dd 12 3e 8a d4 c8 3d
       -0.15013182 0.023854459 0.1434231 0.098061636
000090 7a 41 47 be c3 b0 4f 3c a5 13 30 be e2 f6 81 bc
       -0.19458571 0.012676421 -0.17194994 -0.015864793
0000a0 b6 a2 16 bd 6c 3c ed bd 9c 74 64 be 06 de 1c 3c
       -0.036776267 -0.1158379 -0.22310108 0.009574419
0000b0 07 b7 ee 3b a0 79 3b 3e 41 2b 19 3e 09 bb 17 bd
       0.007285002 0.18308115 0.14957906 -0.037043605
0000c0 5d 7d 2d 3e 27 4a e9 3d b3 86 7d bd fd 39 44 be
       0.16942354 0.113910966 -0.061896037 -0.19162746
0000d0 4c d5 29 bd 73 7a 7d 3d 39 00 af bd 8d 15 8a 3d
       -0.04146318 0.061884355 -0.08544964 0.06742392
0000e0 97 8b 83 3e 70 51 49 3d be e8 d0 3d e8 0f 5c 3d
       0.25692436 0.04914993 0.10200642 0.053726107
0000f0 11 5c 9a bd b7 35 33 3d 34 2e 19 3c 01 d3 ba bc
       -0.075370915 0.0437524 0.009349395 -0.022805693
000100 92 0c 71 bd 3c 72 3d be ea 4e 09 bd 3d 6c 4e 3e
       -0.05884988 -0.18500608 -0.033522524 0.20158477
000110 cc 7d 69 bd 73 05 dc bb bd 2e 20 3e 39 a3 c6 3c
       -0.057004735 -0.006714517 0.15642829 0.024247753
000120 86 57 23 3e 3f ba 34 bd d6 f5 32 3d f4 ca 03 3e
       0.15951356 -0.04412293 0.04369148 0.12870389
000130 f8 c4 18 be 50 5f 42 3d e0 98 30 3d d8 c0 08 be
       -0.14918888 0.04745418 0.043114543 -0.13354814
000140 0a 20 09 3e f4 3d db ba dc 8c 07 3e e9 84 fa bd
       0.13391128 -0.0016726837 0.13237327 -0.12232382
000150 1a b9 aa 3d 08 4e 9f 3d e9 13 03 be dc 47 7c bd
       0.083360866 0.07778555 -0.12800564 -0.061591968
000160 cb d5 90 3d 17 eb e2 3c fb 38 ab 3d fb f3 72 3e
       0.07072028 0.02769999 0.083604775 0.23725884
000170 c2 21 23 3e fd 8a cc 3c 7d 40 4c 3c ca d6 c8 3d
       0.15930846 0.024968619 0.012466547 0.09806593
000180 32 d9 cd bd e0 dd 37 be 30 c5 36 3e dd f6 22 3e
       -0.10051192 -0.17955732 0.17848659 0.15914483
000190 9c 4f 49 be be b1 09 be e9 5f 41 3d 43 2a 0c 3d
       -0.19659275 -0.1344671 0.047210608 0.03421999
0001a0 f6 12 a1 3d 20 09 98 bd d4 1b 51 3b 3e 1c 0f 3d
       0.07864945 -0.074236155 0.0031907456 0.034939043
0001b0 c8 fe 6d 3e 83 e0 1d 3c 89 b6 6f 3d c9 d6 69 3e
       0.23241723 0.009636047 0.05852369 0.2283584
0001c0 c0 a9 13 bd 30 60 60 3e 23 78 97 bd 0d 37 94 3d
       -0.036050558 0.21911693 -0.07395961 0.072370626
0001d0 cb 54 e5 3d b1 bb 20 bd f0 fc 82 bd 5d dd 18 3e
       0.111978136 -0.039241496 -0.063959 0.14928193
0001e0 20 d8 9c bc 17 1a 4c 3e 95 4e 3c be 6a 57 18 be
       -0.019146025 0.19931827 -0.18389352 -0.14877096
0001f0 f8 88 07 3e e5 a1 07 be 58 a5 e3 bd aa c0 30 3d
       0.13235843 -0.13245352 -0.11115521 0.04315249
000200 b9 8b 66 bd 9c fb 01 3e af 7d 8b bd d8 2d f8 3d
       -0.056285594 0.12693638 -0.068110816 0.12118119
000210 db 34 01 3d 1c 19 a6 bc 05 4f 4a bd 07 d2 8c 3c
       0.031544548 -0.020275645 -0.049391765 0.017189993
000220 53 b6 d4 3d da ad 34 bd 02 88 ea bc 1d d0 74 3d
       0.10386338 -0.04411111 -0.028629307 0.059768785
000230 63 5e 77 be 86 81 a0 3b 23 7b 16 bd a3 a8 ae 3c
       -0.241571 0.004898253 -0.036738526 0.021320647
000240 93 68 d6 bd 89 8e 0a 3e 45 66 12 bc 46 0a dc 3d
       -0.10469165 0.13530935 -0.008935516 0.10744147
000250 b2 d7 7d be 8a 4d 89 3e 76 96 82 3d 19 03 44 3e
       -0.24789312 0.2681697 0.063763544 0.19141807
000260 d0 c0 ea 3c 44 a7 f1 bc 24 58 df bd 61 10 42 3e
       0.028656393 -0.029498704 -0.10905483 0.1895156
000270 a1 66 81 3d 53 44 ee 3d d9 6f f9 3d c1 95 98 3d
       0.06318403 0.116341256 0.12179536 0.07450438
000280 f4 1e cc 3d d5 63 5c bd 56 7e a2 3c 40 68 9f 3d
       0.09966841 -0.053806145 0.019835632 0.07783556
000290 bc 37 4f bd d6 73 9f bd c2 3d a0 3d 91 24 a5 3c
       -0.05059026 -0.07785766 0.07824279 0.020159038
0002a0 27 99 87 3d b9 48 0a 3d aa 36 5b bd 14 1f e5 bd
       0.06621008 0.03376076 -0.05351893 -0.11187568
0002b0 13 9d 07 3e 4e f6 95 3d 7a ca 07 be 66 13 39 bd
       0.13243513 0.073223695 -0.13260832 -0.045184515
0002c0 dd 8e 5e be 03 ec c9 3c 13 d8 e0 3c ec 20 36 3d
       -0.21734186 0.024648672 0.027446782 0.04446499
0002d0 5b 3b 23 3d dd d4 24 3e 78 1b 9f 3a 2e ee d9 ba
       0.039851528 0.16096826 0.0012138924 -0.0016626769
0002e0 58 28 d3 bc 36 f1 23 3d 18 b4 40 3e 44 44 eb bd
       -0.025776073 0.04002496 0.188187 -0.1148763
0002f0 f6 6e 5a 3b c9 fe 10 3e 06 79 3e 3c 95 21 1c 3e
       0.0033330298 0.14159693 0.011625534 0.15247186
000300 f9 30 72 3d ca 0c 4f bd 14 25 5d bd ca c2 48 3e
       0.059128735 -0.050549306 -0.05399044 0.19605556
000310 9e 52 19 3e 06 58 50 bd f4 a9 7f bd 80 95 68 bd
       0.14972922 -0.050865196 -0.06241794 -0.0567832
000320 f7 af 8a bd fb 5c 61 bc 40 9f 32 3d 32 3f 05 3d
       -0.06771844 -0.013755078 0.043608904 0.03253097
000330 19 8d 51 3c 83 f0 6d 3d eb ca 3e bd 06 d5 56 bc
       0.012789988 0.058090698 -0.046580236 -0.013112312
000340 79 23 0e bd 55 44 4c bd 16 b3 fd 3c 79 72 81 bd
       -0.034701798 -0.049869854 0.030969184 -0.06320662
000350 f1 2c 1e bd 6b 0f a5 3c 44 6f 55 3d f1 f2 32 bd
       -0.03861708 0.020148953 0.052108064 -0.04368872
000360 f2 aa cb bc f9 3c 20 bd 7b f2 04 bd 32 e6 01 3d
       -0.024861787 -0.039120648 -0.03245781 0.031713672
000370 d0 67 0b bd db c6 59 bd 92 52 cf 3c d1 97 50 3d
       -0.03403455 -0.05316816 0.025307927 0.050926033
000380 a7 31 1e 3d 91 5f f3 bc a6 dc e5 3c 61 e6 79 bd
       0.03862157 -0.029708656 0.028059315 -0.061010722
000390 7a 49 10 bd 50 65 d3 3c ad 11 8a bd 9d ca 33 3d
       -0.035226323 0.025805146 -0.06741653 0.0438944
0003a0 67 c8 83 bd 59 47 a4 bc bc a2 38 3d 20 07 03 bd
       -0.06434708 -0.020053552 0.04507707 -0.031989217
0003b0 27 a9 7c 3d 42 02 b6 3c 91 a7 67 3d 7d 44 5e 3d
       0.061684754 0.022217873 0.05655629 0.054264534
0003c0 13 19 16 3d 13 8d 12 bd fe 9f 72 bd 37 63 2e bd
       0.036645006 -0.03577907 -0.05923461 -0.042575087
0003d0 b1 8a 17 3d 88 f2 37 ba 14 be 81 3c 10 ff 53 3b
       0.0369975 -0.0007017036 0.015837707 0.0032348074
0003e0 f9 0c 00 3d 81 bb 75 3d a0 c8 eb 3c 87 84 62 3b
       0.03126237 0.05999327 0.028782189 0.0034563856
0003f0 b2 d3 1d bd c5 fa 37 3d 39 27 e8 bc 7f 0b 0b 3d
       -0.038531967 0.044916887 -0.028339015 0.03394651

linear_layers.0.bias f4 [100]
000000 26 eb 4d 3c 74 03 28 bd 7e 9d aa bc e3 d1 9c 3d
       0.012568271 -0.04101892 -0.020827051 0.0765722
000010 c3 6e 7e 3d 12 97 7e 3d b6 09 1f 3c 2b c0 3b bc
       0.06211735 0.06215579 0.009706905 -0.011459391
000020 0f 78 c9 3d ea c0 6d 3d 29 3d 08 bd b8 53 f1 3c
       0.098373525 0.058045305 -0.033261452 0.029458866
000030 73 89 e0 3c db ba 01 3c 0d 73 e7 3c c0 be 37 3b
       0.02740929 0.007918085 0.028253103 0.002803728
000040 7b 8b 8f 3c 19 39 65 3d 28 a0 ac bd a5 c9 39 bd
       0.017522564 0.055962656 -0.08428985 -0.04535832
000050 a1 b9 41 3d 6b fb 7c 3c be 5a 5a 3c 7b 67 c2 bc
       0.04729617 0.015440802 0.013327299 -0.023730984
000060 34 67 4c bd 0d 30 89 bd dd e8 12 bd 86 64 d0 3c
       -0.04990311 -0.06698618 -0.035866607 0.025438558
000070 b5 eb b9 bc e9 d6 df 3b 1b 9b 7c bd d5 64 5a bd
       -0.022695402 0.006831039 -0.061671358 -0.053318817
000080 b5 e4 87 3d 7c f6 20 bc 4f cd 45 3d 49 e4 73 3d
       0.06635419 -0.009824391 0.0482915 0.05954388
000090 a4 84 1f bd af 0f 25 bd a7 24 f0 3d d1 54 82 bc
       -0.038944855 -0.04029816 0.11725741 -0.015909584
0000a0 0a 8a f2 3c 32 cb 34 bd 61 78 e4 bc 89 41 3e 3d
       0.029606838 -0.044139095 -0.027889432 0.046449218
0000b0 e3 d9 58 bd 17 db 74 3d 46 25 a6 3c 21 21 7a bd
       -0.052942168 0.059779253 0.020281445 -0.06106675
0000c0 ab 85 70 3d df 50 98 ba 5d c8 26 3c 69 1c d8 bc
       0.058721226 -0.0011620781 0.010179606 -0.026380735
0000d0 ac 85 b5 bb 86 c8 6f bd 88 85 37 bc b7 ae 51 bd
       -0.0055396166 -0.058540843 -0.01120127 -0.05119201
0000e0 85 77 10 3d ab 44 05 3d 9e 7d c5 3c 96 4d 32 3d
       0.035270233 0.03253619 0.02410775 0.043531023
0000f0 3b 9c 83 bc 2c 5f 59 3c a9 e9 8b 3d 7a ac f3 3c
       -0.016065707 0.01326732 0.068316765 0.02974533
000100 a2 49 d8 3c bb fb 63 3d 4a 2c c9 3b aa 8f 58 3d
       0.026402298 0.05565999 0.006139313 0.052871384
000110 cf ca 9e bb c2 fa d2 3b 73 cc 58 3d 00 e8 65 bd
       -0.004845954 0.006438584 0.052929353 -0.056129456
000120 0c ba 56 3d 6b 90 42 3d 54 1f 42 bd 11 77 f0 3c
       0.052423522 0.04750101 -0.047393158 0.02935365
000130 bd 0f a5 bc c5 0e 8e bc 3a 9c 1c bd 54 c6 e3 bc
       -0.020149106 -0.017341027 -0.038234927 -0.027804531
000140 99 e3 1b 38 c9 eb 4b bc 9a dd 1a 3d 6b cd 8d bb
       3.7166847e-05 -0.012446352 0.037808992 -0.0043274662
000150 4d 34 d5 3c f5 44 f0 3c 3c 10 11 bd 69 ee 7b 3d
       0.026025916 0.029329756 -0.035415873 0.061506663
000160 73 66 6c 3c 50 2b 3e bd aa 61 94 bc fe 15 9f 3d
       0.014428723 -0.046428025 -0.018112976 0.077678666
000170 6d 38 89 bd a0 22 9b bd 14 ac 46 3d 93 7d a1 bd
       -0.067002155 -0.075749636 0.04850395 -0.078852795
000180 7a ae 9b 3d 85 c7 96 3d 59 3d 42 3d 26 30 bf 3b
       0.07601638 0.07362274 0.047421787 0.005834597

linear_last.weight f4 [7, 100]
000000 93 2a 21 bd b7 95 46 3d 3d d2 df bc 21 cb 11 be
       -0.039347243 0.048482623 -0.02732193 -0.14237644
000010 51 b7 5e be b9 35 c9 bd 68 d3 1b 3c a0 0e a0 bd
       -0.21749617 -0.098247 0.009510852 -0.078152895
000020 13 cd 13 3e 41 86 88 bd 46 c8 a7 3d 40 35 53 be
       0.14433698 -0.06666232 0.08192496 -0.20625782
000030 65 51 dd 3b 36 5b b1 3d 6e 84 37 bd 13 19 78 bd
       0.0067540877 0.08659975 -0.04480403 -0.060570788
000040 a6 e2 3e 3d 23 71 47 be d7 74 2d bd e7 97 82 3d
       0.046602868 -0.19476752 -0.042347755 0.06376629
000050 9e 3c 50 be ad c5 29 be f0 d6 a2 3d b1 db 6a be
       -0.20335624 -0.16579314 0.07951152 -0.22935368
000060 56 f4 8f be fa 06 23 be 93 06 a5 3d 68 1e e4 bd
       -0.281161 -0.1592063 0.080578946 -0.11138612
000070 68 1f 27 be c2 25 f7 bc 6e 0e 09 be b8 0b 81 bd
       -0.16320574 -0.030169372 -0.1338441 -0.06301063
000080 95 80 d9 3d e8 7c 98 3d b6 ac a1 bb 96 c8 aa 3c
       0.10620228 0.07445699 -0.004933919 0.0208476
000090 0a 48 66 be 21 14 2e 3d 20 7c 7d 3e 97 75 7c bd
       -0.22488418 0.042499665 0.24754381 -0.06163558
0000a0 58 5e 97 3c e2 3d da 3a 89 e3 36 be eb 4a d2 bc
       0.018477604 0.0016650523 -0.17860235 -0.02567049
0000b0 4d 3c 29 be 6d 50 32 3d e7 08 36 be 31 22 ba be
       -0.16526909 0.04353373 -0.17776833 -0.3635421
0000c0 95 12 4e bc da b8 69 3c 65 48 fe bb 7c 88 01 bf
       -0.0125776725 0.014265263 -0.007760095 -0.50598884
0000d0 8c af 77 3d 20 78 81 bb a9 b8 09 be 32 7d 5c be
       0.06047015 -0.0039510876 -0.13449349 -0.21532133
0000e0 c2 76 73 be 4f 58 a5 3d f4 84 79 3c 6c ea 6a be
       -0.23775771 0.08073484 0.015229452 -0.22940987
0000f0 3c ab 34 be b4 2e 6e be 3a ec ff 3c 8e 88 32 bd
       -0.17643446 -0.23260003 0.031240571 -0.04358726
000100 c4 da 83 be ea f3 08 bc fd c6 2c bc 9f 68 ea bd
       -0.25752842 -0.008358935 -0.010545489 -0.11445736
000110 c6 f9 9c be c0 2d fe 3c c1 5f 9b be 33 f8 d3 3b
       -0.30659312 0.031027675 -0.30346492 0.0064687966
000120 8a 0f 7b 3d ca b7 26 3e a2 f2 b7 3c c0 e3 ba 3d
       0.061294116 0.16281047 0.022454564 0.09125471
000130 54 f6 b6 3d bc a0 4b 3d 57 5a 96 bd c0 18 71 3c
       0.08933702 0.049713835 -0.0734145 0.0147153735
000140 61 40 37 3d 85 71 16 3d 47 fa 06 bc 8e 7c 99 bd
       0.04473913 0.036729354 -0.008238382 -0.0749446
000150 cb 3c 92 3d 55 29 56 3d 85 c1 6a be 1b ce 75 be
       0.071405016 0.05228551 -0.22925384 -0.24004404
000160 23 5d 37 be 48 f1 8e bd 1f a2 b3 3d 31 87 54 be
       -0.17906623 -0.069796145 0.087711565 -0.20754696
000170 05 90 3b bd f6 67 21 3d 8e a7 3d be 08 81 ce bd
       -0.045791645 0.039405786 -0.18520948 -0.100832045
000180 73 95 b0 3d 30 70 2a be d4 68 c1 3c e3 ac bd 3d
       0.08622255 -0.16644359 0.023609556 0.09261491
000190 4f 48 4b 3d 23 5e 2d 3d 3f ab 9e bc 64 47 83 be
       0.049629506 0.042326104 -0.019368766 -0.25640404
0001a0 29 ec 1a 3e d3 e4 6e be f2 31 12 bd 46 0c 50 3d
       0.1512915 -0.23329477 -0.035692163 0.050792955
0001b0 84 4a 0e 3e 9c 40 38 3d 71 e5 7a 3c 98 e9 30 be
       0.13895613 0.04498349 0.015313492 -0.17276609
0001c0 74 6e 8b 3c 14 f0 31 be ad 08 5d 3d 5b 18 af 3d
       0.017020442 -0.17376739 0.053963352 0.08549567
0001d0 dd b2 72 3d 0f f5 df 3d 4d de 22 bd c6 97 b9 3d
       0.05925261 0.10935413 -0.039762784 0.090621516
0001e0 06 ca e3 3b 6f ac f8 bb 3e dc af 3d de a2 75 be
       0.0069515733 -0.007588915 0.0858693 -0.2398791
0001f0 39 60 4b be 17 7b 2e be e0 ae c8 bc 49 15 79 bd
       -0.19860925 -0.17039143 -0.02449745 -0.060811315
000200 a8 01 9f bd 2c dd 06 3d 77 2a 50 be 0c 66 a5 bd
       -0.07763988 0.03292577 -0.20328699 -0.080761045
000210 c1 85 5d 3e 0f b5 b5 3b 63 c8 ab 3d a1 8e 51 3d
       0.21633054 0.0055452655 0.0838783 0.051161412
000220 80 29 5f 3d 38 c3 5f bd be 5c ae 3d fa 7c fe 3c
       0.054482937 -0.054629534 0.08513783 0.031065453
000230 0f 24 63 bb 2d f0 64 3d 6c 65 44 be 82 45 0f be
       -0.0034658944 0.055893112 -0.19179314 -0.13991359
000240 47 51 d8 3d be ce ab be c0 0c 9b bc 44 b0 c1 be
       0.105623774 -0.3355617 -0.018926978 -0.37829792
000250 c0 7f 9f 3d 54 c1 6a 3d 5e da ca bd 88 78 f6 3d
       0.07788038 0.05731328 -0.099049315 0.12034708
000260 57 60 94 bd 72 14 31 3d c4 99 16 be 45 fa 20 bd
       -0.07244938 0.04323239 -0.14707094 -0.039301176
000270 2e 13 82 be d2 5d 20 3d ae cb bf be 8b 6c 82 bb
       -0.25405258 0.039151974 -0.37460083 -0.0039802245
000280 bf ff a8 bc bf 7b 3e be 90 8f d1 3d b9 15 a2 be
       -0.020629762 -0.18601893 0.102324605 -0.31657198
000290 f2 09 80 bd 63 0b 8f be 52 23 98 bd 3c 47 50 be
       -0.06251897 -0.27938375 -0.07428612 -0.20339674
0002a0 90 10 3d bc 33 0f c3 3c d5 85 ca 3d 73 36 29 3d
       -0.011539593 0.023810958 0.09888808 0.041311692
0002b0 68 76 84 3c ee 48 49 3e 41 69 78 3c 53 b7 a8 bd
       0.016169742 0.19656727 0.015161813 -0.08238091
0002c0 d2 2d 84 3d 22 e9 90 bb 33 f4 36 bb 42 e0 29 3d
       0.06454052 -0.004422323 -0.002791655 0.041473635
0002d0 ab 26 96 3b a1 0c 3a bd 48 aa 47 3d 08 96 72 be
       0.0045822463 -0.0454222 0.048746377 -0.23690045
0002e0 d1 25 9a bb 7c cf 89 be f4 99 be bd 41 36 3c be
       -0.004704215 -0.2691611 -0.09306708 -0.18380071
0002f0 a6 79 94 be fb 39 8a 3d c5 a8 aa bd 4a e6 36 3d
       -0.2899906 0.0674934 -0.083329715 0.044653215
000300 0c 18 09 3e e8 a9 e1 3c 18 61 6f be 7d 2c 29 3d
       0.1338808 0.027546838 -0.23376882 0.041302193
000310 de 23 8f 3d 3b 20 fc bd 5f 38 b6 3d d7 b2 7f bc
       0.06989263 -0.12310835 0.08897471 -0.015606604
000320 2b 52 e2 3d bd f7 ab bc 01 64 c5 bd a8 78 27 3e
       0.110508285 -0.020992154 -0.09638215 0.1635462
000330 a9 59 8e bd 5d 2d 39 3d 48 27 31 3d 59 43 96 bd
       -0.06950695 0.045209277 0.043250352 -0.07337064
000340 58 72 77 be 3c 07 0a bb 91 b2 a3 3c 92 93 d7 3d
       -0.24164712 -0.002106144 0.019982608 0.10526194
000350 19 12 87 bb 88 54 8f 3d 54 93 40 3d 30 02 ce bb
       -0.0041220305 0.06998545 0.047015503 -0.006286882
000360 a4 b9 38 bd 08 1d f9 bd f1 a0 a0 bd 4b 54 52 3d
       -0.045098916 -0.121637404 -0.07843197 0.05134992
000370 66 7e 73 3d be e1 4f be 87 ba de 3a 0d c9 a1 be
       0.059446715 -0.20300958 0.0016992845 -0.31598702
000380 cf 48 87 be 01 d2 b3 bd ea 4a cb 3d 39 05 23 be
       -0.26422736 -0.087802894 0.09926398 -0.15919961
000390 4d 89 9f bd a2 eb 8a bd 07 31 ac bd 4f 5b bd 3d
       -0.0778986 -0.06783225 -0.08407789 0.09245931
0003a0 25 32 40 be 54 9f bb bd 16 e9 6b bd 1c 05 c4 bc
       -0.18769129 -0.09161249 -0.057595335 -0.023928218
0003b0 9e 52 30 3c 9f 21 7b bd f2 33 c2 be 62 06 84 bd
       0.010761885 -0.06131136 -0.37930256 -0.0644653
0003c0 51 57 a3 3d 64 71 1e be 05 2e 23 bd a8 19 ea 3d
       0.07975639 -0.15472943 -0.03983881 0.11430675
0003d0 9b ec 29 bd aa 27 c8 3c c5 b7 a8 3e 75 db c7 bd
       -0.04148541 0.024432976 0.32952705 -0.09758655
0003e0 60 26 b4 3c ad 1e 05 bd e3 3f 3b be 81 5e 7d 3e
       0.021990955 -0.032499958 -0.1828609 0.24743082
0003f0 75 3f 9a 3d 08 6f b2 3c 4e fe 42 3e 25 87 a4 3e
       0.07531635 0.02178146 0.19042322 0.32134357

linear_last.bias f4 [7]
000000 a1 21 19 bb 9c 9d a7 3d 30 e3 c3 bd e0 28 32 3d
       -0.0023365992 0.081843585 -0.09564817 0.043496013
000010 ab e9 c9 3d e8 e8 82 bd 8e c7 89 bc
       0.09859022 -0.063920796 -0.016818788
